model/MAT_AutoEnc_Eig3.pth (torch, 965973 bytes, 36 tensors)

encoder.0.weight f4 [256, 24]
00000000: 5cd7 7cbe 816b 56be 50bc fb3d 39be 4fbe
00000010: 8d8d 86be 6f4f 5bbe 7935 b8bc cf9e d03d
00000020: b367 82be 4cbb d5bd 6c17 b1bd 2b1b 6cbe
00000030: ceee c53d 033d 45be dac4 29be 34bf a53b
00000040: e95b 9f3d 6a60 d33c 663f a0bd 90b6 a8bb
00000050: 4f23 663d 916a dfbd 7d04 2dbe d3f5 4d3d
00000060: 38e2 27be 4e1a 393e cda0 0d3e 43d8 fabc
00000070: 1939 4c3f aeb1 b43b 2460 803d abaa 0bbe
00000080: 9281 903e 10c5 b6be 8343 443c d944 1f3e
00000090: 2a0b c6be 2a59 133e 37af eb3d 4649 75bd
000000a0: 7dec fdbd ae0a d33d c255 a9bd fae4 fbbd
000000b0: 0324 e53d c747 323e 8664 013e 1cab abbd
000000c0: c653 fb3d c3a3 ebbd 4fb8 b93d 4fc6 3a3e
000000d0: 615a 853f a18b 9bbb 182a e23d 08a0 003e
000000e0: 8b4f 17be 055e 993e 6902 69be 0401 a83e
000000f0: 9162 5dbe 89bc d3be cb8f 8e3e 1a14 5d3e
00000100: 9fdd d83d 60be 8bbf 90fc 413e 513e 80be
00000110: 40a0 89be 7c4d db3d a507 163d 8fb0 103d
00000120: f4e8 f13d 914c c6bd be79 033e 27ba 4c3d
00000130: 9077 143e e92c de3d aa40 adbd c689 9dbd
00000140: 1bee 4bbe 101c e63d 4740 bbbd 27fe e33d
00000150: 8bf7 dcbb 51a4 993b 629a ffbd aabb b1bc
00000160: 9fb6 b43d 1681 6dbb 3978 883d a988 5cbc
00000170: babc 81bd e927 8c3d 4279 02be 314f 1dbe
00000180: ffbf 2abe f6df 45bc fe3d 043b d3c5 debd
00000190: d138 5dbd bad7 19be 318f 0abd 2998 503e
000001a0: ca0b 2b3e 41e7 98bb 046f ae3d 70e2 0b3e
000001b0: 4aad cdbd 5d3b 1fbd f4db 3f3e 8536 e2bd
000001c0: 224a 383e 9cb4 17bd 04ed 883a 0948 353b
000001d0: 467e 013d eb21 33bd 05ed 17be b7fa 243d
000001e0: 8fda 373e 8af0 c7bd a67d 0e3d 989a 4abe
000001f0: 9db5 0ebe 7662 8fbd 9589 253e 239e c73d
00000200: 7506 adbd dff9 e5bd c571 e5bd f36f b23d
00000210: 09d6 fcbc 7973 3a3d e645 ee3d 8b94 13be
00000220: 486e 27be 9f47 52bc bd45 913c 6fa8 04be
00000230: 0be5 9e3a c81a 26be a781 c13d bd17 8abd
00000240: 28c3 223e 217a db3d 7d94 adbd f7ee 443d
00000250: 594e 843d 6b81 63bc c6d5 a73d 44cf babd
00000260: d0bf f73d 20c4 1fbe 0b6a 3fbd d192 27be
00000270: e2bb 3e3e 5ce9 e63d b810 1b3e 1e60 b2bd
00000280: 8895 18bd 882f 863d 155a 19be 2119 ee3d
00000290: 4f44 503e 516b 4bbe ca5a 49be 5c1d f1bc
000002a0: 1a9e 86be 27e0 0d3e 5de8 5dbe fe0b 8bbd
000002b0: 9ab0 d8bd 31af cc3d f494 d23d d623 a4bc
000002c0: b54c 8abd 6189 57bd 35f8 9fbd 06e1 19bd
000002d0: 511e a1bc 30e8 f33b 3699 b63c 25d8 84be
000002e0: 43fb 053e c833 ce3d 21cf 8b3c 6227 013d
000002f0: acb7 d8bc 1c1f 7fbe 226c 203d ca1f 6a3d
00000300: 08cf fcbd 420e 4bbb 8df2 023e fae2 45be
00000310: abeb 2d3e 4c2e 253e 9f01 4d3e b91a 8f3c
00000320: ad92 aebd 32ad 383e 49a1 a83d 93a3 90bd
00000330: 2eb4 0dbd 7654 12be f235 273e 99d0 3c3d
00000340: 8e17 c73c e5d7 343d 595f 8a3c 74a0 3ebe
00000350: 9cbf d63d 2cd5 833c 0033 f8bd a9dc 24be
00000360: bf81 d13b 53e8 1d3e 2c82 0fbd 47a9 21bd
00000370: 79ca 98bd 3a4e 423e 4f43 01bd f563 dabc
00000380: 9149 163e f043 93bd 611b 0f3d 5cf9 823e
00000390: d035 0a3d 5714 6ebe 123a 703d eedb 9c3a
000003a0: 8ea9 32be a41c 293f bdd8 9d3d d932 c53d
000003b0: 522a 823d 77b2 113e 25ad 503e 0fb8 98bd
000003c0: 7bbe 083e 6f43 e2bd ea47 60bd fb85 77be
000003d0: ba2e d8bf d356 b03d 5f94 8bbc e8ea d23d
000003e0: c25a acbb 7465 153f ed25 943e 5526 b9bd
000003f0: f304 94be 54d4 0ebd d042 6e3b 853d 11be
-0.24691528 -0.20939447 0.12291777 -0.20287408 -0.2627987 -0.2141702 -0.022486435 0.1018654
-0.2546974 -0.10436115 -0.086470455 -0.23057239 0.09664689 -0.19261555 -0.16578999 0.0050581936
0.07781202 0.02580281 -0.07824592 -0.0051487163 0.056186017 -0.10908998 -0.16896243 0.050283264
-0.1639489 0.1807644 0.13830872 -0.0306207 0.79774624 0.005514345 0.06268337 -0.13639323
0.28223854 -0.35697222 0.011978987 0.15553607 -0.38680393 0.14389482 0.11508029 -0.059884332
-0.12398622 0.10304771 -0.0826831 -0.12299533 0.11188509 0.17410193 0.12636003 -0.08382246
0.12271838 -0.115058444 0.09068357 0.18239711 1.0418206 -0.0047468697 0.11043185 0.12561047
-0.14776437 0.29954544 -0.22754826 0.32813275 -0.21619631 -0.41354778 0.2784408 0.215897
0.10589146 -1.0917473 0.18944001 -0.25047544 -0.26880074 0.10708138 0.036628384 0.03532463
0.118120104 -0.09682573 0.1283941 0.049982216 0.14498734 0.1084841 -0.08459599 -0.07692294
-0.19915049 0.11235821 -0.09143119 0.1113246 -0.0067433766 0.0046887775 -0.12480618 -0.02169593
0.08823895 -0.0036240271 0.06663556 -0.013460317 -0.06334825 0.0684355 -0.12741569 -0.1536224
-0.16674803 -0.012077322 0.0020178552 -0.10877576 -0.054009262 -0.150237 -0.033827964 0.20370544
0.16703716 -0.0046662395 0.08517268 0.13660598 -0.10042818 -0.038874973 0.18736249 -0.11045555
0.1799703 -0.037037477 0.0010446613 0.0027661345 0.031614564 -0.04373352 -0.1483651 0.040278163
0.17954467 -0.09762676 0.034787796 -0.19785535 -0.13936467 -0.07001202 0.16165765 0.09746959
-0.08448497 -0.112293 -0.112033404 0.08712759 -0.030863779 0.04552028 0.11634426 -0.14412133
-0.16350663 -0.012834459 0.01773345 -0.12954877 0.0012122703 -0.16221154 0.09448557 -0.06742809
0.15894759 0.107166536 -0.084755875 0.048079457 0.06460256 -0.013885836 0.08195071 -0.09121564
0.12097132 -0.1560216 -0.04673199 -0.163646 0.18626359 0.112749785 0.15143096 -0.08709739
-0.03725198 0.065520346 -0.1497577 0.11625887 0.20338558 -0.19865157 -0.1966354 -0.029432945
-0.26292497 0.13855039 -0.21670671 -0.06789397 -0.10580559 0.099943526 0.10282317 -0.02003662
-0.06752912 -0.05262125 -0.078110136 -0.037568115 -0.019667776 0.0074434504 0.022289854 -0.25946155
0.1308413 0.1006847 0.01706654 0.0315317 -0.02645477 -0.24914211 0.039165623 0.057159223
-0.123441756 -0.003098384 0.12787838 -0.19324866 0.16984431 0.16130942 0.2002015 0.017468797
-0.0852407 0.18034819 0.08233888 -0.07062449 -0.03459566 -0.14290032 0.16329172 0.04609737
0.024303224 0.044151206 0.016891168 -0.18615896 0.10485765 0.01609286 -0.121191025 -0.160998
0.006393641 0.15420656 -0.03503625 -0.039468076 -0.074604936 0.18975154 -0.03155833 -0.026658991
0.14676501 -0.071906924 0.03493822 0.2558087 0.033742726 -0.23249947 0.05864913 0.00119674
-0.17447492 0.6605933 0.07707355 0.09628839 0.06355728 0.14228235 0.2037855 -0.074569814
0.13353913 -0.11048018 -0.054756083 -0.24172203 -1.688926 0.086103104 -0.017038522 0.10298711
-0.0052598426 0.5835793 0.28935185 -0.090405144 -0.28910026 -0.03487046 0.0036355741 -0.14183624

encoder.0.bias f4 [256]
00000000: ca61 86be 7b88 f13c 5cdd e0bd 215a 6cbe
00000010: 2fde 043e 93e0 92bd 8ff3 72bd 15ce cebd
00000020: ff79 e2bd a388 abbc 4f8e 38be 6404 113e
00000030: f124 c23d d84f 1abd e7a1 b53e 0c17 7fbe
00000040: 22e0 9c3c 81f6 173e 22fb 7cbd b0e0 803d
00000050: d8be b13d c2d2 2cbd d6f7 b0bd 1ab9 52bd
00000060: d09d 823c ef47 933e 5468 3ebe 518a 213e
00000070: 28fb 9a3e dc04 dc3d fda1 e93e b289 67be
00000080: 841e bbbd 41d9 72be d4f7 8cbd ac13 ca3d
00000090: b3bc ed3d a72f 13be 3fbc 27bd d145 923d
000000a0: b7ba bdbc 464d a8bd f87f 83bd ecd5 b33d
000000b0: d666 81be 9d51 83bc 4efb 883c 7a57 003e
000000c0: eaaf 81be 9610 763d 3913 ca3d 03a8 fc3e
000000d0: 718f 9cbd 00a3 ffbd 57d4 48be 672b 18be
000000e0: 1951 443e a5b4 473e c7bb ed3d 28d3 c43d
000000f0: 4336 28be 19bc 95bd 3e74 0bbe 2166 173e
00000100: 2b19 2e3e 09bd 6fbe d008 8d3e 2adf 6bbe
00000110: 877e 63bd 8ca0 ac3c a61b 0e3e ec3f 13bd
00000120: d84d 213e eeaa 973d b5f0 8b3c f53f df3c
00000130: af12 29be a744 553d 4bd8 54be 41fd 183d
00000140: 82f7 883e 28a4 8d3d 4602 3f3e 7fe5 a539
00000150: 00ff 3bbd f202 02be 3dd9 5ebd 01ba 92bc
00000160: 2906 093e 7a46 09bd 1c4a 8d3c 4876 963b
00000170: e227 ce3c 66d0 2abe 9fb7 663e 1f11 613e
00000180: 6450 973d 0541 35bd f2b7 f63d 3b84 45be
00000190: a172 693d b98e db3d 618f d7be 9148 013e
000001a0: ebd9 dcbe 552b 73be ed25 28be bc2b 673e
000001b0: 4171 cd3d 29da 483e f6d9 163e 6496 cb3e
000001c0: bb83 2cbe 160e 82be d932 a0bd fc5a 68be
000001d0: 5b5d 10be 7341 6dbd 4d46 7b3d ce04 68be
000001e0: 0a67 cd3e 2e59 6fbc ff58 bc3d f21d 97be
000001f0: b31e aebc ea2e 71bd 9a69 33be afc6 8ebd
00000200: 9179 b33d ff5c 963e ad62 5c3e 6440 0fbe
00000210: c384 443e 53c4 ca3d 3f1e 7cbe 1ca2 89be
00000220: f937 71be a33d 88be 3ccc 213d a978 25be
00000230: bc61 ccbd 4e4c c63d a198 073f 1e75 7bbe
00000240: 84ef 48be 6c8f a1bd d5f8 36be 0672 66be
00000250: fe16 acbd 5632 0cbe e6f0 bd3d d494 0a3e
00000260: 04b3 c13d 4760 ac3e f167 063e bdf0 5b3e
00000270: 57a0 a4bd 9cd7 3f3d ac5d aa3e fc12 92be
00000280: bd5b 003e a702 d93e 00be 7c3e 0e83 b43c
00000290: 35f3 12be c245 073e 66aa 1ebe b9cc 68be
000002a0: 85fb 19be b548 623e 0d33 93be fc03 e4be
000002b0: f574 2dbe e299 e3bd c497 4fbe 5ada 1b3d
000002c0: fadf b1be ca24 bf3f 9ae5 a93d 7aa5 843e
000002d0: 355f a0bd 1827 d4be 8475 3dbe 9a91 51be
000002e0: 14c8 4a3d c766 42be 75c3 bd3c f61d fa3d
000002f0: d93a 4dbe e3b8 fb3d 106a 28be 84e0 2b3d
00000300: f0f2 07be ccc8 96bc 07ab 253d 2134 40bb
00000310: 622d 0bbd 33eb b4be f293 053e cefc 5cbe
00000320: 33c9 3c3f 6742 b83d de71 1ebd 69f1 2fbe
00000330: 3286 b1bd 0934 e7bd c807 923d ec35 243c
00000340: 1c0f 773d 13e3 1c3f fc60 ffbd 1e2a 4c3c
00000350: a8a9 99bd f7f4 d63c 4176 3d3e 16f6 0cbe
00000360: 11b6 3dbe a898 abbe 7251 b83e e4d9 963d
00000370: dddf a93e 3de3 383d d737 ed3d edcd b8bd
00000380: e4f1 97bd 5726 68bd c1d7 c8bd b9ad 1cbe
00000390: 28d5 37be f329 53be 464c 863c 2c9c 023e
000003a0: d58d 123e 6415 b53e c5c3 7cbe 3460 f4bd
000003b0: 33da 83be ca63 a5bd a67e 20be 6428 f23d
000003c0: d5ec af3d 4071 b0bd 4e43 0dbe e2a7 1d3d
000003d0: 4fb6 96bc 3d13 5ebd 4ca4 13be d422 0dbe
000003e0: a91e 373e 6680 9e3e b6bf 1ebe 8904 e7bc
000003f0: 8aa2 2bbb 6225 5b3e 908e bfbd 8a97 cdbe
-0.26246482 0.029484024 -0.10979721 -0.23081256 0.12975381 -0.071717404 -0.059314307 -0.10097901
-0.11058425 -0.020939177 -0.18023036 0.14161831 0.09479702 -0.0376738 0.35475084 -0.24911135
0.019149844 0.14840128 -0.061762936 0.06292856 0.08678979 -0.04219318 -0.08641021 -0.051446058
0.015944391 0.28765818 -0.18594486 0.1577542 0.30269742 0.10743114 0.456314 -0.2261112
-0.0913668 -0.23715688 -0.06883207 0.09867033 0.11608257 -0.14373647 -0.04095101 0.07142223
-0.023160322 -0.08217864 -0.064208925 0.08781037 -0.2527377 -0.016030127 0.016721394 0.1253337
-0.25329524 0.06007441 0.09866948 0.49346933 -0.07644547 -0.12482262 -0.19612251 -0.14860307
0.19171561 0.19502504 0.11608081 0.09610587 -0.16426949 -0.073112674 -0.13618562 0.14785053
0.17001788 -0.23411955 0.27545786 -0.23034349 -0.055540588 0.021072648 0.13877735 -0.035949633
0.15752351 0.07405649 0.017082551 0.027252177 -0.16511033 0.052067425 -0.20785634 0.037350897
0.26751333 0.06916076 0.18653211 0.0003164224 -0.045897484 -0.12696436 -0.054406393 -0.01791096
0.13381256 -0.033514477 0.017247252 0.004591737 0.025165502 -0.1668106 0.22530983 0.21979187
0.0738838 -0.04425146 0.120468035 -0.19288723 0.056994084 0.107205816 -0.42101577 0.12625338
-0.43135008 -0.23746999 -0.16420718 0.22575277 0.10031367 0.19614471 0.14731583 0.39763176
-0.16847126 -0.25401372 -0.078221984 -0.22690958 -0.14098112 -0.057923745 0.06134634 -0.22658083
0.40117675 -0.014608664 0.09196662 -0.29515034 -0.021254873 -0.05888263 -0.17520753 -0.0697149
0.08763421 0.29367825 0.21522017 -0.13989407 0.1919127 0.09900727 -0.24620913 -0.26881492
-0.23556508 -0.26609525 0.039501414 -0.1615931 -0.09979579 0.09682523 0.5296727 -0.24556395
-0.19622618 -0.07888684 -0.1786836 -0.22504434 -0.08402823 -0.13691077 0.09274463 0.13533336
0.09457973 0.33667204 0.13125588 0.21478553 -0.08038395 0.04683648 0.3327459 -0.2853011
0.12534995 0.42384836 0.24681854 0.022035148 -0.14350589 0.13210204 -0.1549469 -0.22734345
-0.15037353 0.22098048 -0.28749886 -0.4453429 -0.16939147 -0.11113335 -0.20272738 0.038050033
-0.34741193 1.4933102 0.08295746 0.259075 -0.07830659 -0.41436076 -0.1850186 -0.20465699
0.049507216 -0.18984519 0.02316449 0.12212746 -0.2004198 0.12291124 -0.1644671 0.04196216
-0.13276267 -0.018406294 0.040446308 -0.0029327946 -0.033978827 -0.35335693 0.13044718 -0.21580812
0.73744506 0.0899704 -0.03868281 -0.17181934 -0.08668174 -0.11289222 0.071303904 0.010022622
0.060317144 0.6128399 -0.1246967 0.012461213 -0.075030625 0.026239855 0.18502142 -0.1376575
-0.18526484 -0.33514905 0.35999638 0.07365778 0.33178607 0.045138586 0.11582916 -0.09023652
-0.07419184 -0.05667719 -0.09806777 -0.15300645 -0.17952406 -0.20621471 0.016393792 0.12754887
0.14311917 0.35367882 -0.24684055 -0.11932412 -0.2575241 -0.08075674 -0.15673313 0.1182411
0.08590094 -0.08615351 -0.13795206 0.038490184 -0.018397478 -0.054217566 -0.14418143 -0.13782817
0.1788279 0.30957335 -0.1550282 -0.028200405 -0.002618941 0.21400979 -0.093533635 -0.40154678

encoder.2.weight f4 [128, 256]
00000000: 642a b53c 88f6 17bc 18b4 15bd 5c15 6ebd
00000010: 760d 6dbd 2070 e6bc 743d 743d 0ca0 b23c
00000020: 8ce0 5c3d f0e8 a63c d867 15bc b03f c8bb
00000030: 8a1f 273d ead0 53bd f291 313d 5e50 56bd
00000040: 1868 b23c 1014 8f3c e4b6 2bbd 9c86 a33c
00000050: 70c7 c8bc b8d6 0c3c 9642 72bd 7084 dc3b
00000060: a0f5 31bc 828c 54bd 70ce c03c ec40 f83c
00000070: b8c1 5f3c 804b 743d e03e 953b 10fb d63c
00000080: 1044 0c3d 0850 32bd 9491 15bd 50aa 1dbd
00000090: ac0b dd3c bc82 da3c e011 f6bc 0078 db3c
000000a0: dc9b 54bd 8847 27bc 5806 773c 1431 eb3c
000000b0: bcff 1bbd 8a14 30bd 82e4 75bd d02c 663c
000000c0: b09b 6fbd eac4 1e3d e05a 363b 6059 bcbb
000000d0: f026 99bc f66a 7bbd e001 b53c 30fd 66bc
000000e0: d864 513d e41b 413d 5e88 573d 5023 923b
000000f0: c849 443d 2c68 6e3d d019 ddbc eaef 6ebd
00000100: 3ae2 5cbd 1020 d1bb 2840 b7bc 5e9d 52bd
00000110: 185b 74bd b009 63bc a033 18bd 805a 403c
00000120: bef2 44bd 8034 04bd b855 67bc 708a dfbb
00000130: 1652 14bd 0049 63bb 5052 923b d0e8 0cbc
00000140: ce37 49bd b684 703d 826c 5abd 587f ed3c
00000150: f6c2 77bd ec2d 5b3d 2412 48bd 3c93 fcbc
00000160: 3a1a 0fbd 8e32 3c3d ae90 56bd 480f bdbc
00000170: 0cdd 79bd f811 d83c 22c5 6bbd fc9e 0d3d
00000180: 5ae4 53bd 7cd6 93bc 9251 00bd 7091 04bd
00000190: e09e 3c3b 602c 823b 7ed4 7f3d c88c 8e3c
000001a0: f080 e83c 6ec1 143d 1cc7 ef3c 8c78 cbbc
000001b0: a0c2 fa3b 20ac d53b f0dc 503c 60f1 4a3c
000001c0: 128d 7b3d e650 553d 305f 24bc 6019 f63b
000001d0: 8c4e 64bd 40cc 083d 1425 f53c 8024 f4bb
000001e0: fe91 4cbd d048 223d 0818 63bd 3484 d63c
000001f0: 2e6d 03bd f0d1 37bc 784e 763c c0e0 483d
00000200: 6ae5 13bd a012 7fbb 1076 2fbd 60ee 433b
00000210: e009 593c 0837 a8bc e8e6 e9bc 8a59 24bd
00000220: c0a7 803c 886e 803c 802f 6e3c 88cc 64bc
00000230: 780a eebc 1057 a9bb 7678 31bd c07d 26bb
00000240: 7e93 59bd e099 68bd c08d fd3a 5081 493c
00000250: 8e4d 6b3d 70d4 01bd da8b 5abd d8f1 303c
00000260: b273 2abd 2cae a7bc 1853 4dbd 8045 cc3a
00000270: b00a 2f3d 3e43 76bd 70fc c03b c641 6b3d
00000280: 2ec0 2bbd b04e b03b 80e4 a43b c081 f4bb
00000290: 9c20 5bbd 9612 5b3d 30f3 f13c 1817 493c
000002a0: faac 1cbd c0c0 d2ba 5cb6 76bd 905b 4a3d
000002b0: c45f c93c ec85 b03c 60fd 0e3b c830 1e3d
000002c0: 7aad 0ebd 6074 07bd 3e85 7f3d 9804 ff3c
000002d0: a05a 4b3c 10f7 a63c c221 02bd 727a 753d
000002e0: 8c34 c5bc bc5b 18bd 4c13 44bd a068 693d
000002f0: 18e1 e5bc c463 04bd b0eb e53b 007f e33c
00000300: 601c 843b 3002 f3bb 4019 a7bb 28a7 173d
00000310: da25 3ebd 6ac6 7abd 0413 be3c d07f 5e3d
00000320: f8c5 213d c460 b13c a44a 27bd 3e20 713d
00000330: a08e e3bb 1a44 683d b605 5cbd c0a1 7d3d
00000340: bc89 63bd b842 813c 303c 403d c06a 61bb
00000350: 4c44 df3c d000 b33b c896 4fbc d8f3 38bc
00000360: 300f 0ebc 700e f8bb 5069 99bb 90e3 fabb
00000370: 38c9 f3bc a870 b43c 8617 38bd a8e5 09bc
00000380: 3ae9 68bd 264b 5ebd 9a11 5abd d0d9 e93c
00000390: 1c27 96bc 0070 19b9 8ab9 273d 00db 5bba
000003a0: 9c77 4c3d 3026 d23c ac00 113d 30e8 0dbc
000003b0: 74e5 9c3c 22ca 4cbd 9616 21bd 94b3 093d
000003c0: 0e7d 703d 3299 373d b84d 68bc d499 72bd
000003d0: 90e6 c2bb 94e3 f0bc 58c7 253c 74bb 713d
000003e0: c044 4ebd 6e0f 0dbd dc33 7bbd bacc 243d
000003f0: 9498 e3bc fc72 e0bc 4203 283d 8c43 783d
0.02211494 -0.009275086 -0.036548704 -0.05812584 -0.057874165 -0.028129637 0.05962892 0.021804832
0.053925082 0.020374745 -0.009118997 -0.0061111078 0.040801562 -0.051712908 0.043352075 -0.052322738
0.021778151 0.017465621 -0.041922465 0.019961648 -0.024509162 0.008596115 -0.059145533 0.006729655
-0.010861784 -0.05189181 0.023535937 0.030304395 0.013657026 0.059642315 0.0045546144 0.026242763
0.034244597 -0.043533355 -0.036515787 -0.0384925 0.026983105 0.026673667 -0.03003782 0.026790619
-0.05190645 -0.0102099255 0.015077196 0.028709926 -0.038085684 -0.042988338 -0.060032375 0.01404877
-0.058498085 0.03876201 0.0027825162 -0.005747959 -0.018695325 -0.061381303 0.02209562 -0.014098451
0.051121563 0.04714574 0.052620284 0.004459776 0.047921926 0.058204815 -0.026989847 -0.05833427
-0.053926684 -0.006381996 -0.02236946 -0.05141961 -0.059657186 -0.01385729 -0.03715861 0.011740327
-0.04808306 -0.03227663 -0.014119558 -0.006821923 -0.036211096 -0.0034680963 0.004465379 -0.008600429
-0.049125485 0.058720313 -0.053326137 0.028991386 -0.060488664 0.05351059 -0.048845425 -0.030831926
-0.03493712 0.04594665 -0.05238407 -0.023078576 -0.061001822 0.026375756 -0.057561047 0.034575447
-0.051731445 -0.01804661 -0.03132779 -0.032365263 0.002878122 0.003972575 0.062458508 0.017401114
0.028381795 0.03631728 0.029269747 -0.024837755 0.0076525956 0.006520763 0.012747988 0.01238665
0.061413832 0.052079104 -0.01003246 0.007510349 -0.05573897 0.033397913 0.029924907 -0.00745064
-0.049943916 0.03962022 -0.05544284 0.026186086 -0.032086544 -0.011219487 0.015033357 0.049042463
-0.03610746 -0.0038921013 -0.042837203 0.0029896721 0.013246983 -0.020534053 -0.028552487 -0.040124454
0.01570499 0.015677705 0.014537692 -0.01396478 -0.029057726 -0.0051678494 -0.04332777 -0.0025404543
-0.053119175 -0.05678737 0.0019344613 0.012298897 0.05744701 -0.031696737 -0.05335603 0.010799848
-0.041614242 -0.020468794 -0.050128073 0.0015584677 0.0427348 -0.06012272 0.005889468 0.057435773
-0.041931324 0.005380474 0.005032122 -0.0074617565 -0.053497896 0.05348452 0.029534906 0.012273572
-0.0382509 -0.0016079172 -0.060232505 0.049403727 0.024581797 0.021548234 0.0021818504 0.03862074
-0.03483341 -0.03306997 0.06238293 0.03113012 0.012411743 0.02038148 -0.031770475 0.059931226
-0.024072908 -0.03719686 -0.047869965 0.056984544 -0.028061435 -0.032321706 0.0070166215 0.02777052
0.004031703 -0.0074160323 -0.0050994456 0.037024647 -0.046422817 -0.06122438 0.023202427 0.05432111
0.03949544 0.021652587 -0.040842667 0.05886864 -0.0069444925 0.05670557 -0.053716384 0.061921835
-0.055551276 0.015778884 0.0469324 -0.0034395903 0.027254246 0.0054627433 -0.012670226 -0.011288606
-0.008670613 -0.0075700805 -0.0046817437 -0.007656522 -0.029759035 0.022026375 -0.04494431 -0.008416571
-0.056863047 -0.054270886 -0.053239442 0.028546244 -0.018329196 -0.0001463294 0.04094843 -0.00083868206
0.049918756 0.025652975 0.03540103 -0.008661315 0.01915238 -0.049997456 -0.03932818 0.033618525
0.05871301 0.044823833 -0.014178686 -0.059228733 -0.0059478953 -0.029405393 0.010118328 0.05901666
-0.050358534 -0.034438543 -0.061328754 0.040234305 -0.027782716 -0.027398579 0.041018732 0.060611293

encoder.2.bias f4 [128]
00000000: 00df 903c 3c7d 75bd d4c5 c6bd 72c8 72be
00000010: 568f fabd bfe4 cfbd c7c4 a13e 2130 b6bd
00000020: 9025 183e 506e 8cbd caf3 1bbd f41a 80bc
00000030: 7a08 7cbd 7bc1 b3bc 687f 4ebd a60d aa3e
00000040: a544 9ebd 61c3 8cbd a247 ecbc 7a68 30bb
00000050: e09e 293d 77cc a4bd 3ad9 363d d217 adbb
00000060: 73c1 9dbd 040f ddbc 81b1 7fbd 316f 20bc
00000070: 6a9a edbd a457 92bc 9faa aa3c 11b9 bebc
00000080: 221a 03bd d2a0 043d f9e3 1e3d 1968 00bc
00000090: 3ce4 babb 90b8 9bbd 7429 343d 1c50 3c3e
000000a0: 5c86 79ba 109f c13b 57f3 a5bd 4d71 5ebc
000000b0: edf4 4dbd 22e3 453e edfb 2abd 3de4 243e
000000c0: 0d14 f03b a4ff 193b 0d2b 223e 3511 81bd
000000d0: 1030 323c 5547 f7bc 20a8 043c c05b 59bd
000000e0: 7ff1 1ebd e30f 7dbd ecae 68bd 8a33 babd
000000f0: 605a 0b3b c84b ea3d bc85 04bd 0520 54bd
00000100: f996 97bd 6903 5a3e 70ad 99bb ec16 a8bc
00000110: 7048 91bd dc39 ce3c 1e95 a1bd 341f 86bc
00000120: 6854 adbd 82a1 083e 78bc b8bc bb08 9dbd
00000130: cecd 29bd 2e52 cebc 5ba7 c13b a513 58be
00000140: 9892 7b3d c160 9ebc 42fe 16bc e4ab e6bd
00000150: 4b9a 29bd 46d1 6abc 43d8 a2be 3e28 623c
00000160: 6026 d9bc fb8f 09bd 3d8b 4dbd 5b08 183e
00000170: cc26 8ebd a0a7 a8bd db83 3dbd d625 91bd
00000180: 7c32 4dbd 7e39 373d 2a42 6bbd 436f 64bd
00000190: 3b66 c1bc d8e5 5cbc d285 3ebd f160 4cbe
000001a0: f608 343e 68ab cf3c 4990 e1bd 1491 a9bd
000001b0: de07 7ebe 16ec 1f3d 5652 4bbe a2c1 41bd
000001c0: 7e60 eebd d2f3 313c ab16 4bbd c453 c9bb
000001d0: b222 f93d ce84 05bd 0512 a03d 5fe5 7b3e
000001e0: 3f68 5bbd 10e6 a1bd 4146 8ebd 5764 8abe
000001f0: 3c67 b6bd 0961 afbd 6653 80bb c61b 94bd
0.01768446 -0.059933886 -0.097057015 -0.23709276 -0.122343704 -0.10151052 0.31595442 -0.088958986
0.14858079 -0.06856978 -0.038074292 -0.015637852 -0.06153152 -0.021942845 -0.050414473 0.33213538
-0.07727937 -0.06873203 -0.028842751 -0.0026917742 0.04141128 -0.08046811 0.044640757 -0.0052823806
-0.07702913 -0.0269847 -0.06242514 -0.009792135 -0.11601718 -0.017864056 0.020833312 -0.023281606
-0.032007344 0.032379933 0.03879163 -0.007837319 -0.005703477 -0.07603562 0.043984845 0.18389934
-0.00095186173 0.0059088543 -0.08103054 -0.013576818 -0.050282408 0.19324926 -0.04174416 0.16102691
0.007326609 0.002349832 0.15836735 -0.0630211 0.010875717 -0.030185381 0.008096725 -0.053066015
-0.038804527 -0.06178273 -0.056807443 -0.090918615 0.0021263584 0.114402354 -0.0323541 -0.05178835
-0.074018426 0.21290363 -0.004689865 -0.020518743 -0.070938945 0.025174074 -0.0788977 -0.0163723
-0.08463365 0.1334286 -0.022550806 -0.07667681 -0.041456036 -0.02518567 0.005909843 -0.21101244
0.0614191 -0.019333245 -0.009215893 -0.11263254 -0.04140691 -0.014332121 -0.3180562 0.01380354
-0.026507556 -0.033584576 -0.050181616 0.14846937 -0.06940994 -0.08235097 -0.046268325 -0.07087295
-0.050096974 0.044732563 -0.057436146 -0.05577017 -0.023608318 -0.013482533 -0.04651434 -0.19958855
0.17581543 0.025350288 -0.11013848 -0.082796246 -0.24807689 0.03904351 -0.19855627 -0.047303803
-0.11639498 0.010861354 -0.049582165 -0.006144019 0.12164821 -0.032597356 0.07815937 0.24599217
-0.053566214 -0.07905209 -0.069469936 -0.27029678 -0.08906409 -0.0856343 -0.003916192 -0.0723186

encoder.4.weight f4 [3, 128]
00000000: d04b 293b 6ea9 2dbd ec9e 82bc 4985 393e
00000010: 506f fa39 8e8d e9bd f467 3a3e d31f 84bd
00000020: 325a 0c3e 388a e43c 8ea3 31bd 0e10 85bd
00000030: 23f3 0b3e 4e8e b3bb 95e1 dabb 0f7d fa3d
00000040: 4731 29bd a0d7 043e cd2b f1bd 83aa 85bd
00000050: 86d5 143e abe1 10bd 18cf 663d 617a 8e3c
00000060: 0cb8 29bd bea5 80bd 6d2b 193e 52d7 c0bd
00000070: d283 7a3b ab11 223d 6457 583d af42 9fbb
00000080: 6d32 003d 4f25 053d b78c cc3d 7cb0 0dbd
00000090: 0e88 babb b8da ccbd d761 5f3c 853c 283e
000000a0: 96c4 c13b d54c a03c 8aa8 443d f6d8 c5bd
000000b0: 6621 42bc 4ad1 083e 95c4 d03b c15d 363e
000000c0: 0dcb 9d3b 0fb6 ffbd aa87 0d3e 48bf 543b
000000d0: a4a9 6bbd ee02 353e 4a90 163d 78d1 c83c
000000e0: 028e 9e3d b0ac babd 2d2e 9abd 9802 99bd
000000f0: 9a90 9f3d 5a69 0ebe 0238 a7bc a8e8 99bb
00000100: bd49 50bd 96c1 203e 62ce 553d 22e7 983c
00000110: 631b b3bc 6068 9cbd 7132 2cbd 6c09 bf3d
00000120: 6fe0 d6bd e4ea ed3d d16e 0a3e 8f0b c83d
00000130: 29e5 873c ab36 493d b821 bbbc c16e b8bd
00000140: 2f00 5ebd cb45 0bbe 9889 b23d 518f cdbd
00000150: 9605 c1bc 5eb2 04bd 8a71 1bbe dfb8 ce3d
00000160: f604 48bd 7fdb bb3d 8df5 a0bd 29dc 523e
00000170: 23ec cdbd f378 48bd ccb0 9cbc daaa 83bc
00000180: 15bd 493c 0f9f a23d 3382 d9bd 1202 70bd
00000190: 9f2a ce3c 9e87 99bd 7622 bb3c 660f 033e
000001a0: d45d 213e f92b 103c 98f6 c7bc 2606 06be
000001b0: 0cb3 89be 5f34 93bc 45f4 623e 0c9f 493d
000001c0: 15bf 8b3d 7fa0 473d 7150 0fbd 1da3 713c
000001d0: a057 1a3e e855 5dbd 7212 e13d ba83 383e
000001e0: cdf6 08be 2366 453d de41 06be ad7f 74be
000001f0: 00c0 24bc 8501 15bc ccf1 cfbb 80b0 183d
00000200: 5471 0c3d c082 ad3d f39f d7bd b393 18be
00000210: 87a6 48bd 6dd3 21bd bea7 dcbd 220b a23c
00000220: a817 d13c c4b7 83bc 2269 ecbb 48f9 fcbc
00000230: 9e47 2b3e 38ca d0bd 2672 723b 735b 09be
00000240: 31b5 943d a97f dbbb 5d12 bdbd abe2 1ebc
00000250: 2bca aa3c c95f c2bd 6e6b 13bd 12ee 2c3c
00000260: 44a1 f13d e16c 3e3d 5186 e83d 5a51 d8bd
00000270: c430 5d3e 02cc 553c 7ee1 7f3c 682d 523d
00000280: f268 25bd 878f 4b3d 3379 80bc 8013 07bc
00000290: a36e a1bd 3c8e 51bd b99a 2cbd c6b1 8abc
000002a0: 0200 803a b2e0 a2bc 1664 d2bd 585a 9dbd
000002b0: 100d 7b3c 8e48 4dbd 7483 12bd b44d a8bc
000002c0: 2d61 793d aeb6 6fbd f5b1 a0bd 5377 45bd
000002d0: 4720 77bd 73b0 063e c6b2 9bbd 6602 02bd
000002e0: 22e8 6e3d aeab 9cbc 58fd 80bd aa5d d2bd
000002f0: 2b6d 8a3d d24b 7cbe 14d8 f8bc e26a eabd
00000300: 26d6 443e 9881 8abd c63d 72bd 4535 7bbd
00000310: c766 52bd 4f21 053c aeeb d5bd 545f fabc
00000320: 854e ffbd c151 28bd 527e 063d 7d6c c2bc
00000330: 0ff4 e03d fa1c 74bc 4e68 53bd f865 9e3e
00000340: f556 123d 176a 34bd fc0d 063e 36bb 12be
00000350: 4963 40bd aae7 333c ff5b c43e b87d cd3c
00000360: 42a8 a13d 8207 d13d 6813 5cbd ddc0 5bbe
00000370: cc81 fabc b405 01be ff76 06bd 2201 993c
00000380: d094 29bd d628 373d 8c48 be3c 14eb c7bc
00000390: 6482 f2bd 9688 f2bd 2d10 3b3d b5c9 07be
000003a0: 7b54 e63a c111 fb3c 50f2 29bd da50 69bd
000003b0: d159 4e3e e2a9 5f3c 707f 0f3e 70c0 873d
000003c0: 074f bd3d 5d4d 5dbd 6437 783d 1ecd ae3c
000003d0: 5e62 2ebd 38f5 9dbd 9793 54bc 0d74 8fbc
000003e0: fc09 a7bd 3437 4dbd 749b c0bd 0495 0d3f
000003f0: 2edb c9bd 5b0b 0dbe c4d8 9cbd ef7b 4fbc
0.0025832541 -0.04239791 -0.01594492 0.1811725 0.0004776665 -0.114039525 0.18203717 -0.064513825
0.13706282 0.02789794 -0.04336887 -0.06497203 0.13666968 -0.0054796105 -0.0066797235 0.12230884
-0.04130676 0.1297288 -0.117759325 -0.06526663 0.14534578 -0.035371464 0.056349844 0.01739234
-0.041435286 -0.06281613 0.14957972 -0.09416069 0.0038225544 0.03956763 0.052817717 -0.004860244
0.03129809 0.032506283 0.09987777 -0.034592137 -0.0056924885 -0.10002655 0.013634167 0.16429336
0.0059133274 0.019567886 0.048012294 -0.09660523 -0.011848783 0.13361087 0.0063710907 0.17809202
0.0048154653 -0.12485897 0.13821283 0.0032462645 -0.05753483 0.17676899 0.0367587 0.024513945
0.077419296 -0.09114969 -0.075283386 -0.07471198 0.077912524 -0.13907376 -0.020412449 -0.0046969242
-0.050851572 0.15698847 0.052198775 0.0186649 -0.021863645 -0.076370955 -0.042040292 0.09327969
-0.10492026 0.116170675 0.13518836 0.097678296 0.016588764 0.0491244 -0.022843227 -0.090055
-0.054199394 -0.13600843 0.0871765 -0.10037101 -0.023562234 -0.032396667 -0.1518003 0.10093855
-0.048832856 0.09172725 -0.07859335 0.20591797 -0.10054805 -0.04894347 -0.019127272 -0.01607268
0.012313147 0.07940494 -0.10620537 -0.058595724 0.025166808 -0.0749657 0.02284358 0.12798843
0.15758449 0.008799546 -0.024409577 -0.13088283 -0.26894414 -0.017969308 0.22163494 0.049223945
0.068235554 0.048737045 -0.034988824 0.014748362 0.15072489 -0.054037005 0.10989846 0.18019
-0.13375397 0.04819311 -0.13111064 -0.2387683 -0.010055542 -0.009094601 -0.006345963 0.0372777
0.034287766 0.08472204 -0.10528555 -0.14900093 -0.048986938 -0.039508272 -0.10774182 0.0197807
0.025523975 -0.016078837 -0.0072146812 -0.030880585 0.16726539 -0.1019482 0.0036994307 -0.13413791
0.07261122 -0.006698568 -0.09232018 -0.009697597 0.020848354 -0.09490926 -0.035991125 0.010554807
0.11798337 0.046490554 0.11353744 -0.105623916 0.21600634 0.0130491275 0.015617726 0.051312834
-0.040383287 0.049697425 -0.015682792 -0.008244395 -0.078824304 -0.051161036 -0.042139743 -0.016930472
0.0009765627 -0.019882534 -0.10272996 -0.07683247 0.015322939 -0.05011802 -0.035769895 -0.020544864
0.06088369 -0.058523826 -0.078464426 -0.0482095 -0.060333516 0.13153248 -0.07602458 -0.03174057
0.058326848 -0.019124832 -0.062983215 -0.10271771 0.067591034 -0.24638298 -0.030376472 -0.114461675
0.19222316 -0.06762999 -0.059140943 -0.0613301 -0.051367547 0.008125617 -0.10445343 -0.030563034
-0.12466148 -0.04109359 0.032835312 -0.023733372 0.109840505 -0.014899487 -0.051613145 0.3093717
0.03572746 -0.044046488 0.13091272 -0.14329228 -0.046969686 0.010980526 0.38351437 0.025084361
0.07893421 0.1020651 -0.053729445 -0.2146029 -0.03057947 -0.12599832 -0.032828327 0.018677298
-0.041401684 0.04471668 0.023227952 -0.024404086 -0.11841276 -0.11842458 0.045669723 -0.13260539
0.0017572785 0.030648114 -0.041490853 -0.05696187 0.2015145 0.013651343 0.14013457 0.066285014
0.09243589 -0.054028857 0.0605997 0.021338042 -0.04257428 -0.077127874 -0.012974641 -0.017511392
-0.08156201 -0.050101474 -0.0940465 0.55305505 -0.09856258 -0.13773863 -0.07658532 -0.012663825

encoder.4.bias f4 [3]
00000000: 7ba2 5e3e eb57 85be 98bc 853d
0.21741669 -0.2604364 0.06530112

decoder.0.weight f4 [128, 3]
00000000: d855 be3d c1c9 a6bf 6716 403f 2f74 32be
00000010: 901c fdbb bd7e 3e3f 767a 683e 8b48 c4be
00000020: bd55 853e 6668 16bf ff05 c2be 6a3e 08bf
00000030: 3f02 013f 9b58 113e d710 82be 2088 f13d
00000040: 9d88 4e3f b28a 9a3f d578 883e 706d e4be
00000050: 7912 0b3e 4d72 76bc b73c 973e 8e6c 9dbe
00000060: a84c 0a3f ec9d d93e 76fc e33d a78a fc3e
00000070: 71a4 a83e ef9d d8bc bf1c 863e ca67 18be
00000080: ca47 a93d a3cc 33be 8ff8 473f f812 a3be
00000090: 18c4 1d3f c330 d0be d553 af3e a10a 143f
000000a0: d05b f83b e001 a5bc 8a8d e23d 009d 88be
000000b0: 804c a3be dba2 c1be 67ef 8fbe 45a1 11bf
000000c0: f852 ff3e ba9c 003f 2577 523f 3a29 9cbe
000000d0: 0fae d63c 554f bc3e 2409 cebe 2c63 c33d
000000e0: 5058 d13e 1316 1b3d c0f0 42be c859 febe
000000f0: ed65 c8be 1026 b53f 8081 723f 6e8e f8be
00000100: b875 f0be 746f 17be 083b f03e d07a 9fbe
00000110: b96e 5cbe 3e8f 5f3e 03c5 583e fdd5 cdbe
00000120: 8572 af3e 30c4 363e d22e cabd 1d11 03bf
00000130: 940e 183f 1a33 d0be 81af 0b3e 32ba d13d
00000140: 40c7 63be b07c cfbb 3494 d5bc df5f e7be
00000150: e0e9 12be 6f2d 1fbe d2f9 d53e cc48 27be
00000160: f914 d73e 705c 7f3e 6953 edbe a1e7 bcbe
00000170: 752a 3bbe de3a abbe 840b 21bf b53d 663b
00000180: 6ddf 27be 43cb 1b3e d690 e2be 8ac5 c3bd
00000190: 2e74 54be 149c 043f 66cf 71bd e01c ee3e
000001a0: 765d b5be 7959 903e 3fac c23e f481 72be
000001b0: f4b3 533e f305 22bb 0b77 c73d c22f 643d
000001c0: 5d2c 1ebe 4650 01bf b181 da3e 27cc 293e
000001d0: 8978 08be 99b6 41be eac9 6a3c 9b95 b33d
000001e0: 93da 40bf 2dc9 953e 0316 3f3f b732 7fbe
000001f0: 92b8 abbe 0ddb 443f 6b59 e83d 7734 0d3f
00000200: 6aa5 01bf 245b 0e3f 3e39 a5be 3c7c 4bbd
00000210: 0b86 173f ce3a 99bf 8baf a83e a5a0 0f3f
00000220: e826 29bf 9ff0 233f d667 983e 8674 dabe
00000230: a661 9abe 78d3 023f 5f54 e03d 23e1 98be
00000240: 8bf7 0fbf ee33 bfbe e010 3abe eca6 73be
00000250: 329d f1bd b6c1 1a3f 7d89 1b3f 1067 f6bd
00000260: 986b d8be 1280 fc3e e813 3c3e ffc8 b63e
00000270: d735 cd3d e2fd 8e3e 25ae c63c ff8c 083e
00000280: f151 963e e609 5cbc 0668 753e b29e e33e
00000290: fc18 d4be ba2a edbe 266e 683e 9973 d13e
000002a0: 440f d43e 58ff be3d 0f09 05bf 1489 b0be
000002b0: fc96 06bf 88c0 ddbb 1fe6 b3be 9c94 0ebf
000002c0: 59b9 48bc 2d73 31be 2363 603f c271 09bf
000002d0: 018c 7d3f 0be6 ffbe 9d04 2f3e d49b a2be
000002e0: 9cb1 1d3e 82fa bd3e 1f16 f73e 1bef 043d
000002f0: e97f 623d dd78 cdbe 206e 273f a651 7f3f
00000300: 8f44 f23e 7716 e0be e07b 80be 83f8 e3bd
00000310: 8244 b43d eb90 f73e aeed a7be 9b1b 813d
00000320: 3ebf 1c3f 1f50 513e 6799 b6be 889c ffbc
00000330: 1f2e 033f 472b 553e 6ea9 c7be 35f1 89be
00000340: a21c 3ebf 71dd ee3d 1313 02be bb5f ad3d
00000350: b442 653e 8170 c13d 63a9 193f 16ba 04bf
00000360: 0987 e0be 2028 153f 7898 70bb 34bc d5be
00000370: 890a 9b3f f7c1 4f3f ed8c 49bf 2ed8 b33e
00000380: 0794 2dbe bf39 88bd 58bf 5f3f 4df7 d6bd
00000390: 7611 503e cc97 b6be 0ba4 02bf 0512 d0be
000003a0: 4355 bbbe 4773 343e c525 d83e db80 36bf
000003b0: b749 973d 565d cb3e e1fb ae3e 09f8 02be
000003c0: 5e6d ad3d dac4 6d3d 9aa8 53be cbd4 2abf
000003d0: a335 ac3e b7a3 143f 62d7 5dbe 7223 dabd
000003e0: 9d94 fb3e 7a56 e6bd b492 36be 69ab 993e
000003f0: 1ddc 09bd de4a 803f ec5c 5bbd 79f1 0dbe
0.09293717 -1.303032 0.75034183 -0.17427133 -0.007724352 0.7441214 0.22702965 -0.38336596
0.26041976 -0.5875305 -0.378952 -0.53220236 0.5039405 0.14193957 -0.25403473 0.11793542
0.80677205 1.2073576 0.26654688 -0.44614744 0.13581266 -0.0150419 0.2953851 -0.30746883
0.5402322 0.42503297 0.111321375 0.49324533 0.3293796 -0.026442496 0.26193807 -0.14883342
0.08265646 -0.17558531 0.78113645 -0.3185041 0.6162734 -0.40662202 0.34243646 0.5782872
0.0075793043 -0.020142496 0.11062153 -0.26682281 -0.31894302 -0.3781956 -0.28112337 -0.568867
0.49867988 0.50239146 0.8221305 -0.30500203 0.026206044 0.36779276 -0.4024135 0.095404
0.4088769 0.03786285 -0.19037151 -0.49677873 -0.39140263 1.4152241 0.9472885 -0.48546165
-0.46964812 -0.1478861 0.46920037 -0.31148386 -0.21526612 0.21831986 0.21168904 -0.40202323
0.3426706 0.17848277 -0.098722115 -0.5119799 0.59397244 -0.40663987 0.13641168 0.10240592
-0.22243977 -0.0063320026 -0.026071645 -0.4519033 -0.14347029 -0.15544675 0.4179216 -0.16336364
0.42008188 0.24937606 -0.463527 -0.3689547 -0.18277915 -0.3344335 -0.62908196 0.0035131995
-0.16393824 0.15214257 -0.44251126 -0.09559162 -0.20747444 0.51800656 -0.05903568 0.46506405
-0.35422868 0.28193262 0.38022038 -0.23682386 0.20674115 -0.0024722784 0.097395025 0.055709608
-0.15446611 -0.5051311 0.42677072 0.16581784 -0.1332723 -0.18917312 0.014330367 0.08768769
-0.7533352 0.29255047 0.7464296 -0.2492169 -0.33539253 0.76896745 0.1134518 0.5515818
-0.50643027 0.5560782 -0.32270235 -0.049679026 0.5918891 -1.1971071 0.3294643 0.561045
-0.6607499 0.64039034 0.2976672 -0.42667025 -0.30152625 0.51103926 0.109535925 -0.29859266
-0.56237096 -0.37344307 -0.181705 -0.23794144 -0.11797561 0.6045183 0.60756665 -0.12031376
-0.42269588 0.4931646 0.18366969 0.35700223 0.10020035 0.27928072 0.02425296 0.13335036
0.2935939 -0.013430094 0.23965463 0.44457012 -0.41425312 -0.4632166 0.22698268 0.40908507
0.41417897 0.09326047 -0.5196695 -0.34479582 -0.52574134 -0.0067673363 -0.35136506 -0.5569551
-0.012251222 -0.17329092 0.8765127 -0.53689206 0.99041754 -0.49980196 0.17091604 -0.31759512
0.15399784 0.37105185 0.48259065 0.03245459 0.055297766 -0.40131274 0.6540241 0.9973396
0.4731793 -0.4376714 -0.2509451 -0.11131384 0.08802129 0.4835275 -0.32798523 0.063040935
0.6122931 0.2044072 -0.35663912 -0.03120257 0.5124225 0.2081729 -0.38996452 -0.2694184
-0.7426244 0.1166333 -0.12702589 0.08465525 0.22388726 0.094452865 0.6002409 -0.51846445
-0.43853024 0.5826435 -0.0036711972 -0.4174515 1.211259 0.8115534 -0.7873066 0.3512587
-0.16950999 -0.06651639 0.8740134 -0.10496388 0.20319161 -0.35662687 -0.5103156 -0.40638748
-0.36588487 0.176221 0.42216316 -0.7129037 0.07387107 0.39719647 0.34176543 -0.1278993
0.08468126 0.05804906 -0.20669785 -0.66730946 0.33634672 0.5806231 -0.21664193 -0.10651292
0.4913682 -0.11246963 -0.178294 0.30013588 -0.033657182 1.0022848 -0.053555414 -0.13861646

decoder.0.bias f4 [128]
00000000: 352e 0640 0052 ea3d 25eb 653d 5bef 7fc0
00000010: f1fe f03e 9cd1 983e 4f25 c8bf 3a0d 6b3e
00000020: f553 52bd 6a65 043f d9cf b2bf 39d1 1740
00000030: 26d9 b2bf 55b0 483f a448 323f d7b0 f83f
00000040: ceb7 253e 2d49 df3d be7f c33e 26bf a53f
00000050: 291b 9d40 b7c2 72bf 7124 163f 1855 edbe
00000060: 7f31 103f 1d76 6f40 75d0 6a3f 7cdc 2b3f
00000070: 7371 a6be e194 85bf 9122 923f 7bd1 6ebf
00000080: 71ff d5bf e6e6 8ebd d1ac 70bf f126 0bc0
00000090: 26ef e0bf 64bd af3e 6963 d3bd 9057 9fbd
000000a0: 615b 24bf 256a a53e bb23 9e3f 9f1e 68be
000000b0: e160 953f 754b 7f40 47a4 0340 1838 22bf
000000c0: f1f2 8c3f 49cc 32bf d703 0940 e68d 99bf
000000d0: 0373 83bf f248 54bf 3764 bc3f fe89 953e
000000e0: 5beb c83e cda8 a5bf f46c 87bf e0ad bdbf
000000f0: 94b9 77c0 44e1 8a3d 458b 2340 8781 3fbf
00000100: a366 0a40 d815 0bbf 120e 033c edf6 0840
00000110: b623 aa3f 1e27 63bf c068 2c3e f876 bd3e
00000120: 7efd d73e 6c02 653e 5c46 40bf 5e4c e73f
00000130: 356b 953f 60a4 82be be09 cf40 ddae 6e3d
00000140: 9585 b0be c603 f5be ce6f 063f 6d86 40be
00000150: 6df6 4140 a7ed 8fc0 f927 75bf 9edc 483e
00000160: 5c81 cfc0 f09d 9d3e 9f70 57c0 e238 903f
00000170: c29b b1bd 51d6 26c0 49e7 8240 da0c 7c3f
00000180: 4b90 f2bd 5130 cbbe de7d 66bf 1d29 e63d
00000190: c202 5d40 40cd ffbe 7f61 693f 882a 6d3e
000001a0: 1970 0940 4759 1e3e f1fe 853f 7dec cd3e
000001b0: 5356 22bf 8bdd 3040 541d 10bf 1f69 143f
000001c0: 6d1e 49bf f45b 003f 0d16 613f 8cbe c73e
000001d0: 454a dcbe d224 0440 f973 123f cd02 37be
000001e0: f56e 30bf 56d4 f9be 72f5 563e 89bc 123f
000001f0: e80c 4b3e 93dd 883e 7930 c73f b4a8 893d
2.0965703 0.114414215 0.056132454 -3.998984 0.47069505 0.2984742 -1.5636386 0.22954264
-0.0513496 0.51717246 -1.396968 2.372145 -1.3972518 0.7839406 0.6964209 1.9428967
0.16183397 0.10902629 0.38183397 1.2948959 4.9095654 -0.9482836 0.58649355 -0.46353984
0.56325525 3.741584 0.9172433 0.6713331 -0.3250843 -1.0436059 1.1416799 -0.9328839
-1.671858 -0.06977634 -0.94013697 -2.1742518 -1.7572982 0.3432418 -0.10321695 -0.07780373
-0.64201933 0.32307544 1.2354654 -0.22667931 1.167019 3.9889805 2.0569017 -0.6336684
1.101164 -0.69842964 2.1408594 -1.1996429 -1.0269474 -0.82923806 1.4718083 0.29206842
0.39242062 -1.2942139 -1.0580125 -1.4818687 -3.8707018 0.06781247 2.5553753 -0.7480702
2.1625144 -0.54330206 0.00799896 2.1400712 1.3292148 -0.88731563 0.16836834 0.37004828
0.42185587 0.22364205 -0.7510736 1.807018 1.1673342 -0.25516033 6.469939 0.05827223
-0.34476915 -0.4785444 0.5251435 -0.1880128 3.0306656 -4.4977603 -0.9576412 0.19615409
-6.484541 0.3078456 -3.3662488 1.1267359 -0.086722866 -2.6068308 4.090733 0.9845711
-0.11843928 -0.396853 -0.9003581 0.112383105 3.4532933 -0.4996128 0.9116439 0.23160756
2.147467 0.15463744 1.0468427 0.4021949 -0.6341297 2.763522 -0.5629475 0.579729
-0.7856205 0.5014031 0.8792427 0.39012563 -0.43025413 2.0647473 0.5720821 -0.17872162
-0.68919307 -0.48794812 0.20992067 0.5731893 0.19829142 0.26731548 1.5561668 0.06721631

decoder.2.weight f4 [256, 128]
00000000: b742 013f 7495 3abe 9fde efbe efa4 ddbd
00000010: 262f 123e 4273 8240 35db cf3d 2650 dc3d
00000020: e83b a93c 7a78 8e3d 73aa 22be bca1 753c
00000030: 4826 9cbe 81b9 50bc dbf8 a03c da49 80bc
00000040: ea90 0dbf 43ce 97bd 0cce 113a 564b 2c3c
00000050: e09b 9a40 4f60 c1bb 5150 143e 42da edbc
00000060: 705c d93d f662 cf3d aad7 d03c 9e72 643c
00000070: dfc2 b0bd 16e2 1c3e c578 18bd ce45 6cbd
00000080: 94da bf3d a4f3 9fbd 6acd 4d3d dfc4 2fbd
00000090: ce41 11bc 5417 e53d 4b36 f23d 93bb fabc
000000a0: 55b7 473e 12f8 44be 53c4 8a3d e86c 1f3e
000000b0: 1433 7f3e 1621 11bf 6535 873d f470 a53b
000000c0: 5019 58bd bba1 cebd 182b 143d 1ca0 a4be
000000d0: 90a7 c9bd 45f1 4dbe 04f3 963d 6763 86be
000000e0: 1b2a 4fba 1789 0e3d 9777 95bd cfba f4bd
000000f0: 61c3 913f a156 163c 37cf a43c 6090 58c0
00000100: f321 043f e1b1 53bd 0888 6bbe 0cfa 903c
00000110: 6074 d13c 135b 0cbe e7b8 89bd 1388 1c3c
00000120: 8ec2 1f3f f832 e23f 6e93 9bbd 02a7 9e39
00000130: f207 893d 29d8 03bd 01f0 17bf 20a3 4e3d
00000140: d7d5 52bd bd1b 143e 5665 b33d 0dcf 13bc
00000150: 6ee8 13be f58b 4b3d 5cf5 8c3c e202 5d3c
00000160: 1670 22c0 9b81 0a3c fa48 54bd 6a0a a43c
00000170: 5f61 f83d f97b a3be e386 3c3e 5d4d 513d
00000180: 0d0a bfbc 8a66 293b 94be d1bf c7ce 963d
00000190: 2115 67c0 d4c7 5bbc 7998 243d 8820 8a3e
000001a0: f89f cebc 5f74 d5be 4bf0 3f3d c247 d13d
000001b0: 64b4 e2bb 1f20 f6bd 44d4 63bd badb ab3d
000001c0: 94a1 c63d ec0f e43c be4e c0bf dad4 993d
000001d0: 9398 13be ab6d 473c 2d0c 213c 246c d83c
000001e0: 31a5 d2bc b04c 7cbe 4bf1 d9bd 7247 973e
000001f0: 70db 7cbd d351 053d 9021 9a3d 6f63 823d
00000200: 9acd aa3e bfcd 3bbe df03 8ebb 808e 6cbd
00000210: f0b1 bf3d ca12 27bf 879e cd3d 2b16 afbc
00000220: 7579 de3c 3aae e63d e692 543d a0ec 44bc
00000230: d451 20bd feb3 073e ad43 a9b9 0d89 debc
00000240: f773 453e c657 6fbe 0d7e 093d 7f72 2d3d
00000250: fffe 5abe d7bc 423d 800d 853d 1584 5a3d
00000260: 8d89 9f3d 6cf9 cf38 94db 0cbd b183 06bc
00000270: 9dcb 5bbd 91a5 d73d 88d8 d3bd 8f86 b7bc
00000280: e70d 133c 8c75 a23a 791a d2bc 3db4 bebc
00000290: 1aa7 833d 2968 7b3d ed81 b13d a69e a93d
000002a0: bc22 acbd 9543 50be 9ad4 88bc 6ea6 443d
000002b0: 7a6e 21be 3b51 1c3f 04fb 693d e0c6 023d
000002c0: 917d c9bc 8ffa d7be 1831 903d 7383 fb3d
000002d0: cd6a 473d 7b51 87bd 8e00 eabc 054e 48be
000002e0: 637a 2f3b 14e5 afbd 3022 ab3c b8e0 41bc
000002f0: 8e79 0cbf 556a b9bc abe2 9fbd 782f a1bf
00000300: f88c 20be 8d41 5b3d 16d3 38be 7818 313b
00000310: 84d1 b43d 100f ecbd 97e5 193d d4f7 3dbd
00000320: d65a b83d 70da 60bf 7bec 60bd 9ddf 583d
00000330: b026 1e3c 84ab e5bc e946 26bd df34 e43d
00000340: 4907 933d 0d3f 59be 9825 2bbd 3cd7 07bd
00000350: 4d3d dd3d 622b 1abd 9150 663c d3b1 f2bc
00000360: 38ae c93e 24c0 10bd 6137 9e3d 4fe7 17bd
00000370: 30bf 7f3c b3d0 663d 8f7a 083d a16d 9a3d
00000380: 75df 313c 69c2 aebc d25d b13f 59e0 c7bd
00000390: a50c a6be a10c bebd ceeb 91bd b5de 553e
000003a0: 57fc debb 130d d1be 81ae cfbc 1629 f43d
000003b0: 163f a03d 53a2 aebd f343 93bd 239f a33c
000003c0: 8652 8cbd c8af 3bbd bf05 5bbe 5da6 75bd
000003d0: 0c92 e23d 74cc 7bbc 9c04 bdbd 242f 3bbd
000003e0: e482 4f3d cf02 68bd e004 d4bd e817 2dbd
000003f0: 1f34 893d 90e5 75bd 4de8 2a3d b09b aebd
0.50492424 -0.18221074 -0.46849534 -0.10822474 0.14275798 4.0765696 0.10149232 0.107574746
0.020658448 0.06956573 -0.15885334 0.014992174 -0.30497956 -0.01273954 0.019649914 -0.015660215
-0.55299246 -0.07412388 0.00055620144 0.010516008 4.8315277 -0.0059013735 0.14483763 -0.029034737
0.10613334 0.10126297 0.025493462 0.0139433425 -0.08630919 0.1532062 -0.03722455 -0.05768376
0.09367862 -0.07810143 0.050244726 -0.04291236 -0.008865787 0.1118609 0.11826762 -0.03060702
0.1950353 -0.19235256 0.06775727 0.15568888 0.24921829 -0.5669111 0.06601981 0.0050488655
-0.052758515 -0.100894414 0.03617391 -0.32153404 -0.09846413 -0.20111568 0.0737057 -0.26247713
-0.00079026975 0.034798708 -0.072982006 -0.119496934 1.138775 0.009175927 0.020118339 -3.383812
0.516143 -0.05168331 -0.2300111 0.017697357 0.025568187 -0.13706617 -0.067247204 0.009553927
0.6240624 1.7671804 -0.07596479 0.0003026054 0.066909686 -0.03218857 -0.5935059 0.050448537
-0.051473465 0.14463706 0.08759563 -0.009021533 -0.14444134 0.04969402 0.01720684 0.013489457
-2.5380912 0.008453752 -0.05182741 0.020024497 0.12127947 -0.3193052 0.1841083 0.05109917
-0.023320222 0.0025848472 -1.6386285 0.073636584 -3.6106646 -0.013414342 0.04018447 0.26977944
-0.025222763 -0.41690347 0.04686002 0.10218765 -0.006918477 -0.12017845 -0.055622354 0.08391519
0.09698787 0.027839623 -1.502403 0.07511301 -0.14413671 0.012172143 0.009829563 0.026418753
-0.025713535 -0.24638629 -0.10641726 0.29546696 -0.06173271 0.032548737 0.07525933 0.06366622
0.33359987 -0.18340205 -0.0043339576 -0.057753086 0.09360111 -0.65263045 0.10040002 -0.021372875
0.027157525 0.112637 0.051897906 -0.012019306 -0.039140537 0.13252255 -0.00032284614 -0.02716496
0.19282518 -0.23373327 0.033567477 0.04234552 -0.21386336 0.047543373 0.064967155 0.05334862
0.077899076 9.9169876e-05 -0.034389094 -0.008210109 -0.053660978 0.10529626 -0.103440344 -0.02240303
0.008975483 0.0012394651 -0.025647389 -0.023279304 0.064283565 0.06137863 0.086673595 0.08282213
-0.084050626 -0.2033828 -0.016702939 0.048010282 -0.157648 0.6106145 0.057124153 0.031927943
-0.024596008 -0.4218335 0.07040614 0.12280931 0.048685838 -0.06607338 -0.028564718 -0.19561012
0.002677583 -0.08588615 0.020890325 -0.011833362 -0.5487298 -0.02263371 -0.07806905 -1.2592611
-0.15678775 0.05352931 -0.18049273 0.002702264 0.088290244 -0.115263104 0.03757247 -0.046378925
0.090017006 -0.8783331 -0.054913025 0.05294763 0.0096527785 -0.028035887 -0.04059497 0.11142897
0.07179124 -0.21215458 -0.0417839 -0.033164248 0.10802708 -0.03763903 0.014057294 -0.029625809
0.3939073 -0.03533949 0.077254064 -0.037085827 0.0156095475 0.056351375 0.033320006 0.07540441
0.010856499 -0.021332936 1.3856757 -0.09759588 -0.32431522 -0.092797525 -0.07125054 0.20885737
-0.0068049836 -0.40830287 -0.025351765 0.11921899 0.07824533 -0.08527055 -0.07190695 0.019973343
-0.068516776 -0.045821935 -0.2138891 -0.05997311 0.110630125 -0.01536857 -0.09229395 -0.045699254
0.050661936 -0.056643303 -0.10352492 -0.042259127 0.066993944 -0.06003338 0.041725446 -0.08525789

decoder.2.bias f4 [256]
00000000: 24a2 313f e1ef 1dbf ebc7 fb3c 619d 9540
00000010: f486 89bd cd20 94bd c852 163d 58ad 44be
00000020: 957d 11be ca2a 663c 89a2 4dbe f639 2d3b
00000030: 9af1 e43c bca7 243d a630 32bd 32e8 203d
00000040: 5765 713c fdfc 89bd 1ecd a23b 8594 bcbd
00000050: bdbf 76bd 864d b6bd 760a 02be fd13 abbc
00000060: 82ff 383d 1696 e2be e391 aebd 20b3 0cbe
00000070: 0b73 7dbd a51e 053b 09e1 1bbd 4682 46bc
00000080: 4283 29bd 0145 cd3a 8899 a4bd d896 d3bd
00000090: 4d3f 11bd 5366 95be 8ca5 e7bf 6f0e 93bd
000000a0: bd78 12bd 2026 cf3d 5d20 b9bd 7bed e03c
000000b0: 3672 f0bd a140 7f3c f98d 03c0 2dfc 30bc
000000c0: 8be3 61bd 321e e7bd 13a2 51bd 0816 5ac0
000000d0: babb 7bbd 9dfa 84be cb56 23c0 1d94 a4be
000000e0: 0025 d33e c87e 02be 140f c5bd 5872 bc3c
000000f0: a1b0 90bc 4ab8 4abd 40da 9bbd 758d c6bf
00000100: b2fd a33c fb51 a33c add4 92bc cf9b 24be
00000110: 2d3b 12c0 5d10 c1be cd5d 8b3c f34b 0abe
00000120: 9162 fabc 0900 4c3c 077f ab3f c4b3 cdbb
00000130: 0dd0 273d e5ac d8bd 6f7d b4bd ab9c 6a40
00000140: 4ab0 cabc ff13 a8bc 1f1d ea3f a4e2 3fbd
00000150: ced0 1abe 7df7 a3be 2209 87bc 31ba 5dbe
00000160: d720 febc 5d04 a2bd 90e8 fcbd 1b59 7d3b
00000170: b139 ff3d 42d9 6fbc 019c 4cbd e399 99be
00000180: 0a01 05bc dcce dfbc ec86 2cbe 02fa 75be
00000190: 5c49 8b3e 416c 673d 0b8e 0e40 6327 00be
000001a0: 49fc 86bd b4c4 14bd aa9d 233d cbbf a5bd
000001b0: 3ab8 0b40 b289 8abd 0096 533c ef6e cdbd
000001c0: f576 44bc 7a1f a43c d2a2 103c 86b4 b03d
000001d0: 679e f1bb b485 1e3f 7ad1 f2bf a819 c43d
000001e0: a596 72bc 9628 2cbd 3b4d 2bbd 5427 d8bb
000001f0: f7c7 463d 2ca7 0bbe e040 d8bd 5fa4 0fbd
00000200: e5ef 3dbe 8ab2 e2bd 96bb c6be da39 493d
00000210: d024 363b c385 043f 120b c0bd 0642 f2bd
00000220: 0c22 4bbd 0959 1c3c e076 483d e69f bdbd
00000230: 6d3e e0bd fddd 2cbd e27e b6bc 64fd ebbb
00000240: 7493 cfbf bc49 2dc0 70f7 bc3c 0bde 2cbc
00000250: c66b 0b3e 08a8 163c cf42 a9bd 87a8 483e
00000260: f3a6 4bbd 1917 49bd 3561 b0bf be12 aabd
00000270: 2510 62be 85d0 c940 6e29 33bd bbbe cfbd
00000280: f931 a2bf 9af8 aabb 6352 e7bd c255 0dbe
00000290: 60cc 07bc 258c 89bc b4a9 37bd 4dd5 2ebe
000002a0: c9a5 91bd 34d2 71bd e961 44bd 16f4 443c
000002b0: 5370 9f3a 9eef 923c 04ac 97bd 3a00 8abb
000002c0: 032d 47be b259 e7bd 6281 fcbb 98b7 cdbf
000002d0: 6f99 b0bd 8e86 933a 137c a23c 0931 fcbc
000002e0: 89cf e3bf 26a8 6c3c 44f5 1e3d a89a 8cbe
000002f0: d724 993f 82f8 a3bd 15e0 df3a 048b 97bd
00000300: 808c 4f3f 84b8 a53f 0156 cdbd 46ac 1f3b
00000310: a1fa f0bc 75df 163c 6f50 02be ed6c 263c
00000320: 41e7 a93b 63ee 923d 8aac babc 157b ce3c
00000330: 9da2 9f3c 9d66 ecbd dcf6 03be f21d b23d
00000340: 36db ac3e ba61 7fbe 1b04 60c0 dcb4 a93f
00000350: 78e5 91bd 8b22 eb3a e0f5 f2bd 0bee 0cbd
00000360: c61e ccbe d735 07be 4e7b dd3a fc3b 2e3c
00000370: bdfe b83c 133e 96bc 6b7c 37bd 4aa8 eabd
00000380: 43f9 05be 8f3e bc40 5db4 7b3d ecfc 9e3c
00000390: 184d 58bd 8b44 b3bc 0ebc 623a 12d6 03be
000003a0: 3a3c d53d 957f b1bd 19a0 243f c314 e5bd
000003b0: 288a 5cbd 82d2 cdbd b301 46bf 11f3 b2bd
000003c0: e3d1 3fbf f272 cdbd 5c4b 10bd 62b5 a5c0
000003d0: c127 11bd d305 a23d cdbb 7dbd 16af 263b
000003e0: d4d3 f4bd 8f46 d03c c475 e73c 3dda dbbd
000003f0: 24ae c43d 3399 4ebd dde5 66bd cf81 a4bb
0.6938803 -0.6169415 0.030734977 4.6754613 -0.067151934 -0.07232819 0.03670004 -0.1920675
-0.14208062 0.014048288 -0.20081533 0.0026432252 0.027947236 0.040199026 -0.043503426 0.03928394
0.014733634 -0.06737707 0.0049682995 -0.09208015 -0.06024145 -0.08901505 -0.12699303 -0.020883555
0.045165546 -0.4425513 -0.085239194 -0.13740206 -0.06187729 0.0020312455 -0.038056407 -0.012116021
-0.041384943 0.0015660824 -0.08037096 -0.103315055 -0.03546076 -0.2917963 -1.8097396 -0.07180487
-0.035759676 0.10114694 -0.09039376 0.02745699 -0.11740534 0.015579374 -2.0555403 -0.010802311
-0.055148643 -0.11285056 -0.051179957 -3.4075947 -0.061458327 -0.25972453 -2.5521724 -0.3214425
0.41239166 -0.12743676 -0.096220165 0.023003742 -0.017662348 -0.049492158 -0.07609987 -1.5511919
0.020018432 0.019936552 -0.017923677 -0.16075061 -2.2848618 -0.37707797 0.017012501 -0.13505535
-0.030564578 0.01245118 1.3398141 -0.0062775332 0.040969897 -0.10579852 -0.08812987 3.6658123
-0.024742264 -0.020517347 1.8290137 -0.046847 -0.15118715 -0.32024756 -0.016483847 -0.21653058
-0.031021519 -0.079109885 -0.12349045 0.0038657847 0.12462176 -0.014639201 -0.049953464 -0.3000022
-0.0081179235 -0.027320318 -0.16848344 -0.24021152 0.27204406 0.056499723 2.2274196 -0.12515025
-0.06591088 -0.036320403 0.039945282 -0.08093222 2.1831193 -0.067645445 0.012914181 -0.100309245
-0.011991252 0.02003454 0.008827882 0.08628182 -0.0073736194 0.61922765 -1.8970177 0.09575206
-0.014806424 -0.042030893 -0.0418217 -0.006596485 0.048530545 -0.1363799 -0.10559249 -0.035068866
-0.18548544 -0.1106921 -0.38814992 0.049127437 0.0027792938 0.51766604 -0.093771115 -0.11828999
-0.049593017 0.009542712 0.048941493 -0.09259014 -0.10949407 -0.042203892 -0.0222773 -0.0072018374
-1.6216874 -2.7076254 0.023067206 -0.010550986 0.13615331 0.009195335 -0.08264696 0.19595538
-0.049719762 -0.049094293 -1.3779665 -0.08304356 -0.22076471 6.306704 -0.043740682 -0.10143801
-1.26715 -0.005217624 -0.11295011 -0.13802245 -0.008288473 -0.016790459 -0.044839576 -0.17073555
-0.07111699 -0.059038356 -0.047944937 0.012021085 0.0012164213 0.017936524 -0.07405856 -0.004211453
-0.19450764 -0.11296405 -0.0077058533 -1.6071653 -0.08623015 0.001125531 0.019834554 -0.0307851
-1.779771 0.014444387 0.038808122 -0.27461743 1.1964368 -0.080063835 0.0017080331 -0.07399562
0.8107376 1.2946935 -0.100261696 0.0024364158 -0.029416384 0.00920855 -0.12725995 0.010157806
0.0051850383 0.07174375 -0.022787351 0.025205174 0.01948672 -0.115430094 -0.12887138 0.08697118
0.33760995 -0.24939623 -3.5002506 1.3258319 -0.07123846 0.0017939372 -0.11863303 -0.034406703
-0.39867228 -0.13204132 0.001689771 0.010634419 0.022582406 -0.018340146 -0.04479639 -0.1145788
-0.13083367 5.8826365 0.061451305 0.019407712 -0.052807897 -0.02188327 0.0008649238 -0.1287463
0.10411878 -0.086669125 0.6430679 -0.111856006 -0.053842694 -0.10049917 -0.7734634 -0.087377675
-0.74929637 -0.1003169 -0.03522812 -5.1783915 -0.035438303 0.07911267 -0.06194668 0.002543395
-0.119544655 0.02542427 0.028254397 -0.10734985 0.09603527 -0.05043907 -0.05637156 -0.005020357
