model/MAT_AutoEnc_Eig3.pth (torch, 929943 bytes, 36 tensors)

encoder.0.weight f4 [256, 18]
-0.21778987 -0.1740902 0.20976458 -0.16644384 -0.23412956 -0.17973965 0.041632883 0.185217
-0.22612141 -0.0541555 -0.031840708 -0.19835027 0.17931905 -0.15325454 -0.12402247 0.07326452
0.15727417 0.10239906 -0.021601833 0.062034346 0.13105038 -0.0586692 -0.12593706 0.12524487
-0.16592489 0.16215228 0.080216974 -0.087302536 -0.12737696 0.031379342 0.08939459 -0.13849624
0.2219038 -0.21371731 -0.13012727 -0.0019365072 -0.11339218 -0.23553936 0.11105893 -0.099816956
-0.17436185 0.15387963 -0.17770427 -0.16472414 0.094356105 0.18306437 0.1283389 -0.09402517
0.067241326 -0.20277399 0.06438721 0.1447781 0.030914754 -0.13805903 -0.032547515 -0.015108718
-0.23589613 0.1276687 -0.23532945 0.118533865 -0.20869456 0.083736055 0.15050702 0.07648728
-0.050367214 -0.16634507 0.0985938 -0.30956733 -0.30244723 0.09523517 0.028376907 0.035240736
0.18025692 -0.061881416 0.19775271 0.10905606 0.21126871 0.17287552 -0.05474273 -0.039992455
-0.1975349 0.1683382 -0.07094362 0.17362869 0.034197316 0.033332866 -0.092116736 0.033192795
0.18070526 0.07679923 0.08380261 -0.012298099 -0.06996508 0.08222575 -0.14576069 -0.17721663
-0.2540471 -0.07530147 -0.058806524 -0.1871547 -0.12390518 -0.2350208 -0.100377925 0.17341286
0.1309975 -0.06702741 0.03666132 0.09583177 -0.11596447 -0.04488895 0.21634756 -0.12754308
0.20781179 -0.042767193 0.0012062709 0.0031940567 0.036505353 -0.05049912 -0.17131725 0.046509217
0.20732032 -0.11272967 0.04016949 -0.22846368 -0.16092445 -0.08084291 0.13526492 0.061201327
-0.14892338 -0.1809961 -0.18072334 0.049255744 -0.08698877 0.0012135403 0.083108895 -0.21778601
-0.24016425 -0.06618468 -0.030950319 -0.20119311 -0.04965535 -0.2395734 0.05752078 -0.13004555
0.11731978 0.08541503 -0.11976995 0.016956558 0.025077492 -0.053789936 0.05036771 -0.14374311
0.11203873 -0.23959465 -0.11595189 -0.24593325 0.2558446 0.04291651 0.12610345 -0.09678968
-0.113639556 0.10755872 -0.2329803 0.074189164 0.17479444 -0.28943798 -0.28710994 -0.09404124
-0.29415342 0.17021035 -0.2392976 -0.067893565 -0.105106086 0.12511697 0.12858364 -0.013293378
-0.06713099 -0.055833526 -0.0835611 -0.031951487 -0.01909204 0.012354359 0.028114462 -0.29786378
0.15255408 0.119839676 0.022468027 0.036361065 -0.024060754 -0.28825355 0.046850313 0.06862937
-0.20601618 -0.06889679 0.08070431 -0.28885284 0.1244824 0.11410873 0.1720991 -0.03867958
-0.15735628 0.14955585 0.0360876 -0.1405184 -0.09891741 -0.22365412 0.1302379 -0.005814373
-0.030962138 -0.008045762 -0.038989812 -0.27433148 0.062184703 -0.040699545 -0.19948906 -0.24612975
-0.04532236 0.14515811 0.002896874 -0.106340975 -0.053439826 0.17906415 -0.069915995 -0.0662204
0.12625118 -0.016530808 -0.26714256 0.14737675 0.14953391 -0.06522418 0.017854989 -0.044955242
-0.24631524 -0.043023366 0.02555916 0.0693947 0.050350618 0.16654932 0.22417346 -0.06761401
0.18924917 -0.041208148 0.16214246 -0.14166157 -0.18742459 0.18447635 0.046920042 0.23534885
0.17428128 0.0662497 0.025963025 0.0026436595 0.09508279 0.06310482 0.012037718 -0.14754112
00000000: 4f04 5fbe b444 32be 87cc 563e 4170 2abe
00000010: a9bf 6fbe ac0d 38be 3e87 2a3d 86a9 3d3e
00000020: 5f8c 67be 28d2 5dbd 676b 02bd 551c 4bbe
00000030: 6a9f 373e c2ee 1cbe 7eff fdbd b50b 963d
00000040: 7b0c 213e 99b6 d13d 54f6 b0bc ba17 7e3d
00000050: 1232 063e 1d4f 70bd a5f5 00be 3140 003e
00000060: 37e8 29be 3f0b 263e cc48 a43d accb b2bd
00000070: 1b6f 02be a087 003d 8314 b73d f5d1 0dbe
00000080: c03a 633e b6d8 5abe 1540 05be 66d2 fdba
00000090: 293a e8bd 3b31 71be dd72 e33d d56c ccbd
000000a0: ea8b 32be 9f92 1d3e 1cf8 35be 72ad 28be
000000b0: c63d c13d 3a75 3b3e 466b 033e 4590 c0bd
000000c0: d2b5 893d fca3 4fbe 71dd 833d b640 143e
000000d0: f040 fd3c 595f 0dbe 8b50 05bd 8e8a 77bc
000000e0: c18e 71be 95bb 023e 34fa 70be e2c1 f23d
000000f0: 07b4 55be cf7d ab3d 831e 1a3e 5da5 9c3d
00000100: da4d 4ebd 5d56 2abe 8ceb c93d 9c7f 9ebe
00000110: 5dda 9abe a80a c33d b076 e83c 9758 103d
00000120: 4595 383e 5e77 7dbd b07f 4a3e c958 df3d
00000130: d356 583e 4806 313e ea39 60bd 21cf 23bd
00000140: 9746 4abe d960 2c3e e34a 91bd b8cb 313e
00000150: 7c12 0c3d 0b88 083d b3a7 bcbd 2bf5 073d
00000160: cd0a 393e ea48 9d3d b4a0 ab3d f77d 49bc
00000170: da49 8fbd f965 a83d 4a42 15be 4778 35be
00000180: 7612 82be a837 9abd 1cdf 70bd 7ba5 3fbe
00000190: 00c2 fdbd 4ba9 70be f192 cdbd 2493 313e
000001a0: 3524 063e ab45 89bd 2e2a 163d 7243 c43d
000001b0: c87e edbd 7add 37bd 378a 5d3e a79a 02be
000001c0: 9dcc 543e a72c 2fbd bc1b 9e3a 6153 513b
000001d0: a386 153d 2ad8 4ebd ca6d 2fbe 7380 3e3d
000001e0: c74b 543e d0de e6bd c388 243d 62f2 69be
000001f0: 61c9 24be f890 a5bd e382 0a3e 3eae 7a3d
00000200: 5f7f 18be 0b57 39be 8a0f 39be 64c0 493d
00000210: 2b27 b2bd a80f 9f3a ff34 aa3d 4c03 5fbe
00000220: 9eed 75be d58b 87bd 868b fdbc 9105 4ebe
00000230: 6963 4bbd bb52 75be e99a 6b3d a92a 05be
00000240: 5a45 f03d 13ee ae3d f349 f5bd 7be8 8a3c
00000250: 506f cd3c d652 5cbd 5f4e 4e3d 6531 13be
00000260: 9074 e53d 4d58 75be 2f78 edbd edd5 7bbe
00000270: 10fe 823e 39c9 2f3d 4321 013e ab39 c6bd
00000280: dbbb e8bd bf47 dc3d 6392 6ebe 7df0 973d
00000290: 50fd 323e 3731 94be 1300 93be b298 c0bd
000002a0: 479b 96be 9f4b 2e3e 6e0a 75be c80b 8bbd
000002b0: dc41 d7bd aa1e 003e 6eab 033e 78cc 59bc
000002c0: f97b 89bd b2b1 64bd 1522 abbd 90df 02bd
000002d0: e966 9cbc f069 4a3c 4d50 e63c 9a81 98be
000002e0: 2337 1c3e 816e f53d de0e b83c 57ef 143d
000002f0: 0f1b c5bc f895 93be 1de6 3f3d 8e8d 8c3d
00000300: e8f5 52be c319 8dbd 4d48 a53d 85e4 93be
00000310: a1f0 fe3d d6b1 e93d bf3a 303e 7b6e 1ebd
00000320: 0122 21be 2b25 193e 97d0 133d 0ee4 0fbe
00000330: 3695 cabd 9605 65be 165d 053e 7f86 bebb
00000340: 4fa4 fdbc 5fd2 03bc c8b3 1fbd 2d75 8cbe
00000350: 63b5 7e3d 91b4 26bd dc46 4cbe 7009 7cbe
00000360: f0a3 39bd 54a4 143e 7bd9 3d3b 4cc9 d9bd
00000370: b8e3 5abd 985c 373e 1e30 8fbd 909e 87bd
00000380: fd47 013e 9e6b 87bc e9c6 88be eee9 163e
00000390: 6b1f 193e 4194 85bd a044 923c fd22 38bd
000003a0: 103a 7cbe 4539 30bd 7261 d13c cf1e 8e3d
000003b0: 733c 4e3d e88b 2a3e ba8d 653e 3779 8abd
000003c0: 89ca 413e e0c9 28bd ac08 263e bb0f 11be
000003d0: 3bec 3fbe 5ee7 3c3e 3b2f 403d 4aff 703e
000003e0: cb76 323e ecad 873d 69b0 d43c 3f41 2d3b
000003f0: c4ba c23d 1a3d 813d d939 453c 0515 17be

encoder.0.bias f4 [256]
0.1617247 0.025292352 -0.20638452 -0.30268884 0.15749197 -0.03896344 -0.10862429 0.09586209
0.002549434 -0.17640232 -0.25161576 0.05623958 -0.032712474 -0.25641823 0.10989899 0.16936617
-0.07609141 0.051245004 0.11974692 0.12778226 -0.2204551 -0.20983823 0.00733024 -0.24617659
-0.15358791 -0.11196389 -0.00074792345 -0.26455113 0.14712682 -0.025854984 -0.03187423 -0.19999705
0.16635793 -0.1759123 -0.19113678 0.09934743 0.0037266805 -0.10865287 -0.034896087 -0.20330918
0.0030147922 0.042186413 -0.11148114 0.035122447 0.10117383 0.08622205 0.12769172 0.13174313
-0.16533992 -0.15785502 0.2322822 0.10370988 0.075897396 -0.052211236 0.21364221 0.1729227
-0.15114035 0.09243564 0.079886146 -0.090429775 -0.23776095 -0.2206497 0.021688487 -0.20567589
-0.09799148 -0.1088509 -0.024254696 -0.20151058 -0.048661347 -0.022449268 0.13397421 0.027859151
0.092405625 0.044617847 -0.09619778 -0.008796747 -0.20041956 0.18682374 -0.026989253 -0.14927818
0.026841123 -0.1324168 -0.20211124 -0.049645625 -0.082377695 -0.06879349 -0.114501886 0.11277499
0.15333624 -0.10533436 -0.13714989 -0.23031 -0.18648316 -0.14032759 -0.26080766 0.10091594
0.06534659 0.2277462 0.08909948 0.17024843 0.085424975 -0.12979649 -0.12062756 -0.24351934
-0.00107874 -0.10796208 0.032010328 -0.14027122 -0.057051215 0.01120991 0.21235731 -0.021751534
0.11134752 -0.21184267 0.17660084 -0.1396699 -0.27953792 0.19201244 0.077838756 -0.05087232
0.22029734 -0.06354876 -0.14890806 -0.051063254 0.11227137 -0.049048968 0.13066672 0.019121628
-0.1339363 -0.20713069 -0.06611499 0.14249715 -0.0713442 -0.28213567 -0.17598079 0.086646445
0.104690865 -0.013866398 0.11336693 -0.1351865 0.14038764 -0.03808683 -0.09153903 0.11738159
-0.058887742 0.024634162 0.08882279 0.1850338 -0.10719258 -0.25027445 -0.2106036 -0.2405586
-0.12167047 -0.07857167 0.16462061 0.13471769 -0.13094187 0.22532745 -0.18179733 -0.080017924
0.11290995 0.1464624 -0.07151552 0.17171331 0.12658107 -0.1777297 -0.17775825 -0.1100135
-0.049652725 0.045154475 0.0646354 -0.105555326 -0.15604141 -0.19970444 -0.06062734 -0.1805327
-0.23517016 0.012683447 -0.040203325 0.065364294 0.15205443 0.18903357 -0.068105415 0.11070184
-0.26181954 -0.04718056 0.11078271 -0.06651434 -0.11845842 0.15077443 -0.27859873 -0.19802062
0.03418 -0.36169335 -0.0085926745 0.09399773 -0.08895491 -0.09206464 -0.044362172 -0.11862189
0.15093426 -0.14853548 -0.11906083 0.18729801 -0.18634838 -0.12012752 0.040078882 -0.14114872
0.074847996 0.05543719 -0.068406135 -0.23871134 0.09191388 0.16449536 -0.052100386 -0.0993939
-0.25034454 0.024688324 0.20856346 -0.20925349 -0.25200057 -0.013380809 -0.25737545 -0.114480376
-0.11002597 -0.23942584 0.0071033007 0.0739353 -0.11854807 0.06626611 -0.018039947 0.028975902
0.048176713 -0.12770976 0.029456573 -0.19381198 0.072419345 -0.26493567 0.08712768 0.04542738
-0.2197632 0.02462306 -0.17721462 -0.047757436 -0.029765641 0.00973535 0.09898009 -0.24583688
-0.25600603 -0.12643562 0.0982914 -0.20011063 -0.010360601 0.1181717 -0.196041 -0.18326853
00000000: 299b 253e e831 cf3c 7756 53be 08fa 9abe
00000010: 9345 213e 2198 1fbd 6976 debd 5853 c43d
00000020: 6814 273b cfa2 34be c8d3 80be 795b 663d
00000030: 84fd 05bd 4049 83be b912 e13d 536e 2d3e
00000040: d0d5 9bbd 48e6 513d e03d f53d 5ad9 023e
00000050: fbbe 61be d5df 56be 8332 f03b b715 7cbe
00000060: 2646 1dbe 534d e5bd 4b10 44ba 3f73 87be
00000070: 6aa8 163e d5cd d3bc 8d8e 02bd 07cc 4cbe
00000080: bc59 2a3e 5b22 34be 5cb9 43be aa76 cb3d
00000090: 533b 743b 6585 debd 33ef 0ebd 4830 50be
000000a0: d293 453b a9cb 2c3d 3950 e4bd 8edc 0f3d
000000b0: 3a34 cf3d 3095 b03d 9ec1 023e ace7 063e
000000c0: de4e 29be bfa4 21be 63db 6d3e d865 d43d
000000d0: 1870 9b3d 73db 55bd 06c5 5a3e a612 313e
000000e0: 89c4 1abe e64e bd3d 599b a33d 3f33 b9bd
000000f0: 9b77 73be fff1 61be 0eac b13c b39c 52be
00000100: c2af c8bd 38ed debd c9b1 c6bc ca58 4ebe
00000110: 1f51 47bd 87e7 b7bc 8930 093e e038 e43c
00000120: 293f bd3d 34c1 363d 5703 c5bd 3b20 10bc
00000130: c93a 4dbe b94e 3f3e 9118 ddbc 61dc 18be
00000140: eae1 db3c 4598 07be 40f6 4ebe 3659 4bbd
00000150: a3b5 a8bd 9ae3 8cbd f77f eabd 93f6 e63d
00000160: 2d04 1d3e 8ab9 d7bd 0571 0cbe 62d6 6bbe
00000170: 71f5 3ebe 09b2 0fbe 9588 85be 04ad ce3d
00000180: 6fd4 853d 4d36 693e ca79 b63d 9b55 2e3e
00000190: 4af3 ae3d 5fe9 04be 950b f7bd 225d 79be
000001a0: 8264 8dba 391b ddbd 431d 033d 42a3 0fbe
000001b0: 89ae 69bd c5a9 373c 3274 593e 4630 b2bc
000001c0: 2b0a e43d 49ed 58be dad6 343e a005 0fbe
000001d0: 981f 8fbe e99e 443e ed69 9f3d 7e5f 50bd
000001e0: a095 613e da25 82bd 5b7b 18be b427 51bd
000001f0: 88ee e53d 92e7 48bd 7fcd 053e f6a4 9c3c
00000200: 9926 09be 111a 54be 4c67 87bd c6ea 113e
00000210: e81c 92bd 1674 90be 4f34 34be b173 b13d
00000220: 2a68 d63d e32f 63bc ec2c e83d 546e 0abe
00000230: c7c1 0f3e f000 1cbd d178 bbbd c265 f03d
00000240: 4634 71bd 95cd c93c b9e8 b53d 8079 3d3e
00000250: c987 dbbd f923 80be 78a8 57be fe54 76be
00000260: 5e2e f9bd 2fea a0bd 4e92 283e 6ff3 093e
00000270: a015 06be 3dbc 663e 1429 3abe 70e0 a3bd
00000280: 553d e73d 3dfa 153e bb76 92bd 9dd5 2f3e
00000290: 789e 013e c6fe 35be 4206 36be c24e e1bd
000002a0: a860 4bbd e6f3 383d 915f 843d 642d d8bd
000002b0: 52c9 1fbe 527f 4cbe 6054 78bd 90dd 38be
000002c0: 72d0 70be 3cce 4f3c 3eac 24bd b7dd 853d
000002d0: 28b4 1b3e 0492 413e da7a 8bbd a5b7 e23d
000002e0: 360d 86be 6740 41bd 0ce2 e23d ac38 88bd
000002f0: 549a f2bd 9d64 1a3e 7ea4 8ebe ebc5 4abe
00000300: 5400 0c3d df2f b9be 4ac8 0cbc e281 c03d
00000310: fe2d b6bd 638c bcbd 1cb5 35bd 09f0 f2bd
00000320: 838e 1a3e af19 18be 2ad6 f3bd 0dcb 3f3e
00000330: 1cd2 3ebe 6b05 f6bd c129 243d 4a89 10be
00000340: e849 993d 1b12 633d 8418 8cbd bf70 74be
00000350: 583d bc3d 7971 283e 3767 55bd 078f cbbd
00000360: 292d 80be 2b3f ca3c a991 553e 8c46 56be
00000370: 3806 81be 2e3b 5bbc b7c6 83be b074 eabd
00000380: 4c55 e1bd 0c2c 75be cec2 e83b 646b 973d
00000390: 55c9 f2bd 87b6 873d 83c8 93bc df5e ed3c
000003a0: f254 453d 59c6 02be e94e f13c a676 46be
000003b0: 9850 943d a6a5 87be ff6f b23d 0f12 3a3d
000003c0: 9b09 61be 4db6 c93c c077 35be 4d9d 43bd
000003d0: 13d7 f3bc 0481 1f3c 13b6 ca3d aabc 7bbe
000003e0: 3913 83be 5778 01be 004d c93d cde9 4cbe
000003f0: 83bf 29bc 0104 f23d f9be 48be bfaa 3bbe

encoder.2.weight f4 [128, 256]
-0.02063346 0.023947597 -0.04985763 -0.004962452 -0.022559393 -0.060502626 -0.011170536 -0.085942805
-0.006901506 0.05082579 -0.055318307 -0.09016821 -0.043146946 -0.00058736035 -0.05369694 -0.08942542
-0.045317423 0.003469348 -0.04083259 -0.030911095 0.021977484 0.034518693 0.025621185 0.021995317
-0.07117179 0.044813626 0.060736768 0.096771345 -0.07265722 0.035192095 0.006423466 0.04167083
-0.062204994 -0.012157566 0.0070188344 -0.03297326 -0.053814955 -0.041963544 -0.0320447 -0.08799707
0.03130854 -0.068133764 0.018272307 -0.05509077 0.10087749 -0.06573661 0.0007546788 -0.017485477
0.017470293 -0.07496866 0.012530565 0.04797803 -0.043814436 -0.01196707 -0.036267117 0.030362794
0.019183854 -0.07838093 -0.045672283 0.009836398 -0.019657707 0.051434815 0.053981297 -0.019205369
-0.082645774 -0.015021949 0.0060482575 0.02487573 -0.052243315 0.030861575 -0.0861532 -0.030331098
-0.054331914 -0.0248376 0.027609311 0.0086279055 0.00492996 0.019251063 -0.047703505 -0.042079516
-0.08578609 -0.060335644 0.014065777 -0.028759092 -0.0064885546 -0.035985686 -0.047996826 0.011951335
0.022249857 -0.09127448 0.046820752 0.01862815 -0.038003817 0.024138073 -0.015204544 -0.00802365
-0.039123304 0.053229727 -0.060137182 -0.05231116 0.0146608725 0.11299852 -0.00056966546 -0.06299622
-0.00090078765 0.02464266 -0.005346216 -0.047631092 -0.08536539 0.03790199 0.019327268 -0.0075782
-0.020388255 0.054692954 0.032085896 -0.0725102 -0.020946078 -0.032618336 -0.085218266 -0.043544248
-0.029528268 -0.07767657 0.008016921 -0.00013472454 -0.03022429 -0.031808082 -0.007879764 0.041026756
0.03876494 -0.006586738 -0.003730478 0.099154584 0.018986335 -0.07373065 -0.028039727 0.011749096
-0.01937606 0.018828064 -0.012552741 -0.021368822 -0.07813666 -0.06312042 -0.069119826 -0.01781343
0.0380977 0.0028749607 -0.045041308 0.030021152 0.006516479 -0.04718712 -0.062259868 0.024343176
-0.07266192 0.001416636 -0.037835196 -0.049723193 -0.03696642 0.06076531 -0.06294405 0.016470417
0.021444963 0.02225258 -0.0028759404 0.0081978515 -0.06160248 0.031110853 -0.020569751 0.02580999
-0.05700691 0.0048573622 -0.036380254 -0.06512609 -0.07757234 0.028942222 -0.09971332 0.0318677
-0.025438521 0.042014614 -0.09023339 0.013126165 -0.068128526 -0.025144964 0.018935524 -0.07808109
-0.018635228 0.017797366 0.0162668 -0.06651019 -0.077556625 -0.052111834 -0.05918138 0.025479715
0.08568126 -0.016519269 -0.010291241 -0.037486635 0.0039613247 -0.088513 0.048242636 -0.06748368
-0.009735398 0.023136618 -0.016812027 0.014005175 0.06214598 0.035301782 -0.040895753 -0.079136245
-0.01725449 -0.010711791 0.03810744 0.017719176 -0.044808708 -0.02535815 -0.0117221065 -0.01763941
-0.0051612463 -0.04719102 -0.04504609 -0.009510135 -0.0033937753 0.0022285131 2.0356583e-05 -0.034322135
0.03328045 -0.008112126 0.0049793543 -0.08288515 -0.032814786 0.019834204 -0.013931848 0.021065377
-0.026590265 -0.047177963 -0.0026139587 -0.07071421 -0.06352579 0.055586357 -0.005497649 0.018648751
-0.10932406 0.017719507 -0.08775229 -0.021172844 0.0015184528 -0.041461866 0.02760105 -0.06889918
-0.074118376 0.020279653 0.035186045 -0.05698622 -0.050962243 -0.046782963 0.08991229 0.01981699
00000000: 8007 a9bc c02d c43c 8437 4cbd 119c a2bb
00000010: 7ace b8bc 9ad1 77bd a004 37bc c802 b0bd
00000020: 0726 e2bb b42e 503d 7395 62bd 1caa b8bd
00000030: daba 30bd 16f9 19ba 53f1 5bbd ad24 b7bd
00000040: c39e 39bd 005e 633b 1340 27bd 4439 fdbc
00000050: 200a b43c 7963 0d3d 85e3 d13c 862f b43c
00000060: 84c2 91bd 7e8e 373d 1ec7 783d 0e30 c63d
00000070: 4fcd 94bd 9625 103d f07b d23b 08af 2a3d
00000080: aaca 7ebd 8730 47bc 40fe e53b f80e 07bd
00000090: 126d 5cbd f7e1 2bbd 4e41 03bd cf37 b4bd
000000a0: 623d 003d b789 8bbd ceaf 953c dca6 61bd
000000b0: dc98 ce3d eaa0 86bd a3d5 453a b43d 8fbc
000000c0: dc1d 8f3c 2b89 99bd 004d 4d3c 9c84 443d
000000d0: c476 33bd 8811 44bc d48c 14bd 65bb f83c
000000e0: 7527 9d3c 2e86 a0bd dc12 3bbd d828 213c
000000f0: 3309 a1bc 50ad 523d 7e1b 5d3d 9454 9dbc
00000100: 3042 a9bd 9f1e 76bc 7630 c63b 30c8 cb3c
00000110: 16fd 55bd 6ad1 fc3c 1771 b0bd ec78 f8bc
00000120: 248b 5ebd 3978 cbbc ec2c e23c 0f5c 0d3c
00000130: 808b a13b 68b4 9d3c c064 43bd 925b 2cbd
00000140: 9eb0 afbd 8222 77bd 2574 663c 3098 ebbc
00000150: f19d d4bb ba65 13bd 5298 44bd 88cf 433c
00000160: 5545 b63c 1dee babd 1ec7 3f3d 109a 983c
00000170: e4a9 1bbd 35bd c53c 7b1c 79bc a175 03bc
00000180: c23f 20bd 6a07 5a3d 6852 76bd 3a44 56bd
00000190: 2834 703c c56b e73d 9a55 15ba 2a04 81bd
000001a0: d622 6cba 67df c93c 4f2f afbb d218 43bd
000001b0: 0dd4 aebd 1e3f 1b3d 3854 9e3c 8d52 f8bb
000001c0: 4505 a7bc b805 603d 806c 033d 3a80 94bd
000001d0: 1c97 abbc ce9a 05bd ea86 aebd 745b 32bd
000001e0: 44e5 f1bc e514 9fbd 6759 033c d844 0db9
000001f0: ee98 f7bc 3149 02bd 201a 01bc ac0b 283d
00000200: fcc7 1e3d 90d5 d7bb 097b 74bb 8f11 cb3d
00000210: 3b89 9b3c 1800 97bd 92b3 e5bc 487f 403c
00000220: 8bba 9ebc 503d 9a3c 03aa 4dbc ab0d afbc
00000230: 1d06 a0bd 4745 81bd b28e 8dbd 78ed 91bc
00000240: 550c 1c3d d669 3c3b 3c7d 38bd ebee f53c
00000250: 3088 d53b 4847 41bd 3404 7fbd 576b c73c
00000260: c6cf 94bd 6bae b93a 14f9 1abd 8caa 4bbd
00000270: 1a6a 17bd 0ce5 783d cfe8 80bd f8ec 863c
00000280: 59ad af3c 0b4b b63c 467a 3cbb 4850 063c
00000290: e252 7cbd 30dc fe3c e581 a8bc 796f d33c
000002a0: 1480 69bd 822a 9f3b 7603 15bd d460 85bd
000002b0: 3fde 9ebd 3d18 ed3c 7f36 ccbd b587 023d
000002c0: 7264 d0bc 8417 2c3d 49cc b8bd 200f 573c
000002d0: f886 8bbd d0fc cdbc ac1e 9b3c fae8 9fbd
000002e0: e8a8 98bc c8cb 913c f441 853c 7f36 88bd
000002f0: 02d6 9ebd 3873 55bd 2d68 72bd d6ba d03c
00000300: a879 af3d 6b53 87bc 989c 28bc 968b 19bd
00000310: 00ce 813b 4e46 b5bd 129a 453d e234 8abd
00000320: 3881 1fbc 0189 bd3c 60b9 89bc f675 653c
00000330: c88c 7e3d 9a98 103d 4e82 27bd 2f12 a2bd
00000340: 4a59 8dbc 8280 2fbc 8c16 1c3d ce27 913c
00000350: 5689 37bd e5bb cfbc 140e 40bc 8680 90bc
00000360: ac1f a9bb 5f4b 41bd 4082 38bd 66d0 1bbc
00000370: 1a6a 5ebb 3f0c 123b 6ec3 aa37 5e95 0cbd
00000380: 1551 083d b9e8 04bc da29 a33b b1bf a9bd
00000390: cc68 06bd 577b a23c 6842 64bc 4c91 ac3c
000003a0: d4d3 d9bc ae3d 41bd f34e 2bbb 9dd2 90bd
000003b0: cf19 82bd 85ae 633d 9f25 b4bb 44c5 983c
000003c0: 4be5 dfbd 8028 913c 79b7 b3bd ac72 adbc
000003d0: d206 c73a ebd3 29bd 991b e23c 031b 8dbd
000003e0: 60cb 97bd 8421 a63c 3e1f 103d 626a 69bd
000003f0: c9bd 50bd 7e9f 3fbd ef23 b83d 3d57 a23c

encoder.2.bias f4 [128]
-0.014120758 -0.0030524724 -0.04133417 -0.0028486578 0.028749347 -0.09052386 -0.01878704 -0.06617045
-0.07376336 -0.035359412 -0.060633287 -0.09751478 -0.05329216 -0.07890893 0.0019847702 -0.04382642
0.03620212 -0.06970368 -0.04563583 -0.10367187 -0.10218017 -0.0068923063 -0.043646377 0.0022492781
0.035285197 -0.056210376 -0.104126774 -0.021071227 -0.029440336 -0.052491397 -0.028461795 -0.07885495
-0.1167862 -0.079547994 -0.066029616 -0.03238477 -0.028100647 -0.08232696 -0.072669536 -0.09051279
-0.006213575 0.061580732 -0.009457373 0.019115737 0.03274319 -0.03133497 0.031149536 -0.04918526
0.05740411 -0.038351215 -0.082500964 -0.053761948 -0.05700502 0.012957274 0.005389915 -0.0022872617
-0.032883484 -0.005637506 -0.004196097 0.05267156 0.026523532 -0.081881665 -0.043928962 -0.033603344
-0.061879598 -0.0007495891 0.0032970384 -0.07336087 -0.051090837 0.11665376 -0.04817706 -0.074785195
-0.04438649 -0.05081077 -0.008552568 -0.009122558 -0.106340274 -0.081528306 0.022197539 -0.04213167
-0.021665797 -0.08668818 -0.09999755 -0.059532493 -0.053915173 0.025024906 -0.13239522 -0.06259345
-0.093171194 -0.04531729 -0.10148269 -0.018776309 -0.027384853 0.019427164 -0.013250384 0.04160954
-0.064886734 0.001480469 -0.08989982 -0.04793018 -0.07331611 -0.09658704 -0.05140854 -0.026589768
-0.0064420346 -0.09201404 -0.120987244 0.053752627 -0.017327981 0.026926076 -0.010116063 -0.02469542
-0.105442 -0.07808341 -0.033898737 -0.02195111 -0.03934043 -0.041278683 -0.04540861 -0.10590181
-0.030702636 -0.005550806 -0.025894184 -0.12112708 -0.11928938 0.30395415 -0.08383637 0.0017303453
00000000: c05a 67bc fd0b 48bb 054e 29bd 8cb0 3abb
00000010: c083 eb3c 9364 b9bd 47e7 99bc 5f84 87bd
00000020: 3f11 97bd 08d5 10bd 9c5a 78bd d4b5 c7bd
00000030: e148 5abd 019b a1bd eb12 023b 5583 33bd
00000040: ad48 143d cec0 8ebd a3ec 3abd eb51 d4bd
00000050: d643 d1bd dbd8 e1bb 8bc6 32bd a068 133b
00000060: 3687 103d da3c 66bd 6b40 d5bd 919d acbc
00000070: dc2c f1bc 3801 57bd b628 e9bc b47e a1bd
00000080: 9a2d efbd 0fea a2bd 893a 87bd e5a5 04bd
00000090: 5433 e6bc 0a9b a8bd c4d3 94bd c55e b9bd
000000a0: 3f9b cbbb 143c 7c3d 19f3 1abc 9b98 9c3c
000000b0: b91d 063d 1959 00bd 502d ff3c 7c76 49bd
000000c0: 9220 6b3d 2a16 1dbd 44f6 a8bd 7d35 5cbd
000000d0: 197e 69bd bf4a 543c e29d b03b e2e5 15bb
000000e0: d5b0 06bd d4ba b8bb 6a7f 89bb 22be 573d
000000f0: e147 d93c 93b1 a7bd dbee 33bd a9a3 09bd
00000100: 7675 7dbd 1380 44ba 2013 583b 393e 96bd
00000110: a044 51bd 2be8 ee3d 4f55 45bd fb28 99bd
00000120: 9cce 35bd f41e 50bd 1220 0cbc c876 15bc
00000130: eec8 d9bd 50f8 a6bd 9dd7 b53c 4292 2cbd
00000140: 787c b1bc 9389 b1bd 84cb ccbd 58d8 73bd
00000150: 28d6 5cbd 0801 cd3c 9d92 07be ff30 80bd
00000160: 8ad0 bebd 9f9e 39bd 28d6 cfbd c6d0 99bc
00000170: 3356 e0bc b725 9f3c 2318 59bc c46e 2a3d
00000180: 56e3 84bd 4c0c c23a 661d b8bd 7052 44bd
00000190: c226 96bd 6dcf c5bd c391 52bd c9d2 d9bc
000001a0: b417 d3bb db71 bcbd 29c8 f7bd b72b 5c3d
000001b0: 69f3 8dbc 1394 dc3c d8bd 25bc 0d4e cabc
000001c0: faf1 d7bd 32ea 9fbd 67d9 0abd d0d2 b3bc
000001d0: 6e23 21bd d613 29bd 61fe 39bd 0ce3 d8bd
000001e0: 1884 fbbc 89e3 b5bb 0a20 d4bc 7911 f8bd
000001f0: fe4d f4bd e19f 9b3e 67b2 abbd c1cc e23a

encoder.4.weight f4 [3, 128]
0.054100934 -0.014463617 -0.054650918 -0.05371787 0.06927394 0.0468562 0.08985737 -0.02691818
-0.02411206 -0.013556576 0.01755187 -0.04583165 0.012357936 -0.0020286983 0.021286214 -0.08410376
-0.004815966 0.12724137 0.06483698 0.026439475 -0.13259456 -0.023457812 -0.090704836 -0.008085514
0.053888496 -0.100545906 0.02388993 0.025678243 0.05481954 -0.053024318 -0.0145741245 0.08227233
0.003175816 -0.12700513 -0.036900494 0.010618845 -0.05146299 -0.027953757 0.08467065 0.02783218
-0.01278807 0.06502758 0.016878035 0.010021031 0.032144945 -0.03675793 -0.036496937 0.076337814
-0.029295472 0.023792926 -0.13472578 -0.08035828 0.024074916 -0.033019945 0.094315834 -0.046262644
0.02456477 0.051196493 -0.016360879 -0.0024882762 -0.0020217665 -0.047655698 -0.013947065 -0.048152786
0.053777143 -0.0056998436 -0.008546179 0.075958945 -0.09215158 0.20897797 0.026131455 -0.017111456
-0.13524882 -0.033745807 -0.061690688 0.08122456 -0.058096476 -0.057341404 -0.023825845 -0.039612852
0.13335635 0.046880815 -0.03361075 -0.044852447 0.04761144 0.00019297743 0.20252499 -0.10712773
-0.008756932 -0.016190924 -0.00989796 -0.024821073 -0.042706057 -0.03703551 -0.12044614 -0.034138557
-0.02505174 0.014679468 -0.012118017 -0.012920387 0.01821509 -0.014840658 -0.008681404 0.01461067
0.017605623 0.06409821 -0.046719797 0.12310354 -0.03628995 -0.03365201 -0.13412854 -0.014024803
-0.06604835 0.02492017 -0.04870448 -0.039972503 0.021709714 0.006668747 -0.085504256 0.023974633
-0.060047258 0.018755892 0.021673134 0.020391384 -0.01957299 -0.1927901 -0.0070116976 -0.07000749
-0.104009524 0.068310216 -0.028416757 -0.07464642 -0.06852619 0.048463855 0.11729667 0.035780776
0.048041124 0.01128123 -0.012207395 0.13092642 0.036079917 -0.042536475 0.010900766 -0.016909664
0.15254027 -0.0077151437 0.007144202 -0.10094895 0.007403519 0.050457694 0.013597635 -0.023332568
-0.031079717 -0.02218789 0.051945858 0.041872136 -0.028465318 0.05891058 0.016999003 -0.00800471
-0.027824977 0.089118555 -0.024064247 0.02317482 -0.002110274 -0.121817365 0.027169902 0.10754837
-0.03065617 -0.065194584 -0.08500118 0.0067085726 0.005745525 -0.0034045456 -0.06037732 -0.03334963
-0.03489329 -0.00017487505 0.046062298 0.053785913 0.040147968 0.002850256 0.024571348 0.13142663
-0.027243016 -0.02969689 -0.021795223 0.078326285 -0.08029213 -0.1412019 0.14536978 0.03135222
0.02294956 0.08208861 -0.087071374 0.028189046 0.14451875 -0.14300719 -0.018589877 -0.0616576
0.062061448 -0.10207447 0.12813911 0.022885738 -0.025547046 0.048392773 -0.022375941 0.011299959
-0.07131362 0.051718608 -0.032755777 -0.07914768 -0.07470137 -0.04647981 0.76590675 0.053633343
-0.018822886 -0.12206824 0.038394935 -0.083614066 0.07723858 -0.074107856 -0.015821496 0.03921526
0.030423462 0.029241707 0.12416082 0.013544471 0.006568794 0.08525724 0.008046359 0.11629476
-0.002541371 -0.09690184 -0.027859068 -0.12703837 -0.022001764 -0.107768685 -0.020721054 -0.044576105
0.078014344 0.01381503 0.04241349 -0.081461035 -0.010621844 0.004847567 0.07139837 0.054265324
-0.083114125 0.1480939 -0.05691699 0.12270657 -0.05734498 0.122758724 -0.13862662 0.0024154452
00000000: f198 5d3d cef8 6cbc a4d9 5fbd 4507 5cbd
00000010: 7fdf 8d3d 49ec 3f3d 2407 b83d 8483 dcbc
00000020: a886 c5bc 671c 5ebc f0c8 8f3c f8b9 3bbd
00000030: f178 4a3c e9f3 04bb 6d60 ae3c 983e acbd
00000040: 40cf 9dbb 904b 023e 40c9 843d 9997 d83c
00000050: dec6 07be 992a c0bc 75c3 b9bd 1b79 04bc
00000060: 2fba 5c3d 03eb cdbd d1b4 c33c 2e5b d23c
00000070: 748a 603d 0730 59bd 4fc8 6ebc 657e a83d
00000080: 5a21 503b a20d 02be f924 17bd aafa 2d3c
00000090: dbca 52bd 47ff e4bc ce67 ad3d 5000 e43c
000000a0: 0e85 51bc 2e2d 853d ce43 8a3c 402f 243c
000000b0: 6baa 033d 7c8f 16bd d07d 15bd 0057 9c3d
000000c0: 0ffd efbc 62e9 c23c 8ef5 09be e292 a4bd
000000d0: c238 c53c ec3f 07bd a928 c13d e67d 3dbd
000000e0: 0e3c c93c 6ab3 513d 4007 86bc 5912 23bb
000000f0: 9d7f 04bb 9f32 43bd 3b82 64bc db3b 45bd
00000100: 6c45 5c3d c1c5 babb 4605 0cbc 5d90 9b3d
00000110: f8b9 bcbd 52fe 553e a211 d63c 532d 8cbc
00000120: ab7e 0abe 0b39 0abd 60af 7cbd 1059 a63d
00000130: 92f6 6dbd d2de 6abd 6b2e c3bc 1641 22bd
00000140: 918e 083e 1906 403d 6dab 09bd 33b7 37bd
00000150: 3704 433d fc59 4a39 b662 4f3e c965 dbbd
00000160: 3c79 0fbc d4a2 84bc 0e2b 22bc 9055 cbbc
00000170: 8cec 2ebd 8cb2 17bd 77ac f6bd dfd4 0bbd
00000180: 4f39 cdbc 2782 703c a68a 46bc 08b0 53bc
00000190: d037 953c 3b26 73bc 733c 0ebc 9761 6f3c
000001a0: ab39 903c ec45 833d 425d 3fbd b51d fc3d
000001b0: c5a4 14bd b1d6 09bd fe58 09be 4ac8 65bc
000001c0: 5b44 87bd 6225 cc3c 597e 47bd 35ba 23bd
000001d0: 92d8 b13c 8185 da3b db1c afbd 7366 c43c
000001e0: 1df4 75bd f5a5 993c db8b b13c d50b a73c
000001f0: 8957 a0bc c56a 45be 62c2 e5bb 1660 8fbd
00000200: f202 d5bd 3ae6 8b3d 42ca e8bc 39e0 98bd
00000210: 7657 8cbd 0982 463d 3d39 f03d dd8e 123d
00000220: c5c6 443d e8d4 383c 8701 48bc 9311 063e
00000230: 89c8 133d ba3a 2ebd 2099 323c 2386 8abc
00000240: 8433 1c3e 51cf fcbb e919 ea3b 53be cebd
00000250: 3899 f23b baac 4e3d 9dc8 5e3c f123 bfbc
00000260: e49a febc 61c3 b5bc 2ec5 543d 1e82 2b3d
00000270: 1930 e9bc 384c 713d 7e41 8b3c 3026 03bc
00000280: 35f1 e3bc ca83 b63d 6222 c5bc 1fd9 bd3c
00000290: 864c 0abb 627b f9bd 6a93 de3c 5242 dc3d
000002a0: a622 fbbc bd84 85bd 1915 aebd 96d3 db3b
000002b0: f544 bc3b cc1e 5fbb 354e 77bd 9f99 08bd
000002c0: 44ec 0ebd aa5e 37b9 d2ab 3c3d 9e4e 5c3d
000002d0: 3272 243d 5ccb 3a3b da49 c93c b494 063e
000002e0: bf2c dfbc e446 f3bc e58b b2bc 8869 a03d
000002f0: 3370 a4bd 3b97 10be d1db 143e 2f6b 003d
00000300: b700 bc3c 131e a83d 7a52 b2bd b7ec e63c
00000310: b9fc 133e 7a70 12be cc49 98bc ae8c 7cbd
00000320: 2534 7e3d 6b0c d1bd e636 033e df7a bb3c
00000330: 0a48 d1bc 8037 463d c04d b7bc 7723 393c
00000340: e00c 92bd e4d6 533d ec2a 06bd 2e18 a2bd
00000350: 08fd 98bd 9d61 3ebd 7712 443f a3ae 5b3d
00000360: 7432 9abc eafe f9bd 0244 1d3d da3d abbd
00000370: 432f 9e3d dcc5 97bd 159c 81bc 2ea0 203d
00000380: a03a f93c 4e8c ef3c 0748 fe3d a1e9 5d3c
00000390: 0a3f d73b 599b ae3d e0d4 033c f22b ee3d
000003a0: 218d 26bb 7974 c6bd b338 e4bc 5916 02be
000003b0: 0b3d b4bc d4b5 dcbd 33bf a9bc 6f95 36bd
000003c0: fcc5 9f3d 7058 623c c5b9 2d3d 0bd5 a6bd
000003d0: 3e07 2ebc 57d8 9e3b 4f39 923d 5145 5e3d
000003e0: bd37 aabd eda5 173e ca21 69bd 954d fb3d
000003f0: 92e2 6abd ed68 fb3d 23f4 0dbe 724c 1e3b

encoder.4.bias f4 [3]
-0.29668814 -0.06043426 0.052180875
00000000: 82e7 97be ea89 77bd 9dbb 553d

decoder.0.weight f4 [128, 3]
-0.47585022 0.08871355 0.39909208 0.16703661 -0.055495422 -0.1551791 -0.120131105 0.25771996
-0.47942716 1.0245123 -0.31218502 -0.02395153 0.28969836 0.04109572 0.24361697 0.037406296
-0.19577481 0.44908452 0.27354327 -0.37394065 0.37884593 -0.40969118 -0.50433236 -0.03144663
-0.15861598 -0.05733576 0.45912483 0.40311578 -0.5348163 0.449683 0.14735048 0.3149775
-0.501944 -0.43976685 0.36472583 -0.24267519 0.23502442 -2.4048326 0.097867355 -0.032537617
0.20659232 0.16399747 0.43411225 0.22390103 -0.044129513 0.00919371 -0.56872004 -0.2692124
-0.3860525 -0.77668846 0.5363032 0.4064216 -0.0430867 -0.5101896 -0.14215533 0.27539036
-0.7111995 -0.40776536 -0.13150112 -0.48446822 0.38153505 0.21929884 0.15306963 0.07943339
-0.589955 0.4304381 0.09385972 -2.138147 -0.95705825 0.5217759 0.31444752 0.054185722
-0.09150016 0.40376818 0.2846833 -0.22744383 -0.3420127 -0.14553277 0.33778593 -0.0028895375
-0.67448586 -0.43820912 -0.39462832 -0.07285617 -0.40539694 0.5341826 0.21092346 0.2742952
0.44563973 0.34158123 -0.5792121 0.21607256 0.39570186 0.7084462 1.5019326 0.121624805
0.359431 -0.1971373 0.21275844 0.21579954 -0.402348 0.47880054 0.47907916 -0.21958713
0.112838715 -0.28875464 -0.11203968 0.37879303 -0.37282458 0.24378675 -0.0835843 0.25897437
-0.17880636 0.25150034 -0.32860997 0.4350274 -0.12982135 0.013233639 -0.45022663 0.5294722
0.7589543 -0.7995707 0.53982604 -0.7925498 0.9213094 -0.8336726 0.05025889 -0.6806093
0.32516748 0.036483437 -0.18102702 0.45274517 -0.36896643 0.09802331 -0.06348363 0.32070383
0.2975307 0.10993643 -0.2023953 -0.46350446 -0.27353498 -0.012581725 0.2273978 0.23180613
-0.29823413 0.5046118 0.43017128 -0.09942981 -0.0099689625 -0.49648193 0.09163423 0.62686837
-0.60162234 -0.03425001 0.04336658 -0.43658918 0.28593594 -0.3862852 0.38494998 0.604705
-0.3383301 0.29322192 0.025229657 0.0011597328 0.008241759 0.29831186 0.4418775 0.28626558
-0.23364185 0.30884725 0.11984057 -0.5829573 0.1002716 0.44057766 0.07712776 0.290934
0.36463124 -0.17491159 -0.15796669 0.3718896 0.3743085 -0.08995289 0.19375385 0.138188
0.39904508 0.09400513 -0.4144312 -0.66496766 -0.025480568 -0.06994056 -0.392476 -0.40075082
0.42425644 0.016449641 -0.4863963 0.12694779 0.4953862 0.34588826 0.11954159 0.16062862
-0.39494464 0.40602595 -0.35046414 0.4595113 0.13688998 0.015204024 0.28665382 -0.48730013
-0.010023402 0.049178082 -0.45135656 -0.5377364 -0.3689799 0.10503825 -0.25260085 -0.25365373
0.21100362 0.47471473 -0.08665821 -0.28072357 0.37511098 0.19618456 -0.1267436 -0.27214658
0.41226694 0.27610877 -0.02769463 -0.41758353 -0.21432424 0.52309465 0.21688433 -0.101334415
-0.04820344 0.0028507088 0.55129844 0.3452622 0.28528595 -0.5100825 -0.36885783 0.20210618
0.06667858 0.2829121 0.36312202 0.08022518 0.48503938 -0.33878756 0.7362304 0.26647988
-0.5643402 0.0020607843 0.52391016 -0.030410787 0.0061816825 0.341488 0.021470977 0.021248156
00000000: a4a2 f3be 73af b53d cc55 cc3e a50b 2b3e
00000010: 2b4f 63bd 45e7 1ebe 4c07 f6bd dff3 833e
00000020: 7a77 f5be 3823 833f b7d6 9fbe 0036 c4bc
00000030: 5853 943e fc53 283d ba76 793e 5837 193d
00000040: 3179 48be 68ee e53e dd0d 8c3e 2675 bfbe
00000050: 18f8 c13e 0bc3 d1be ed1b 01bf 2ece 00bd
00000060: 3a6c 22be e7d8 6abd 6912 eb3e 3165 ce3e
00000070: b9e9 08bf da3c e63e 0be3 163e bb44 a13e
00000080: 677f 00bf 1f29 e1be 58bd ba3e d87f 78be
00000090: 3eaa 703e c7e8 19c0 ae6e c83d 2a46 05bd
000000a0: f08c 533e f4ee 273e f643 de3e 5046 653e
000000b0: 26c1 34bd 37a1 163c a397 11bf 35d6 89be
000000c0: aca8 c5be 0ed5 46bf 2b4b 093f 7e16 d03e
000000d0: ae7b 30bd c99b 02bf 2b91 11be f7ff 8c3e
000000e0: 2c11 36bf 9fc6 d0be 3ba8 06be 380c f8be
000000f0: 9058 c33e e08f 603e 49be 1c3e f9ad a23d
00000100: 4a07 17bf 6262 dc3e 8639 c03d 67d7 08c0
00000110: c501 75bf 1b93 053f 44ff a03e d9f1 5d3d
00000120: 7064 bbbd b4ba ce3e 02c2 913e 09e7 68be
00000130: 4a1c afbe 8b06 15be 47f2 ac3e 655e 3dbb
00000140: 1bab 2cbf f25c e0be b90c cabe 9e35 95bd
00000150: 3090 cfbe 31c0 083f 52fc 573e 6c70 8c3e
00000160: e42a e43e bce3 ae3e 3f47 14bf 2042 5d3e
00000170: 6f99 ca3e bb5c 353f 543f c03f 6d16 f93d
00000180: 5707 b83e 5cde 49be 59dd 593e 8efa 5c3e
00000190: 8f00 cebe 5825 f53e dd49 f53e 73db 60be
000001a0: fc17 e73d a6d7 93be 0f75 e5bd 29f1 c13e
000001b0: dde2 bebe 3ca3 793e 3f2e abbd 4a98 843e
000001c0: 0419 37be a7c4 803e 913f a8be e9bb de3e
000001d0: e3ef 04be e8d1 583c 1b84 e6be 7d8b 073f
000001e0: d44a 423f aab0 4cbf 0a32 0a3f 8be4 4abf
000001f0: efda 6b3f 916b 55bf 44dc 4d3d 693c 2ebf
00000200: 5a7c a63e a86f 153d 265f 39be 37ce e73e
00000210: 2be9 bcbe 72c0 c83d b503 82bd 4b33 a43e
00000220: f255 983e 5a26 e13d b740 4fbe 7550 edbe
00000230: c70c 8cbe 9423 4ebc f8da 683e 965e 6d3e
00000240: 25b2 98be 3d2e 013f 693f dc3e dba1 cbbd
00000250: dc54 23bc e132 febe baaa bb3d 727a 203f
00000260: ec03 1abf bd49 0cbd 28a1 313d 9e88 dfbe
00000270: 3266 923e 2cc7 c5be 2a18 c53e f2cd 1a3f
00000280: 9a39 adbe 2f21 963e 6dae ce3c 2d02 983a
00000290: 7108 073c 55bc 983e c53d e23e 6791 923e
000002a0: cf3f 6fbe 3a21 9e3e f96e f53d b13c 15bf
000002b0: 325b cd3d 6593 e13e 29f5 9d3d 4df5 943e
000002c0: f2b0 ba3e 061c 33be 05c2 21be 5068 be3e
000002d0: 5da5 bf3e 3939 b8bd 6967 463e 2881 0d3e
000002e0: a34f cc3e c385 c03d 5430 d4be 523b 2abf
000002f0: a0bc d0bc ff3c 8fbd 9df2 c8be 362f cdbe
00000300: 2438 d93e 66c1 863c f008 f9be 9afe 013e
00000310: 43a3 fd3e 4418 b13e 39d2 f43d d47b 243e
00000320: 2f36 cabe a2e2 cf3e 0970 b3be 1145 eb3e
00000330: e32c 0c3e 4c1a 793c 4ac4 923e 677f f9be
00000340: 3239 24bc f56e 493d 3518 e7be 18a9 09bf
00000350: efea bcbe 4b1e d73d e654 81be e7de 81be
00000360: 5511 583e cf0d f33e dc79 b1bd 00bb 8fbe
00000370: 8c0e c03e 9be4 483e 13c9 01be cc56 8bbe
00000380: a714 d33e 215e 8d3e d9df e2bc 82cd d5be
00000390: d077 5bbe 88e9 053f ed16 5e3e 6b88 cfbd
000003a0: f870 45bd f5d2 3a3b e521 0d3f 35c6 b03e
000003b0: 0011 923e c494 02bf efda bcbe ecf4 4e3e
000003c0: c88e 883d dbd9 903e 21eb b93e 194d a43d
000003d0: 1557 f83e 9075 adbe 9879 3c3f 0d70 883e
000003e0: 9978 10bf 390e 073b fa1e 063f 0b20 f9bc
000003f0: b68f ca3b 84d7 ae3e e7e3 af3c 9d10 ae3c

decoder.0.bias f4 [128]
-1.3996199 -0.42365456 -0.35628653 2.7301688 1.0935049 0.5832338 -3.6632168 0.23529539
0.4280092 -0.77329403 -0.98319006 -0.29122743 -1.9481308 0.27448493 -3.807502 -0.6019751
0.31964424 0.14560898 0.09906347 -0.16798256 0.3211876 1.5960183 -0.33919904 1.8416442
0.42988735 -0.49940574 -0.06262446 -0.008169321 0.6256581 0.9140742 -0.11307479 -0.67189306
-4.436757 -5.991373 -3.1653516 -0.80587006 -0.48722285 -6.0401454 3.2668693 0.48200983
0.27865553 0.8679798 -0.028399589 -0.07198876 -0.3744022 0.48091215 -0.22962674 1.6973723
1.2078323 -0.0469836 -0.8804855 -0.01685027 -3.2581172 -2.2261922 2.6973832 1.4877667
0.5572608 -3.0735695 -0.35790238 0.05691908 -0.08087445 0.51907074 0.35754207 0.1564293
-0.53406715 -0.27369285 -0.59216267 0.14926413 0.12177712 -0.1765536 0.12160594 -0.6359835
-0.64289546 -0.64279234 0.75735563 0.3948941 0.8681291 -0.045717303 1.1653732 -0.050686374
0.6237075 -5.7424726 -2.2776825 -3.044459 0.009544121 0.1324247 0.4907104 -0.5625581
-3.5506513 -0.70030785 -0.039239082 1.3820492 -0.22347681 -2.596825 -0.44554085 -0.489841
2.0196903 2.459789 -0.5040061 1.0467453 0.48309007 -3.3363366 0.80005395 0.41485846
0.12059552 0.35390702 -0.39105877 -0.41241288 0.30306587 -0.289451 0.38187665 0.73026353
-0.0025841228 -0.09973684 -0.8638237 0.6202403 0.06103701 0.20398948 -0.2276661 0.94939566
1.0994214 0.41126823 -0.4273563 1.2497835 -1.098216 4.8990116 1.4162045 -2.2339647
00000000: bf26 b3bf 40e9 d8be 306b b6be 16bb 2e40
00000010: f8f7 8b3f cf4e 153f 2572 6ac0 46f1 703e
00000020: 0624 db3e 99f6 45bf 58b2 7bbf c31b 95be
00000030: 5a5c f9bf 4a89 8c3e 1dae 73c0 0a1b 1abf
00000040: 69a8 a33e 851a 153e cae1 ca3d 9f03 2cbe
00000050: b372 a43e 544a cc3f 7fab adbe ffba eb3f
00000060: 321a dc3e 1cb2 ffbe 4141 80bd 9ed8 05bc
00000070: 212b 203f c400 6a3f c193 e7bd 2f01 2cbf
00000080: eaf9 8dc0 54b9 bfc0 1f95 4ac0 804d 4ebf
00000090: 4675 f9be df48 c1c0 6314 5140 fec9 f63e
000000a0: f0ab 8e3e ed33 5e3f 41a6 e8bc d86e 93bd
000000b0: a5b1 bfbe 1e3a f63e 4623 6bbe 7f43 d93f
000000c0: 409a 9a3f e071 40bd 7f67 61bf 9409 8abc
000000d0: fe84 50c0 ef79 0ec0 eda1 2c40 246f be3f
000000e0: a5a8 0e3f 5db5 44c0 fb3e b7be fb23 693d
000000f0: 81a1 a5bd d2e1 043f c10f b73e 012f 203e
00000100: a0b8 08bf 7821 8cbe f997 17bf b2d8 183e
00000110: 4866 f93d 78ca 34be 890c f93d d1cf 22bf
00000120: cc94 24bf 0a8e 24bf 0fe2 413f 8f2f ca3e
00000130: b53d 5e3f 1142 3bbd f32a 953f 849c 4fbd
00000140: 4bab 1f3f 56c2 b7c0 8dc5 11c0 6bd8 42c0
00000150: f25e 1c3c 579a 073e 653e fb3e cf03 10bf
00000160: df3d 63c0 6047 33bf 29b9 20bd fde6 b03f
00000170: 1bd7 64be 6132 26c0 ee1d e4be 71cc fabe
00000180: 9b42 0140 2f6d 1d40 8b06 01bf c0fb 853f
00000190: 9557 f73e 8a86 55c0 56d0 4c3f 5468 d43e
000001a0: c9fa f63d 4d33 b53e db38 c8be c827 d3be
000001b0: 732b 9b3e ec32 94be 5685 c33e 8df2 3a3f
000001c0: 635a 29bb d442 ccbd 8d23 5dbf 11c8 1e3f
000001d0: f201 7a3d 9ee2 503e 4d21 69be 980b 733f
000001e0: d7b9 8c3f c091 d23e 72ce dabe e8f8 9f3f
000001f0: 5892 8cbf b4c4 9c40 3046 b53f 47f9 0ec0

decoder.2.weight f4 [256, 128]
-0.09622329 -0.106413685 -0.047130037 0.0066039115 -0.11031277 -0.14648694 -0.065241486 -0.02960692
-0.061667703 -0.09856202 -0.054659322 0.028621437 -0.07780308 -0.10377693 -0.10957716 -0.12114714
-0.11684372 0.027231995 0.06015923 0.077214345 0.0057112887 -0.08240714 -0.13219003 -0.068748325
-0.036423862 -0.039992947 0.06471312 0.12892278 -0.020641718 -0.066232145 -0.13834192 -0.041621152
-0.050931 -0.018509915 -0.100011595 -0.015976269 -0.06308703 -0.09674287 -0.055618197 0.0017417694
0.0110883815 -0.061335348 -0.14095183 -0.0698193 -0.09773643 -0.10508538 0.021833468 0.007682056
-0.0023797795 -0.061980553 0.007899994 -0.0025588826 0.024796218 0.0018896897 -0.028706886 -0.10189338
-0.028028442 -0.0137338005 -0.11841942 -0.07815952 0.020798566 -0.1414631 -0.053667225 -0.08711179
-0.04486005 -0.12985516 -0.03394308 -0.07075949 -0.017916247 -0.016736977 -0.07884202 -0.08401856
-0.04559973 -0.0018789478 -0.055858765 0.014165682 -0.13528404 -0.012210118 0.0015663815 -0.012382786
-0.05281414 0.064927556 -0.14571568 -0.0012596608 -0.08911994 -0.031672217 -0.13771364 -0.040227223
-0.12348493 -0.14568701 -0.0178021 -0.102944314 -0.05623677 -0.13296005 0.0057232436 0.049296502
-0.07845724 -0.022718651 0.051746394 -0.054942638 -0.13358568 -0.12113877 -0.11230141 0.01283316
-0.13715488 -0.016001916 0.009435163 0.013573781 -0.048195604 -0.033007648 0.021554278 -0.13237348
0.035358973 0.079252034 0.0036462292 -0.07110726 0.06120286 0.07695071 3.0376676e-05 -0.13049887
-0.16806075 -0.030648028 -0.001940685 -0.0731128 -0.1534615 -0.0811946 0.018363731 -0.115570955
0.025207978 0.058243282 -0.038912855 0.024865936 -0.039982803 0.0062383395 -0.11750761 0.026775302
-0.093986064 -0.055129662 -0.007897082 -0.08084069 -0.08875358 -0.03786321 -0.022227244 -0.13377175
-0.0013180902 -0.029892461 -0.051170044 0.031483296 0.008215834 0.018386962 -0.041225534 -0.08647371
0.017543096 -0.058311168 -0.027883701 -0.03171537 0.010261882 -0.037480418 -0.06615621 0.063143246
0.02775365 -0.12867181 -0.12289026 -0.011196495 0.00030930445 -0.028806776 -0.11480336 0.03802349
-0.11210806 -0.026159948 -0.11071148 -0.10727578 0.01956147 -0.024905998 -0.06822903 -0.08631766
-0.0904002 0.077626646 -0.01287135 0.0669333 -0.036694784 -0.042006392 0.054657962 -0.026952233
-0.07035362 0.009618822 0.0048154118 0.017479556 -0.03208236 -0.064870104 -0.13450298 -0.064003274
-0.027739486 -0.08804099 0.008410033 -0.11677097 -0.018484268 0.01693762 0.012609579 -0.05505022
-0.13884664 0.004898754 -0.07155481 0.046441518 -0.07678027 0.018930238 -0.079575405 0.023419427
0.03125448 -0.0396099 0.014121577 -0.017389048 0.008383184 0.07437632 -0.030010315 0.034164898
0.0042593484 0.013609254 -0.024091512 -0.07076675 0.029666986 0.10521202 -0.1415408 0.008810472
0.035542097 -0.08829281 0.079018384 -0.06637316 0.047910754 -0.0120406095 0.033328895 0.074978665
-0.0752155 -0.07946793 -0.029435767 0.028014306 0.0019856119 -0.1180394 0.082290456 -0.044124432
0.083332196 0.07203639 0.0816531 0.029517045 0.044590417 0.07010856 -0.08847694 0.031289455
-0.039223973 -0.0572223 -0.039868042 0.035066444 -0.11845341 -0.091161676 0.018552698 -0.11329436
00000000: b710 c5bd 6bef d9bd 6d0b 41bd a065 d83b
00000010: a9eb e1bd ac00 16be 549d 85bd 368a f2bc
00000020: 4697 7cbd e2da c9bd 74e2 5fbd 8177 ea3c
00000030: 3957 9fbd 0089 d4bd fd69 e0bd fe1b f8bd
00000040: c34b efbd a215 df3c 8669 763d 8e22 9e3d
00000050: c325 bb3b 13c5 a8bd d35c 07be eccb 8cbd
00000060: 3031 15bd a5cf 23bd 5088 843d 5504 043e
00000070: d218 a9bc b8a4 87bd 81a9 0dbe f17a 2abd
00000080: 069d 50bd 1ba2 97bc e1d2 ccbd aae0 82bc
00000090: c633 81bd 2021 c6bd e8cf 63bd 154c e43a
000000a0: 0bac 353c c63a 7bbd ad55 10be 6cfd 8ebd
000000b0: 0a2a c8bd 0137 d7bd 1adc b23c c2b9 fb3b
000000c0: 13f6 1bbb 52df 7dbd fa6e 013c edb2 27bb
000000d0: 7021 cb3c 77af f73a b42a ebbc 7aad d0bd
000000e0: e79b e5bc bc03 61bc e285 f2bd 1912 a0bd
000000f0: c161 aa3c b4db 10be 2ad2 5bbd ab67 b2bd
00000100: 2cbf 37bd c0f8 04be e607 0bbd 5aea 90bd
00000110: 18c5 92bc fc1b 89bc ed77 a1bd ec11 acbd
00000120: c8c6 3abd 0747 f6ba 29cc 64bd 2d17 683c
00000130: e687 0abe f20c 48bc 0b4f cd3a 2be1 4abc
00000140: a453 58bd bdf8 843d 7e36 15be 341b a5ba
00000150: 8484 b6bd baba 01bd ce04 0dbe 4dc5 24bd
00000160: abe5 fcbd fa2e 15be b6d5 91bc 78d4 d2bd
00000170: 8758 66bd ae26 08be 0c8a bb3b 21eb 493d
00000180: 30ae a0bd 771c babc 07f4 533d 880b 61bd
00000190: afca 08be 9a17 f8bd 48fe e5bd 2d42 523c
000001a0: 5472 0cbe 7316 83bc f195 1a3c 9064 5e3c
000001b0: c168 45bd 0733 07bd 9992 b03c ea8c 07be
000001c0: 92d4 103d e44e a23d 93f5 6e3b afa0 91bd
000001d0: daaf 7a3d 5598 9d3d 6ad1 fe37 7fa1 05be
000001e0: 1e18 2cbe 9311 fbbc 955e feba 2abc 95bd
000001f0: 0325 1dbe 5b49 a6bd 896f 963c 77b0 ecbd
00000200: f680 ce3c 8290 6e3d 1663 1fbd a6b3 cb3c
00000210: 02c5 23bd fc6a cc3b d4a7 f0bd e157 db3c
00000220: c47b c0bd a4cf 61bd c362 01bc ce8f a5bd
00000230: 70c4 b5bd 7416 1bbd e915 b6bc 76fb 08be
00000240: c5c3 acba 09e1 f4bc ae97 51bd a1f4 003d
00000250: b59b 063c 41a0 963c 1bdc 28bd 2119 b1bd
00000260: 8ab6 8f3c b1d7 6ebd 5c6c e4bc fae7 01bd
00000270: 7421 283c 1185 19bd e87c 87bd 3f51 813d
00000280: 9f5b e33c 8bc2 03be e3ad fbbd 8171 37bc
00000290: 242a a239 30fc ebbc 061e ebbd 85be 1b3d
000002a0: e998 e5bd 634d d6bc b3bc e2bd 67b3 dbbd
000002b0: 603f a03c aa07 ccbc a9bb 8bbd 50c7 b0bd
000002c0: bd23 b9bd b8fa 9e3d 5be2 52bc 5314 893d
000002d0: 454d 16bd e50e 2cbd 07e1 5f3d eeca dcbc
000002e0: 8f15 90bd 4398 1d3c 9aca 9d3b 4931 8f3c
000002f0: cb68 03bd 9eda 84bd 26bb 09be 2614 83bd
00000300: eb3d e3bc d64e b4bd 3cca 093c 9e25 efbd
00000310: 526c 97bc c3c0 8a3c 6898 4e3c 577c 61bd
00000320: d02d 0ebe ba85 a03b 548b 92bd 7639 3e3d
00000330: f93e 9dbd 9613 9b3c 6ef8 a2bd 19da bf3c
00000340: b304 003d fe3d 22bd 305e 673c 7a73 8ebc
00000350: 9f59 093c 9d52 983d 31d8 f5bc 7ef0 0b3d
00000360: 0192 8b3b 59f9 5e3c 905b c5bc 28ee 90bd
00000370: 2e08 f33c 6679 d73d 12f0 10be cc59 103c
00000380: 9794 113d dcd2 b4bd 64d4 a13d a7ee 87bd
00000390: 113e 443d fa45 45bc e183 083d 6a8e 993d
000003a0: 960a 9abd 15c0 a2bd 4723 f1bc 427e e53c
000003b0: 0a21 023b a4be f1bd e687 a83d d2bb 34bd
000003c0: 12aa aa3d d187 933d be39 a73d bbcd f13c
000003d0: 71a4 363d 1495 8f3d 6633 b5bd 5f29 003d
000003e0: 51a9 20bd ee61 6abd ac4c 23bd d5a1 0f3d
000003f0: b497 f2bd f9b2 babd d4fb 973c e006 e8bd
