model/MAT_AutoEnc_Eig3.pth (torch, 965973 bytes, 36 tensors)

encoder.0.weight f4 [256, 24]
00000000: 6423 41be 8b62 1abe 7705 3a3e a49a 13be
00000010: e2a0 4fbe 1a65 1fbe 8cae 133d 9640 243e
00000020: d886 48be 411a 40bd aee4 e1bc 25e6 2fbe
00000030: 9d05 1f3e 5de8 07be fff7 dbbd 83f1 813d
00000040: e978 0b3e f59d b53d f840 99bc fc0c 5c3d
00000050: ff6e e83d 1e1d 50bd 505d dfbd 0623 de3d
00000060: 2d6b c1be a778 bebd 33d0 27be ff16 9ebe
00000070: cfe7 aebe a487 53be e102 20be f50e b5be
00000080: f616 27bd a0fa d8be 9635 b1be 9a34 70be
00000090: 6dad 99be 6f99 cfbe e8a2 dbbd c265 94be
000000a0: 7f71 b5be 921b 86bd a525 b6be 8f49 b1be
000000b0: eb9f f9bd 7c3b 35bd 7546 bbbd 3199 91be
000000c0: 3c52 733c 4dc9 3dbe c18a 533d 74bb 043e
000000d0: 6e81 ef3d ed3a 01be 2776 33bc f289 6f3b
000000e0: 0690 1cbe 37d5 16be c084 3fbe 105b 123e
000000f0: aa67 a2bd 4904 333e a10d 013e 898e 813d
00000100: 81b7 3fbd 7ab0 6c3d 2b8d 1d3e b6a6 8dbe
00000110: dcb3 88be 37c5 f03d 5a1d 943d 1978 883d
00000120: 6a6e 313e 931a 29bd 5d77 3c3e 8701 d83d
00000130: 0132 4f3e 02af 273e 89d0 efbc 75f9 b0bc
00000140: 0d0e 13be 1389 2a3e 165b 1cbd e416 2c3e
00000150: 98c0 483d 32d5 723d 6958 8ebd 2ecb 093d
00000160: 2604 133e 062d 683d 33f2 003e 695d 2e3d
00000170: 5b70 f2bb 46b9 fe3d a568 95bd c23b cdbd
00000180: b969 86be e43b 98bd 3a93 60bd 4e00 21be
00000190: 910b 0dbd 324b 68be dc7e dabd 675f 053e
000001a0: 992f 033e 83f7 b3be 9116 403c 4339 b13d
000001b0: bc20 b7bd 3a0b dfbc 4d77 be3d e84c 50be
000001c0: 30c7 b13d 31fc 963d cacd a9bc b19a c2bd
000001d0: 8946 80bd 390d cbbd a899 43be 6418 65bc
000001e0: 7e69 a0bd 92a7 b5be 04a0 63be 4ad2 e8be
000001f0: 4ad7 c9be edb1 a7be 432b c4bd dad2 23be
00000200: 23aa aebe b314 c0be 1803 bdbe a67e 2dbe
00000210: bb07 93be e032 57be 8ade 10be 7bc6 cdbe
00000220: f2b3 d7be 19de 87be 211d 74be 9069 c6be
00000230: b176 83be 66b7 d6be b45b 26be 4549 a6be
00000240: 4d00 5e3d 1067 023d 5f18 1fbe bc6d 77bc
00000250: e25d 7b3d a790 d0bd 91fc 30bb 25a2 34be
00000260: 667d 873d 18a5 f6be 35f2 06be d6ae 69be
00000270: 567d 333e 85a4 d13d ae1e 443d acf1 41be
00000280: d317 0fbe 0ecf 113e 6240 42be cfe3 1e3c
00000290: 5874 cc3d 6739 89be 2e76 82be 7a4e c8bd
000002a0: bbca 92be da6e ec3d 14f1 74be 65e0 b9bd
000002b0: 6200 fcbd 7872 9c3d f697 a23d 9915 32bd
000002c0: c884 b8bd dc60 a4bd 6694 d5bd e039 74bd
000002d0: faa8 29bd 3017 6ebc 7814 b2ba 14ea 90be
000002e0: 51aa db3d e1c4 a13d bd87 b3bb 3aed cf3b
000002f0: a0ac 4ebd 27df 8cbe 6cc0 753c be97 0a3d
00000300: fac7 5dbe 5026 82bd 45e2 943d c0fd 75be
00000310: 2afd 413e 9edd b13d d180 043e 0fcf 5cbd
00000320: f8b9 fbbd e6a9 21be 8885 343c dd00 f4bd
00000330: 5964 c1bc cf6b 06be 2f77 923d d571 35bd
00000340: bbca 87bd 5d1a 1c3e daed 87bb 610a 90be
00000350: 393c 573c 27a3 1abd 316e 26be a1d8 5abe
00000360: 5b7e d7bd 6b81 763d b366 81bd 4a51 21be
00000370: 2c8f e5bd 47db b63d ba5e 01be b740 fbbd
00000380: 8e83 383d 5916 a4bd 6f24 98be 1d43 7d3d
00000390: 21d1 913d 54ab fbbd ded0 49bd 5f02 d6bd
000003a0: 8291 8fbe 3257 d1bd d1d6 45bd aad0 9cbb
000003b0: 3301 13bd 9741 823d 23ac d73d 329b 17be
000003c0: 83fc d63d 16b9 81bd c19d 883d 469f 35be
000003d0: 7425 66be 5c16 de3d 16a7 8e3c d573 0c3e
000003e0: 63aa a83d 4345 47bb 7c8e c6bc 5ebd 46bd
000003f0: 82a6 903d 8f51 2e3d ef6d ebba 8259 0fbe
-0.18861157 -0.15076654 0.18166147 -0.1441446 -0.20276216 -0.15565911 0.036055133 0.16040263
-0.19582689 -0.046900038 -0.027574863 -0.17177637 0.15529485 -0.13272233 -0.10740661 0.06344893
0.13620342 0.088680185 -0.018707737 0.05372332 0.11349296 -0.05080902 -0.1090647 0.10846524
-0.3777708 -0.09300356 -0.16388015 -0.3087692 -0.3416123 -0.20657212 -0.15626098 -0.35362974
-0.04079338 -0.42378712 -0.34611195 -0.23457566 -0.30015126 -0.40546748 -0.10724431 -0.28983885
-0.35438153 -0.06548227 -0.35575595 -0.34626433 -0.12188705 -0.04424618 -0.09144298 -0.28437188
0.014851149 -0.18533821 0.051645998 0.12962133 0.11694609 -0.12620135 -0.010953463 0.0036550728
-0.15289316 -0.14729773 -0.18702984 0.1429255 -0.079299286 0.17482103 0.12602855 0.063260145
-0.046805862 0.05778549 0.15385883 -0.27666253 -0.26699722 0.11756366 0.07232161 0.06663532
0.17327276 -0.04128511 0.18404908 0.10547166 0.20233919 0.16375354 -0.029274242 -0.021603325
-0.14360829 0.16653852 -0.038172804 0.16805607 0.049011797 0.05928535 -0.06950457 0.033641033
0.14357051 0.056683563 0.12592392 0.04256955 -0.0073986477 0.12437682 -0.0729535 -0.100211635
-0.26252535 -0.07433298 -0.054827906 -0.15722772 -0.03443486 -0.22684935 -0.10668728 0.13024674
0.12811126 -0.35149774 0.01172413 0.086535 -0.089417905 -0.027227033 0.093000986 -0.20341837
0.0868057 0.073723204 -0.02072801 -0.09502161 -0.062634535 -0.099146314 -0.19101584 -0.013982866
-0.07832621 -0.35479409 -0.2222901 -0.45472938 -0.39422065 -0.32752934 -0.09578564 -0.15998402
-0.3411418 -0.37515792 -0.36916423 -0.16942844 -0.28716835 -0.21015501 -0.14147392 -0.4019049
-0.42129475 -0.26536635 -0.23839237 -0.38752413 -0.25676492 -0.41936797 -0.1624592 -0.32477775
0.054199506 0.03183657 -0.1553664 -0.015101846 0.06136883 -0.1018384 -0.002700601 -0.17639978
0.06615715 -0.48172832 -0.13178332 -0.22820601 0.1752828 0.10236458 0.04788082 -0.18939847
-0.13973932 0.14239141 -0.18969873 0.0096978685 0.09983128 -0.26801607 -0.2548079 -0.09780593
-0.28670296 0.11544581 -0.23920089 -0.09076003 -0.123047605 0.07639021 0.079391405 -0.04347763
-0.09009701 -0.08026287 -0.104286954 -0.059625506 -0.041420914 -0.0145318955 -0.0013586422 -0.28303587
0.10725845 0.0789888 -0.0054788277 0.0063454183 -0.050457597 -0.27514002 0.01499949 0.03383612
-0.21658316 -0.06354964 0.0726972 -0.24022579 0.1894423 0.08684848 0.12939765 -0.053908404
-0.1229133 -0.15787467 0.011018164 -0.11914227 -0.02360742 -0.13127063 0.07151639 -0.04429801
-0.06630465 0.15244432 -0.004148227 -0.28132918 0.013136917 -0.03775325 -0.16252972 -0.213717
-0.10522147 0.060182016 -0.063184164 -0.15753666 -0.112089485 0.089285426 -0.12633792 -0.12268203
0.045047335 -0.08012075 -0.29715297 0.061831582 0.07119966 -0.122885376 -0.049271457 -0.10449671
-0.280407 -0.10221709 -0.048300568 -0.004785617 -0.035889816 0.063601665 0.10530879 -0.14805296
0.104973815 -0.063341305 0.06670714 -0.17736539 -0.22475225 0.108441085 0.017413657 0.13716061
0.08235624 -0.0030406273 -0.024237864 -0.04852044 0.07063009 0.04255825 -0.001796184 -0.13998988

encoder.0.bias f4 [256]
00000000: e981 50be 78d5 92be 70c7 e9bd ab85 33be
00000010: d399 b33d 6b2a a8be 8764 efbd e535 fdbd
00000020: aef6 1abe 4155 f2bd 8f2e c7bd 3eeb 3d3e
00000030: f124 c23d 31d3 253d 433a 3c3d b593 013c
00000040: ed68 b6bd 470a b43c 5a39 a0bd 0e15 383d
00000050: c2bc c93d 1024 aa3c 6390 66bd 35d1 353b
00000060: f923 0bbe b78b 923c fe7e 18be 518a 213e
00000070: ea3b 7ebd e0fc b63d 021e 463e 0a82 b7bd
00000080: 841e bbbd 174a d5be 0293 e8bd 3c73 073e
00000090: b3bc ed3d 3312 abbd 3fbc 27bd 1a3c f73d
000000a0: 33f9 8ebd 7f45 7abe 888b 96be 3510 0e3e
000000b0: 1d01 71be 6f13 3fbd 0cb7 1e3e 130f 713d
000000c0: bd14 3bbe cd56 4f3e 3913 ca3d 70b4 233e
000000d0: 81a3 a43c 2bff 1fbc 5828 a6be f83e 6cbe
000000e0: 3c52 413e 854d e3bc a4f1 99bd 1e8a 233e
000000f0: 6c8d 24be 1408 b2bd 1f5f 243e 3906 4e3e
00000100: edc8 4e3e 3077 49be 8047 373c 681b 78be
00000110: 12da fcbd 957c 983d 0fb0 123e ad77 59bd
00000120: d84d 213e 2071 09bc 2c76 47be f53f df3c
00000130: 77f6 7dbe a744 553d 1b26 12be 02a9 93bd
00000140: ed33 373d 0a04 26be 72c6 423e bfcf 003d
00000150: 729d c7bd 40f9 3abd 324c 44bc 5367 f43d
00000160: 9a9b 433e f6fa bf3d 4fb4 ebbd 1b13 1d3e
00000170: 3690 a73b d4f9 95be b4e9 58bd b431 fb3d
00000180: c99e d63d 2c01 12bc e20f 8d3d b6ff 95be
00000190: 5413 90bb 494b 813d 4dac 32be c8cd 0c3b
000001a0: 5bb3 39be 54f8 a6be 49ea 8dbe e31b 353d
000001b0: 6b98 1a3d 29da 483e b5fe 4b3d fefd e63d
000001c0: 5ff0 a2be 210f ccbe 13f9 38be c23b 2fbe
000001d0: bd66 58be f16b 8dbe 922c 14bd ded9 11be
000001e0: 7803 f3bd 01d2 e1bd ff58 bc3d 2bf0 edbd
000001f0: ff83 2c3c ad0e d9ba b367 1fbe 7a08 d2bd
00000200: dda8 5ebd a851 c13d cf36 92bc 2b6b d1bd
00000210: 1f67 7bbd a7f6 e1be 7aa1 32bd 35c3 17be
00000220: 2cc3 83be dde2 40be 3ccc 213d f320 d8bd
00000230: 4ccf 46bd f7c4 0e3e 5e0a 1a3e 5038 3bbe
00000240: ca79 f9bd f6ea 6cbe 1c53 ccbd 3b62 69be
00000250: e67c 49be 6aec 37be 2266 593d f73a 153c
00000260: 8ffb db3d 49bc bbbc 1a83 a5bd c62d ed3d
00000270: 57a0 a4bd 9cd7 3f3d 5445 31be 2872 c3be
00000280: 7432 2a3e 9051 8fbe 7394 c73c ba13 a0bc
00000290: 028c 80be 95c9 813d d818 9abd 71dc 17be
000002a0: 658f 53be 4e66 683d 874e f1bd 63b6 0fbe
000002b0: cf05 8bbe d50e 6abd b518 12be 11bc be3d
000002c0: 5d76 3cbe ab92 8ebd 3185 373d 8849 aa3d
000002d0: 6b96 47bc 6b42 00bd 7f70 1abe e055 a7be
000002e0: cad4 01be 9ff3 24be 75c3 bd3c 57a4 2f3e
000002f0: 66bc ebbd 1caa 313d 14f5 75be 796c 273e
00000300: 247d e43d f7aa 7fbd b201 303d 2134 40bb
00000310: d6ec 9d3b 5c9c 7fbd e148 203e 77b3 1bbe
00000320: 9521 8abd 62c3 1c3e de71 1ebd c8c8 76be
00000330: acfa 62bd e93a 6f3d 7796 18be 14fc 2cbe
00000340: 37d1 00be f936 c5bd fc60 ffbd 83b9 4ebd
00000350: 026b 55be b052 f13d e9cc 5d3d 5503 9fbd
00000360: 8a0d 54be 5eb8 f93c bb2d aebd 53f3 21bd
00000370: be59 f7bd 9c9d fbbc c5ea aabd 81f2 11bd
00000380: 821d cdbd 5726 68bd 6c65 1bbe a66a 80be
00000390: 28d5 37be 4104 2dbe ee7b edbd a14b 0e3e
000003a0: ec4f 3f3e fef7 c7bd 7d99 34be 94c9 cbb6
000003b0: 385e 4fbe ca63 a5bd 5bfe c2bd 6428 f23d
000003c0: dad7 cc3d a69c 0fbd 88ec 9abd acac ea3d
000003d0: d27c 07be dcf0 143c dcc4 a1be bedc 31be
000003e0: b8bc d2bd 02ab ec3d b6bf 1ebe 2be5 a9bd
000003f0: 8aa2 2bbb a51e 2f3e c7cd 783c f9ab 173d
-0.20362057 -0.2867849 -0.11414993 -0.17531459 0.08769574 -0.32844862 -0.11689096 -0.12363795
-0.15133163 -0.11832667 -0.09725677 0.18546769 0.09479702 0.04048461 0.045954 0.007908751
-0.08906732 0.021977557 -0.07823439 0.044941954 0.09850456 0.020769149 -0.05629004 0.0027743105
-0.13587941 0.017888887 -0.14892194 0.1577542 -0.062068857 0.08934951 0.19347385 -0.0896035
-0.0913668 -0.4165809 -0.113561645 0.13227552 0.11608257 -0.083530806 -0.04095101 0.1207201
-0.06981125 -0.24440573 -0.2940333 0.1387337 -0.23535581 -0.046649393 0.15499514 0.058852267
-0.1826963 0.20247956 0.09866948 0.159868 0.020097496 -0.009765427 -0.32452655 -0.23070896
0.18879026 -0.027746925 -0.075167924 0.15970656 -0.16069573 -0.08692947 0.16051911 0.20119561
0.20193835 -0.19674373 0.0111864805 -0.24229205 -0.12346281 0.07445637 0.14324974 -0.053092647
0.15752351 -0.0083887875 -0.19478673 0.027252177 -0.2480105 0.052067425 -0.14272349 -0.0720997
0.044727255 -0.16212478 0.19021013 0.031448122 -0.09746827 -0.04564786 -0.011981057 0.1193377
0.19102326 0.09374039 -0.115090005 0.1533932 0.005113627 -0.29292166 -0.05295725 0.122653395
0.104795046 -0.008911412 0.06887795 -0.29296654 -0.0043968353 0.06313188 -0.1744854 0.002148496
-0.18134825 -0.32611334 -0.27717808 0.044216048 0.037743013 0.19614471 0.049803454 0.11278914
-0.31824014 -0.39855292 -0.18063764 -0.1711264 -0.21132942 -0.27621415 -0.036175318 -0.14243266
-0.11865896 -0.11026383 0.09196662 -0.11618074 0.010529517 -0.001656016 -0.15566902 -0.10255523
-0.05436026 0.09439403 -0.0178484 -0.10225519 -0.06137764 -0.44133493 -0.043611027 -0.1482056
-0.25734842 -0.18836541 0.039501414 -0.105531596 -0.048537537 0.13942324 0.15043017 -0.182832
-0.121814325 -0.23136505 -0.09976789 -0.22791378 -0.19676551 -0.17961279 0.053075917 0.009108297
0.1074134 -0.02291693 -0.08081646 0.11580996 -0.08038395 0.04683648 -0.17311603 -0.38173032
0.16620809 -0.27991915 0.024362778 -0.019540656 -0.25106817 0.06337277 -0.0752427 -0.14830185
-0.2066017 0.05673819 -0.11782556 -0.14034419 -0.2715287 -0.05714305 -0.14267237 0.093132146
-0.18404527 -0.069615684 0.044804756 0.08314806 -0.0121818585 -0.03131334 -0.15081976 -0.32682705
-0.12678829 -0.16108559 0.02316449 0.17152534 -0.115105435 0.04337512 -0.24019271 0.16349973
0.11156681 -0.062418904 0.042970367 -0.0029327946 0.004819493 -0.062404975 0.15652801 -0.15205179
-0.067446865 0.15308908 -0.03868281 -0.2410003 -0.05541484 0.05840579 -0.14901148 -0.16893035
-0.12579809 -0.09629626 -0.1246967 -0.050469887 -0.20841601 0.117833495 0.054150496 -0.077643074
-0.2070829 0.030483421 -0.08504816 -0.039538693 -0.12077664 -0.030714802 -0.0834556 -0.03563166
-0.10015394 -0.05667719 -0.15175408 -0.25081366 -0.17952406 -0.16896154 -0.11595903 0.13896038
0.18682832 -0.09764098 -0.17636676 -6.073338e-06 -0.20250785 -0.08075674 -0.09521171 0.1182411
0.10002108 -0.0350615 -0.07564646 0.11458716 -0.13231209 0.0090906285 -0.31595504 -0.17369363
-0.102899015 0.11556055 -0.1550282 -0.082956634 -0.002618941 0.17101534 0.01518578 0.03702924

encoder.2.weight f4 [128, 256]
00000000: 642a b53c 88f6 17bc 18b4 15bd 5c15 6ebd
00000010: 760d 6dbd 2070 e6bc 743d 743d 0ca0 b23c
00000020: 8ce0 5c3d f0e8 a63c d867 15bc b03f c8bb
00000030: 8a1f 273d ead0 53bd f291 313d 5e50 56bd
00000040: 1868 b23c 1014 8f3c e4b6 2bbd 9c86 a33c
00000050: 70c7 c8bc b8d6 0c3c 9642 72bd 7084 dc3b
00000060: a0f5 31bc 828c 54bd 70ce c03c ec40 f83c
00000070: b8c1 5f3c 804b 743d e03e 953b 10fb d63c
00000080: 1044 0c3d 0850 32bd 9491 15bd 50aa 1dbd
00000090: ac0b dd3c bc82 da3c e011 f6bc 0078 db3c
000000a0: dc9b 54bd 8847 27bc 5806 773c 1431 eb3c
000000b0: bcff 1bbd 8a14 30bd 82e4 75bd d02c 663c
000000c0: b09b 6fbd eac4 1e3d e05a 363b 6059 bcbb
000000d0: f026 99bc f66a 7bbd e001 b53c 30fd 66bc
000000e0: d864 513d e41b 413d 5e88 573d 5023 923b
000000f0: c849 443d 2c68 6e3d d019 ddbc eaef 6ebd
00000100: 3ae2 5cbd 1020 d1bb 2840 b7bc 5e9d 52bd
00000110: 185b 74bd b009 63bc a033 18bd 805a 403c
00000120: bef2 44bd 8034 04bd b855 67bc 708a dfbb
00000130: 1652 14bd 0049 63bb 5052 923b d0e8 0cbc
00000140: ce37 49bd b684 703d 826c 5abd 587f ed3c
00000150: f6c2 77bd ec2d 5b3d 2412 48bd 3c93 fcbc
00000160: 3a1a 0fbd 8e32 3c3d ae90 56bd 480f bdbc
00000170: 0cdd 79bd f811 d83c 22c5 6bbd fc9e 0d3d
00000180: 5ae4 53bd 7cd6 93bc 9251 00bd 7091 04bd
00000190: e09e 3c3b 602c 823b 7ed4 7f3d c88c 8e3c
000001a0: f080 e83c 6ec1 143d 1cc7 ef3c 8c78 cbbc
000001b0: a0c2 fa3b 20ac d53b f0dc 503c 60f1 4a3c
000001c0: 128d 7b3d e650 553d 305f 24bc 6019 f63b
000001d0: 8c4e 64bd 40cc 083d 1425 f53c 8024 f4bb
000001e0: fe91 4cbd d048 223d 0818 63bd 3484 d63c
000001f0: 2e6d 03bd f0d1 37bc 784e 763c c0e0 483d
00000200: 6ae5 13bd a012 7fbb 1076 2fbd 60ee 433b
00000210: e009 593c 0837 a8bc e8e6 e9bc 8a59 24bd
00000220: c0a7 803c 886e 803c 802f 6e3c 88cc 64bc
00000230: 780a eebc 1057 a9bb 7678 31bd c07d 26bb
00000240: 7e93 59bd e099 68bd c08d fd3a 5081 493c
00000250: 8e4d 6b3d 70d4 01bd da8b 5abd d8f1 303c
00000260: b273 2abd 2cae a7bc 1853 4dbd 8045 cc3a
00000270: b00a 2f3d 3e43 76bd 70fc c03b c641 6b3d
00000280: 2ec0 2bbd b04e b03b 80e4 a43b c081 f4bb
00000290: 9c20 5bbd 9612 5b3d 30f3 f13c 1817 493c
000002a0: faac 1cbd c0c0 d2ba 5cb6 76bd 905b 4a3d
000002b0: c45f c93c ec85 b03c 60fd 0e3b c830 1e3d
000002c0: 7aad 0ebd 6074 07bd 3e85 7f3d 9804 ff3c
000002d0: a05a 4b3c 10f7 a63c c221 02bd 727a 753d
000002e0: 8c34 c5bc bc5b 18bd 4c13 44bd a068 693d
000002f0: 18e1 e5bc c463 04bd b0eb e53b 007f e33c
00000300: 601c 843b 3002 f3bb 4019 a7bb 28a7 173d
00000310: da25 3ebd 6ac6 7abd 0413 be3c d07f 5e3d
00000320: f8c5 213d c460 b13c a44a 27bd 3e20 713d
00000330: a08e e3bb 1a44 683d b605 5cbd c0a1 7d3d
00000340: bc89 63bd b842 813c 303c 403d c06a 61bb
00000350: 4c44 df3c d000 b33b c896 4fbc d8f3 38bc
00000360: 300f 0ebc 700e f8bb 5069 99bb 90e3 fabb
00000370: 38c9 f3bc a870 b43c 8617 38bd a8e5 09bc
00000380: 3ae9 68bd 264b 5ebd 9a11 5abd d0d9 e93c
00000390: 1c27 96bc 0070 19b9 8ab9 273d 00db 5bba
000003a0: 9c77 4c3d 3026 d23c ac00 113d 30e8 0dbc
000003b0: 74e5 9c3c 22ca 4cbd 9616 21bd 94b3 093d
000003c0: 0e7d 703d 3299 373d b84d 68bc d499 72bd
000003d0: 90e6 c2bb 94e3 f0bc 58c7 253c 74bb 713d
000003e0: c044 4ebd 6e0f 0dbd dc33 7bbd bacc 243d
000003f0: 9498 e3bc fc72 e0bc 4203 283d 8c43 783d
0.02211494 -0.009275086 -0.036548704 -0.05812584 -0.057874165 -0.028129637 0.05962892 0.021804832
0.053925082 0.020374745 -0.009118997 -0.0061111078 0.040801562 -0.051712908 0.043352075 -0.052322738
0.021778151 0.017465621 -0.041922465 0.019961648 -0.024509162 0.008596115 -0.059145533 0.006729655
-0.010861784 -0.05189181 0.023535937 0.030304395 0.013657026 0.059642315 0.0045546144 0.026242763
0.034244597 -0.043533355 -0.036515787 -0.0384925 0.026983105 0.026673667 -0.03003782 0.026790619
-0.05190645 -0.0102099255 0.015077196 0.028709926 -0.038085684 -0.042988338 -0.060032375 0.01404877
-0.058498085 0.03876201 0.0027825162 -0.005747959 -0.018695325 -0.061381303 0.02209562 -0.014098451
0.051121563 0.04714574 0.052620284 0.004459776 0.047921926 0.058204815 -0.026989847 -0.05833427
-0.053926684 -0.006381996 -0.02236946 -0.05141961 -0.059657186 -0.01385729 -0.03715861 0.011740327
-0.04808306 -0.03227663 -0.014119558 -0.006821923 -0.036211096 -0.0034680963 0.004465379 -0.008600429
-0.049125485 0.058720313 -0.053326137 0.028991386 -0.060488664 0.05351059 -0.048845425 -0.030831926
-0.03493712 0.04594665 -0.05238407 -0.023078576 -0.061001822 0.026375756 -0.057561047 0.034575447
-0.051731445 -0.01804661 -0.03132779 -0.032365263 0.002878122 0.003972575 0.062458508 0.017401114
0.028381795 0.03631728 0.029269747 -0.024837755 0.0076525956 0.006520763 0.012747988 0.01238665
0.061413832 0.052079104 -0.01003246 0.007510349 -0.05573897 0.033397913 0.029924907 -0.00745064
-0.049943916 0.03962022 -0.05544284 0.026186086 -0.032086544 -0.011219487 0.015033357 0.049042463
-0.03610746 -0.0038921013 -0.042837203 0.0029896721 0.013246983 -0.020534053 -0.028552487 -0.040124454
0.01570499 0.015677705 0.014537692 -0.01396478 -0.029057726 -0.0051678494 -0.04332777 -0.0025404543
-0.053119175 -0.05678737 0.0019344613 0.012298897 0.05744701 -0.031696737 -0.05335603 0.010799848
-0.041614242 -0.020468794 -0.050128073 0.0015584677 0.0427348 -0.06012272 0.005889468 0.057435773
-0.041931324 0.005380474 0.005032122 -0.0074617565 -0.053497896 0.05348452 0.029534906 0.012273572
-0.0382509 -0.0016079172 -0.060232505 0.049403727 0.024581797 0.021548234 0.0021818504 0.03862074
-0.03483341 -0.03306997 0.06238293 0.03113012 0.012411743 0.02038148 -0.031770475 0.059931226
-0.024072908 -0.03719686 -0.047869965 0.056984544 -0.028061435 -0.032321706 0.0070166215 0.02777052
0.004031703 -0.0074160323 -0.0050994456 0.037024647 -0.046422817 -0.06122438 0.023202427 0.05432111
0.03949544 0.021652587 -0.040842667 0.05886864 -0.0069444925 0.05670557 -0.053716384 0.061921835
-0.055551276 0.015778884 0.0469324 -0.0034395903 0.027254246 0.0054627433 -0.012670226 -0.011288606
-0.008670613 -0.0075700805 -0.0046817437 -0.007656522 -0.029759035 0.022026375 -0.04494431 -0.008416571
-0.056863047 -0.054270886 -0.053239442 0.028546244 -0.018329196 -0.0001463294 0.04094843 -0.00083868206
0.049918756 0.025652975 0.03540103 -0.008661315 0.01915238 -0.049997456 -0.03932818 0.033618525
0.05871301 0.044823833 -0.014178686 -0.059228733 -0.0059478953 -0.029405393 0.010118328 0.05901666
-0.050358534 -0.034438543 -0.061328754 0.040234305 -0.027782716 -0.027398579 0.041018732 0.060611293

encoder.2.bias f4 [128]
00000000: 00df 903c 70b0 d8bc 6c96 b53a 8a5c 9abd
00000010: 6e22 7fbd 4a21 67be 00dd 8eb9 08c8 ecbc
00000020: d7a1 eabc 9081 0bbc 17cc 7fbd dc04 9bbd
00000030: 7d1a e7bd dd06 a23d 40f0 fa3c 3ae0 1c3d
00000040: aca0 c3bd 80ab 3e3e fcb0 ff3c c6f5 6a3d
00000050: fb02 14bd 6039 a7bc 6ea0 2ebd c108 263e
00000060: 540d 8bbc 7290 57be f860 89bc 6895 3b3d
00000070: db45 36be 65bd e5bc 8829 f43c af35 68bd
00000080: c5e3 1ebd d2a0 043d a874 563e 89e8 01bd
00000090: c300 b23d 90b8 9bbd c494 aa3a aa25 983d
000000a0: 2d7d 3bbe 109f c13b 8c39 b73c f85f 3e3d
000000b0: 2183 84bd 3053 6f3d edd6 3e3e 2d3b c8bd
000000c0: a509 0fbd 8eff 193b 6768 f5bd 786f 1f3d
000000d0: 1030 323c cc5a eabc 7ac0 aa3d c05b 59bd
000000e0: 5549 95bd e40f 7dbd d836 e1bd 8a33 babd
000000f0: 605a 0b3b 1676 54bb 1026 4cbd 0071 073c
00000100: 5933 063d 6eec 113e 70ad 99bb ee91 3bbe
00000110: b2c8 7bbd dc39 ce3c 4240 ebbd 70cf 3bbd
00000120: 2459 c9bc 40a7 14bd 6adc c13d 9c98 7e3e
00000130: 7010 27bd b0eb 1abd 61d9 25bd ef7b 5fbd
00000140: 9892 7b3d c260 9ebc 1c56 4e3d 8a5b 57bd
00000150: 28b6 c23c fa47 3b3d 5334 2cbe 9062 433c
00000160: 222c 73bd 6400 0a3e 10c4 213c e8df 15be
00000170: cd26 8ebd d463 12bd 3091 febc b83d 31bc
00000180: aac6 093e 7e39 373d a0a1 2b3b 77a4 b6bc
00000190: 06a4 843e dae5 5cbc 12b4 c7bd fc6f 9abc
000001a0: 9c04 1d3e b618 7dbc 751f fabd 1491 a9bd
000001b0: 24aa cdbd 16ec 1f3d 637e 193c 5514 44bc
000001c0: 55fe 7abd dbf4 2ebd f0b5 663c f52c 3e3e
000001d0: 3c6b ddbc 77b2 f93c b4b0 3bbd 1279 313e
000001e0: 408f 043b cb19 f1bd 4146 8ebd 44f6 fd3c
000001f0: 3d67 b6bd cf50 bcbd def1 653d 88f1 9cbc
0.01768446 -0.02645132 0.0013854033 -0.07537182 -0.062288694 -0.22571293 -0.00027249008 -0.028903976
-0.028641624 -0.008514777 -0.062450495 -0.07569286 -0.11284349 0.07911465 0.030632138 0.038299777
-0.0955213 0.1862011 0.031212322 0.057363294 -0.036135655 -0.0204131 -0.042633466 0.16214277
-0.016974129 -0.21051195 -0.016769871 0.04579678 -0.17800085 -0.028044412 0.02980496 -0.05669182
-0.038791437 0.032379933 0.20942938 -0.031715903 0.086915515 -0.07603562 0.0013014306 0.07429059
-0.1830947 0.0059088543 0.022366308 0.04647824 -0.06470323 0.058428943 0.18636675 -0.09776912
-0.034921307 0.002349827 -0.11982804 0.038924664 0.010875717 -0.028607748 0.08337493 -0.053066015
-0.072893776 -0.061782733 -0.10996789 -0.090918615 0.0021263584 -0.0032419018 -0.049840987 0.008266687
0.032763813 0.14250347 -0.004689865 -0.18317387 -0.061470695 0.025174074 -0.114868656 -0.045852125
-0.024578638 -0.036292315 0.09465869 0.24862903 -0.04078716 -0.037822425 -0.04049051 -0.05456155
0.0614191 -0.019333247 0.05037509 -0.052577533 0.0237685 0.04572294 -0.16816835 0.011925355
-0.05936826 0.13476712 0.009873405 -0.14636195 -0.069409944 -0.035739735 -0.03107509 -0.010817938
0.1345469 0.044732563 0.0026188865 -0.02229522 0.2590639 -0.013482535 -0.097511426 -0.018852226
0.1533379 -0.015447786 -0.12213031 -0.082796246 -0.100422174 0.03904351 0.009368512 -0.011967738
-0.061277706 -0.04271398 0.014081463 0.18571837 -0.027028672 0.030480606 -0.045822814 0.17331341
0.0020226985 -0.11772498 -0.069469936 0.031001218 -0.0890641 -0.091951005 0.056138866 -0.01915814

encoder.4.weight f4 [3, 128]
00000000: d04b 293b ce16 a4bd 2d25 11bb f958 9f3c
00000010: 2af1 773d 4266 053e 564b 993d 1f1b 92bb
00000020: 3c15 b6bd b420 b43d d0e0 d8bc 861e a1bb
00000030: 9e9c 66bd 24af efb9 fe84 a23a ca8b 8bbc
00000040: 3649 adbc 8630 d13d 5c5b 6cbd 1dc6 aabb
00000050: 727c 863c 3635 ca3c 58ce 8fbc 7478 673d
00000060: 7288 983c 6737 f73d a169 4d3d 80fd 1dbd
00000070: 0fe2 5d3e 8977 4bbc 125b 923c d8d4 ba3c
00000080: fba1 4f3c 4f25 053d e2d4 b33d e752 23bc
00000090: d2a3 14bc 3b86 a43c 9e90 49bc 8209 ef3c
000000a0: 349a 133e d54c a03c e5ba 6ebd acb5 15bd
000000b0: 3131 9dbd f247 533d 4bba da3d 19ed 9d3c
000000c0: cb5f 2e3c a49c 9bbb 21da ffbc 2197 c53b
000000d0: a4a9 6bbd 8ea5 aa3d b244 a43c 78d1 c83c
000000e0: 8aa8 87bd 5b3e ed3c 333b b5bc 53f3 393d
000000f0: 9a90 9f3d 9398 b3bc 49da 5abd 36bf 623d
00000100: f796 55bc 75c7 423d 62ce 553d f75f 193e
00000110: 0350 84bd 6068 9cbd f15b 6fbd 97da 813d
00000120: a2c4 37bd f437 3d3c 491c 043d 1e1e 313e
00000130: 5ec4 a2bc e8b2 09bd 6c40 593b 74f3 883c
00000140: 2f00 5ebd 423d 82bc d52e a73c 6422 25bd
00000150: e50b 7dbd d093 e23c 3708 c93d 7749 153d
00000160: 6ab2 b5bc 3615 e63d b9dd 97bc ddb4 4abd
00000170: 8c40 a03c 3840 b83c 5d82 5fbd e026 343d
00000180: 4f2d 7b3d 0f9f a23d 2808 3dbd 6288 dbbb
00000190: ff63 113e 49e9 383d ff76 27bd 550e 58bd
000001a0: 4052 893d c2f7 d93b 2432 923b 3b80 30bc
000001b0: 02f5 fa3b 5f34 93bc 6728 c03b f58e 173c
000001c0: e378 603c d80b 043d e5a0 c5bc f051 cb3d
000001d0: 25a1 743d 46ec afbb 8a20 833d 385b 853d
000001e0: 0b15 a0bd 65eb 823d c63b 34bc c7c6 edbc
000001f0: f8bf 24bc b826 59bd 12fe 5b3d 771c 82bc
00000200: 5471 0c3d 853d 743d 3e02 97bd 9704 083e
00000210: ee56 353c 2fb8 513e 8227 18bd f080 a33d
00000220: ad90 e3bd 6c20 343d f022 b4bd 56ff ee3c
00000230: 572d 6dbd 803c a2bd c10d 49bc f681 32bc
00000240: 79d1 de3d f915 87bd 7928 04bd a143 4e3d
00000250: dcea 59bd 52c3 0ebd d1b6 16bd 1567 233c
00000260: 4946 6d3d c989 6b3e 0155 973d 91f1 4cbd
00000270: 6742 acbe 251d 55bc 5ea3 41bc 95da ad3d
00000280: c945 533b 878f 4b3d 696a a3bd ae8f d53c
00000290: 21b3 41bd 2335 8d3d 6123 913d f1e7 95bd
000002a0: d986 223e b2e0 a2bc d364 603b e770 89bc
000002b0: 5972 25bd 58fa f7bc a07a 99bc d293 5a3d
000002c0: 4c90 913d df41 7c3d 7f12 10be 96a7 59bd
000002d0: 4720 77bd 91b6 a93d 5046 a5bd 6602 02bd
000002e0: cfcd 9bbd 5bd1 ce3d badc edbd 737a 8e3c
000002f0: 2b6d 8a3d d300 47bc 0db4 85bd 85d9 5ebd
00000300: de76 8f3c 30dc d7bd c63d 72bd c1d4 c43d
00000310: 8926 9ebd 4f21 053c 0405 2e3c 20a5 643c
00000320: 6650 84bd d2df adbc d62f 1c3d 79b5 093e
00000330: 5f0f ab3d de9b 3dbc f42f 9fbc ccec 553c
00000340: f556 123d 35c7 9b3d bd08 183d 4e78 aabd
00000350: 8b69 90bd 1b7b 913d d547 893e ba19 b8bb
00000360: 322b e73d 2c5f dc3c f946 cf3b 35ab febd
00000370: d25b b73d 5216 58bd 4567 70bd 6f3e a13d
00000380: 05f2 04bd d628 373d 4890 aa3d 2004 42bc
00000390: 6ce5 9fbd 71eb dc3a 0c9f b53d 0d25 453d
000003a0: b4ad 34bd a77b 813d e8f5 89bb d453 813d
000003b0: f277 383d e2a9 5f3c b19b 7dbd 759b bc3b
000003c0: 316f 853c c126 b8bc 41c0 2b3c a57e c13c
000003d0: 50e6 ba3c 5b27 0fbd 8b1e 4d3d 9e67 71bd
000003e0: a6c5 d4bc 87b9 69bc 4a83 d53c c8c7 913d
000003f0: 5f84 b03c b38f fa3c 986a 87bc dfce 86bd
0.0025832541 -0.08012162 -0.0022147403 0.019451605 0.060532726 0.1302729 0.07485072 -0.0044587995
-0.08890769 0.087953 -0.026474386 -0.0049169688 -0.056301706 -0.00045716122 0.0012399254 -0.01703443
-0.021153074 0.10214333 -0.057704315 -0.005211605 0.016416762 0.024683576 -0.017554447 0.056511357
0.01861975 0.12071114 0.050149564 -0.038571835 0.21668266 -0.012418636 0.017865691 0.02280657
0.0126728965 0.032506283 0.087808385 -0.009968496 -0.009072261 0.020083537 -0.012302546 0.029179338
0.14414293 0.019567886 -0.058283705 -0.03655021 -0.07675398 0.051582284 0.10680064 0.019278096
0.010642956 -0.0047488976 -0.031231942 0.006029979 -0.05753483 0.08332358 0.020052288 0.024513945
-0.06623943 0.028960397 -0.022122955 0.045398068 0.077912524 -0.021923339 -0.05343083 0.055358134
-0.013036481 0.0475535 0.052198775 0.14978014 -0.064605735 -0.076370955 -0.05843729 0.06340521
-0.044865258 0.011548985 0.032253537 0.17296645 -0.019869026 -0.033617884 0.003314997 0.01671765
-0.054199394 -0.01589835 0.020408073 -0.040316 -0.06177892 0.027658373 0.0981602 0.036447015
-0.022179801 0.112345144 -0.018538343 -0.04948889 0.019562028 0.02249156 -0.054567683 0.043982387
0.061322507 0.07940494 -0.046150357 -0.0066996077 0.14198302 0.045144353 -0.040884968 -0.052748043
0.06705141 0.0066518495 0.0044615436 -0.01077276 0.0076586017 -0.017969308 0.0058641913 0.009250392
0.013700697 0.032237858 -0.024124572 0.09927738 0.059723992 -0.005368742 0.06402691 0.06511539
-0.07816514 0.06392554 -0.011000579 -0.029025448 -0.010055535 -0.05301544 0.053709097 -0.015882714
0.034287766 0.059628982 -0.073734745 0.13283001 0.011068089 0.20480417 -0.037147053 0.07983577
-0.11111579 0.043976232 -0.08795726 0.029174488 -0.057904568 -0.07921696 -0.012271346 -0.010895243
0.108797975 -0.06595988 -0.03226516 0.050357465 -0.053202495 -0.03485424 -0.03679544 0.009973307
0.057928357 0.2300178 0.0738926 -0.050035063 -0.3364441 -0.013007437 -0.011818735 0.08488957
0.003223764 0.049697425 -0.079792805 0.026069488 -0.04728997 0.06894901 0.07086826 -0.0731963
0.15871753 -0.019882534 0.0034239783 -0.016777469 -0.040392254 -0.03027074 -0.01873523 0.05336363
0.071076006 0.061586257 -0.14069556 -0.053138338 -0.060333516 0.08286775 -0.08070052 -0.03174057
-0.07607614 0.10098525 -0.11614366 0.017392373 0.067591034 -0.012146193 -0.065284826 -0.05440666
0.017512735 -0.10540044 -0.059140943 0.09610892 -0.07722194 0.008125617 0.010621313 0.0139553845
-0.06460647 -0.02122489 0.038131557 0.13448133 0.08352541 -0.011572806 -0.019432046 0.013056945
0.03572746 0.07606355 0.03711771 -0.083237275 -0.07051381 0.07103559 0.26812616 -0.005618301
0.11287536 0.02690085 0.0063255993 -0.12434999 0.0895306 -0.05275566 -0.058692235 0.078732364
-0.03245737 0.04471668 0.08328301 -0.011841804 -0.078074306 0.0016854835 0.088682264 0.048131038
-0.04411097 0.06322413 -0.0042102225 0.06314817 0.045036264 0.013651343 -0.061916057 0.0057558366
0.016288372 -0.022479417 0.010482849 0.02361996 0.0228149 -0.03494964 0.050077956 -0.058936708
-0.025973152 -0.014265425 0.02606358 0.071181834 0.021547494 0.0305861 -0.01653032 -0.06582426

encoder.4.bias f4 [3]
00000000: 0e3e 5f3e 1e96 e6bd 4661 863c
0.21801016 -0.11259101 0.016403805

decoder.0.weight f4 [128, 3]
00000000: f954 b0be c36f 8fbe 7837 5e3d da74 5fbd
00000010: 9fa2 c53e 5601 b63e 7fb5 0d3e 4eaa 66bb
00000020: 158b 233e c549 0cbf 6c4e a63d 9cb3 e3be
00000030: ae6b e03e c050 2a3e 4d83 c7bd 4ca4 e4bc
00000040: f8ac c23e 0ab3 0d3f caec 473d 0ced 31be
00000050: 7abd ad3b 002a 81be ff09 903d a8b6 d4bd
00000060: 96d1 e03e 588f a03e 25b3 4a3e a52e d23e
00000070: 3e16 873e ed23 c33c 6a80 203d 1dab 6bbd
00000080: 8f3b a03d 88ec 39be 882a 823c b41f fd3d
00000090: d744 fb3e e26c 2bbe 5059 c63e 9523 ea3e
000000a0: 31e8 7e3c 683b b13d 9874 70be c3bb c5be
000000b0: 948e 6ebe 7f55 b3be 62c7 62bd 1085 e8be
000000c0: e5fd 843e 42cf e53e 341b dc3e 142c cbbd
000000d0: 3892 6d3e 42e2 253e 2409 cebe 2c63 c33d
000000e0: 5058 d13e 3a75 94be e772 abbe b496 69be
000000f0: 3561 16be 85a0 b03e f111 db3e 41b4 c1be
00000100: 461c ffbe 4119 11be 9474 db3e 0230 7bbe
00000110: 7555 88bd 8678 633d 8943 9d3d 3f68 a0be
00000120: add0 0e3e 0474 b53d 35a9 9dbd 8895 c9be
00000130: b4cc 473e 2f3c c2be 029a aa3d aaa0 b93c
00000140: 6f42 1bbe fecd b9be bca9 77be 6029 3dbe
00000150: b801 b8be 1a7f 50bd 5df2 4d3e 1b3b 91be
00000160: ee89 c93d 126b 933e a9a6 91be d768 77be
00000170: 8040 2ebe cd2a adbe 9e21 debe c8ce 893d
00000180: 4c13 b1be b21a d73d 1d8c d4be d356 9cba
00000190: c7b3 cebe ee51 c13e ac08 a3be 95ec 833e
000001a0: 8362 27be 3406 0d3e 1a97 253e 8199 88be
000001b0: a82c 9f3d 99ea 623e 6029 1c3e 721e 81be
000001c0: 2f1a 91be f0a0 7cbe f77e b43e cdca ab3d
000001d0: 56ed 08bc 99b6 41be eac9 6a3c 9b95 b33d
000001e0: 53db 02bf dbe3 083f c316 013f c685 c7be
000001f0: 8bb1 8fbd fbe9 6d3e eca7 713d 0daf b73e
00000200: 1bb5 f2be 10fd f53e 7405 a2be 3b0b e7bb
00000210: c53c dd3e 94a3 bcbe 77ab 343e a709 e33e
00000220: ab08 15be 447a f13d 46da 0c3e 4b51 cabe
00000230: 17f6 a3be 61cb c93e 3e95 503d 31f4 92be
00000240: f4da 01bf 37f1 c9be 4ffb 47be 6e9f 333d
00000250: 77b0 2fbd d192 de3d f9ff e43e f8db 16be
00000260: 1383 e4be 1c16 ca3e 077b 1e3e c174 993e
00000270: 4c83 f3bd f5c5 10bc 5b3c eb3d 4b9f 233d
00000280: 5505 0d3e 4bfb 1b3e 3471 84bd 1e6e 8f3e
00000290: 6202 d0be a0fc b1be d0cd ad3e d58d 8f3e
000002a0: 9c12 b53e fb5a 4d3d 0701 f5be 3190 46be
000002b0: 4048 22bf b5bd b73d 12d7 a3be 9afd e4be
000002c0: a39a a7bc 9e8f 9cbe 4216 053f 709f 26bf
000002d0: 9e99 773e 5bcf a3be c7bd e23d d49b a2be
000002e0: 9cb1 1d3e 82fa bd3e a88f b23e 2470 c33d
000002f0: 39d1 2c3e 4cc4 acbe c9cb ed3e 48b6 7d3e
00000300: e845 193c ec72 2ebe 6e0c 57bb c7a9 1bbe
00000310: 3ca2 943d 03da e03e c86d 18be cafb 8a3e
00000320: 056b aa3e 8f6f 883d 5b95 93be 733e 66bd
00000330: 5e9f b33e 8d43 133e 62db c0be c8e7 b7bd
00000340: e483 81be 8568 7abd 1313 02be bb5f ad3d
00000350: b442 653e 40d5 94bb 8829 cc3e 7d24 f5be
00000360: 2527 8fbe 11ef be3e 7d64 a93c ef34 14be
00000370: f896 cc3e bce9 603e 9115 09bf 1108 c23e
00000380: e20e 7bbe c59e a3be c953 8a3e d57d 59bd
00000390: 88a5 a63d c8c0 a3be 0d54 d3be a3ee f5be
000003a0: 86c5 e1be f9a7 cc3d 6800 efbc 12d1 83be
000003b0: 3405 37bd ba80 943e b4dd 663e 5c50 a4bd
000003c0: 7afc 3bba b91b 39bd 697e 63bd 74d1 09bf
000003d0: 593c ee3e c140 e73e 62d7 5dbe 7223 dabd
000003e0: 9d94 fb3e 4caa 30be 4827 f2bd c7d7 753e
000003f0: 7199 bbbe 3f41 fc3d c387 f03d cb95 12be
-0.3443983 -0.28014955 0.054252118 -0.054554798 0.38600633 0.35547894 0.13838767 -0.0035196724
0.15971024 -0.54800063 0.081204265 -0.4447297 0.43832153 0.16632366 -0.097418405 -0.027910374
0.3802259 0.55351317 0.048809804 -0.17375582 0.0053021284 -0.25227356 0.070331566 -0.103864014
0.439099 0.31359363 0.197949 0.41051212 0.26384157 0.023820842 0.039184965 -0.057536233
0.0782386 -0.18156636 0.015889421 0.123595625 0.49075958 -0.16740754 0.38740015 0.45730272
0.015558288 0.08653909 -0.23481977 -0.38619813 -0.23296577 -0.35026166 -0.055365928 -0.4541402
0.25974956 0.44884688 0.42989504 -0.099205166 0.2320031 0.16199592 -0.4024135 0.095404
0.4088769 -0.28995687 -0.334861 -0.22811395 -0.14685519 0.34497467 0.42787126 -0.37832835
-0.49826258 -0.1416979 0.4286238 -0.24530032 -0.06656925 0.055534862 0.07678897 -0.31329533
0.13946791 0.08860019 -0.07698289 -0.39371896 0.19511682 -0.3793654 0.08330156 0.022659618
-0.15162061 -0.36289972 -0.24185842 -0.18472815 -0.3593881 -0.050902463 0.20111986 -0.28365406
0.09840761 0.28792626 -0.28447464 -0.24161087 -0.17016792 -0.33821717 -0.43385023 0.067288935
-0.34585035 0.105031386 -0.41513148 -0.0011927731 -0.40371534 0.3775782 -0.31842554 0.25766435
-0.16346173 0.13771898 0.16170922 -0.26679614 0.077721894 0.22159804 0.15250158 -0.2521854
-0.2834029 -0.24670768 0.35253116 0.083882906 -0.008357367 -0.18917312 0.014330367 0.08768769
-0.5111591 0.5347268 0.50425357 -0.3896925 -0.070162855 0.23233788 0.058998033 0.3587574
-0.47403798 0.48044634 -0.31644785 -0.0070508993 0.43210426 -0.3684355 0.17643534 0.44343302
-0.14554088 0.117908984 0.1375514 -0.39515147 -0.3202369 0.39412978 0.05092358 -0.28701928
-0.5072472 -0.39441845 -0.1952946 0.043853216 -0.0428929 0.10867847 0.44726542 -0.14732349
-0.44631252 0.39469993 0.15476619 0.2997189 -0.11890277 -0.008836259 0.11486121 0.039946835
0.13771565 0.1523258 -0.06466904 0.280137 -0.40626818 -0.3476305 0.33946085 0.28037897
0.3536576 0.050135594 -0.47852346 -0.19390942 -0.63391495 0.089717306 -0.32000023 -0.44724733
-0.020459479 -0.3057832 0.5198709 -0.6508703 0.24179694 -0.31994137 0.110713534 -0.31759512
0.15399784 0.37105185 0.34875226 0.095428735 0.16876687 -0.33743513 0.46444538 0.24776566
0.009355046 -0.17036027 -0.0032813805 -0.15201484 0.07257506 0.4391633 -0.14885628 0.27145225
0.33284774 0.06661903 -0.28824887 -0.0562119 0.35082525 0.14381237 -0.37667376 -0.08979756
-0.25295937 -0.061134834 -0.12702589 0.08465525 0.22388726 -0.004542023 0.39875436 -0.478794
-0.27959552 0.37291768 0.0206778 -0.14473318 0.3995893 0.21964163 -0.5354853 0.3789678
-0.24517396 -0.3195707 0.27017048 -0.05309852 0.08137041 -0.31983018 -0.41275063 -0.48033628
-0.4409601 0.09992976 -0.029174998 -0.25745445 -0.044682696 0.2900446 0.2254551 -0.0802314
-0.0007171106 -0.045192454 -0.055540476 -0.53835225 0.46530417 0.4516659 -0.21664193 -0.10651292
0.4913682 -0.17252463 -0.118238986 0.24008094 -0.36640504 0.12317132 0.117446445 -0.14314954

decoder.0.bias f4 [128]
00000000: 302b 843d 3a78 a83e d3b5 98be d9aa 9e3e
00000010: decb 193f 7418 07bd 9e15 18be 32e7 8c3e
00000020: 11d9 14be 3170 07be 3511 de3e 30d8 863e
00000030: 8a55 5bbd c32c 533f 4571 1ebf be3f b23c
00000040: 00da f33c 8130 a13e be7f c33e 1cdb 2abf
00000050: 6040 f23e dac0 953d d57a 333e cc56 15bf
00000060: 0ea1 8e3e 8c79 2cbe 1140 4d3f 3efd febe
00000070: d4f1 03bf 1c93 61bf 624d 8c3e 3883 e1be
00000080: 7534 d53d 63ee 91bd a65d 86be c8d6 c6be
00000090: 2509 f53c 25a1 21bf e4d9 97bd 9057 9fbd
000000a0: 4bb8 ccbe 9aa8 693e 8b13 383f 02d7 843d
000000b0: ce3e efbd 042e 233f 9d52 ea3d 21e7 51be
000000c0: b332 e73e 7405 2fbe 256d 9c3e 6afc 383f
000000d0: 189a 0dbf 65ea 263a 29e7 08bf 4b89 cc3e
000000e0: 3ba4 103f 40ea 1cbe 08b0 08bf d099 953d
000000f0: 32d6 1e3f 44e1 8a3d b760 173f 8a83 993e
00000100: 769f 05be 49d6 11bf 9e41 523e 8786 903e
00000110: ff43 e13e bbda f63e c068 2c3e c795 963e
00000120: a2b5 81be bd3a 8d3e f4b0 eabe 325a 22bf
00000130: eda0 0bbe b150 21be 451b 56be c2bf 073d
00000140: bf24 8c3e 91fd b2be ce6f 063f 7c05 7ebe
00000150: 9ccb 47be 5bba af3e 53f6 243f 9edc 483e
00000160: d52a 13bf bc81 873d aa9c f43e da49 bf3e
00000170: e250 d0bd 302a d23e 85d8 373e 2049 87bc
00000180: 771b 25bf 5130 cbbe 0415 92be e621 773e
00000190: 243b b1bd a34c 01bf c47e 4dbe 33d6 c83e
000001a0: 52ea 24bf f74b 923e 4efb d4be f82c af3e
000001b0: cb3d 9d3e 17f2 173f 541d 10bf d4a2 423f
000001c0: 8e24 babe 9d5a 0e3f 872c af3e f838 3a3e
000001d0: 57f6 77be 0e2d d33c c001 4f3f 8bb8 30bf
000001e0: 65b9 c23d c33f 0cbe 9329 f63e 489b 933d
000001f0: 225f f7be 93dd 883e dfa9 41bf b4a8 893d
0.0645355 0.32904226 -0.2982622 0.3098972 0.600767 -0.032982305 -0.14851996 0.27520138
-0.1453593 -0.13226391 0.43372503 0.26336813 -0.053548373 0.82490176 -0.61891586 0.02175891
0.029767036 0.31482318 0.38183397 -0.66740584 0.4731474 0.07312174 0.17527325 -0.58335567
0.2785725 -0.16843241 0.8017588 -0.49802583 -0.51540875 -0.88115096 0.27402788 -0.44045424
0.10410396 -0.07125547 -0.26243323 -0.3883574 0.029911587 -0.6313651 -0.07414606 -0.07780373
-0.39984354 0.22818223 0.7190482 0.06486322 -0.11681901 0.6374209 0.114415385 -0.20498325
0.45155868 -0.17091924 0.3055202 0.72260153 -0.55313253 0.0006367325 -0.5347772 0.39948496
0.56500596 -0.15323734 -0.533936 0.07304728 0.62045586 0.06781247 0.5913195 0.2998317
-0.13049111 -0.569676 0.20532843 0.28227636 0.4399719 0.48213753 0.16836834 0.29411146
-0.25333887 0.27583876 -0.4583813 -0.6341888 -0.13635607 -0.15753438 -0.2090884 0.03314186
0.27371785 -0.3495908 0.5251435 -0.2480678 -0.19511265 0.34321865 0.6443836 0.19615409
-0.5748723 0.06616542 0.47775775 0.37361032 -0.10171677 0.41047812 0.1795369 -0.01651436
-0.64495033 -0.396853 -0.2853166 0.24134025 -0.08653858 -0.50507563 -0.20067888 0.3922592
-0.64420044 0.28573582 -0.4159798 0.34213996 0.30711207 0.59353775 -0.5629475 0.76029706
-0.36356014 0.55607015 0.3421366 0.18185794 -0.24215065 0.02577832 0.80862045 -0.6903159
0.095080175 -0.13696198 0.48078594 0.07207352 -0.48314768 0.26731548 -0.7564983 0.06721631

decoder.2.weight f4 [256, 128]
00000000: 1672 abbd 25a7 a63c 2e9e dfbd a4e1 01bd
00000010: 615d 29bd a43f 863c b51f dcbd eace a53d
00000020: d190 76bc 3891 863b a6b2 19bd 9782 edbd
00000030: a351 1cbd cb3f 15be c66d 48bd 9b0d 5a3d
00000040: 78ce 423c 43ce 97bd 0cce 113a 6de4 84bd
00000050: d2e1 3cbd 748e a53c a945 c4bd e14a 19be
00000060: 08d7 3dbd 5dfc aebb 40bb a7bd 174b 30bc
00000070: 8bfa 7ebc b408 f7bd 89c9 48bc 13cd 8e3d
00000080: 6d20 883d 9344 92bb f8b4 d83c b8ed 14be
00000090: 83e4 d2bc 37f1 093d 0dbd 06bd 93bb fabc
000000a0: f316 41bd 5fc5 8f3b dc04 06bd 5274 30bc
000000b0: b82d 63bc bcdb 8bbd 8332 4abd 2df0 debd
000000c0: 9b18 13bd 4f19 aabd ab74 a6bd 69e1 aebd
000000d0: 5d56 003d c5cd dabd 8700 92bc 32a4 843c
000000e0: 8194 eebd 46e6 063e 6ff6 173d f9a2 16bd
000000f0: 263f 0a3c a156 163c f5ed 51bb a3d1 413c
00000100: 1fc1 eebd 0720 7bbd dc2e 07bd b4e2 c2bd
00000110: aa6d b3bd 2a2d 2dbd e7b8 89bd c3bd 99bd
00000120: 7b0e 98bd 643b 323c b497 ffbc ed26 543d
00000130: e3bd 3fbb bf1c b1bb 2549 01be 7300 b6bd
00000140: e948 34be 4073 803c 5665 b33d 8108 513d
00000150: 5463 873d 5e8b 043c f66f cbbd e202 5d3c
00000160: 77d1 683d 524e 8c3d a9a0 bfbc 0fc0 42bd
00000170: ab15 bf3c 79b1 adbb 51ee 96bd 81a7 24bd
00000180: d293 88bd 8d66 293b f9a4 57bd ec97 62bd
00000190: 0bfc 19bd 5f41 093c 14c0 63bd 0be9 e53b
000001a0: 0687 35bd 13ec 10bd f92d aebc 4593 2c3d
000001b0: a9cc afbc ca8e 00be 44d4 63bd d874 c6bc
000001c0: 7fea 92bd f9e2 c0bd 272e d4bc 74a5 18bb
000001d0: 29c9 043d 65c1 37bd 4775 e8bd 82bb 803b
000001e0: 72d3 1abd 4b70 1ebd a657 aabd 0205 c0bd
000001f0: dcdd eb3c d351 053d 06a0 4d3d 6f63 823d
00000200: 83ba f1bd 5f50 cebb 3bc4 a1bd e3c8 63bd
00000210: 9b02 37bd 6ad5 dfbd ee06 94bd 6633 74bc
00000220: 44d1 a8bc 3937 1d3d 7476 87bc 36ca f6bd
00000230: 8059 a0bd 2751 bd3c 9764 0e3c 1550 86bc
00000240: 7530 2ebd 78da e4bc 0d7e 093d 6720 4f3d
00000250: 22ce e7bd 106d 803d d9cc bfbd 0a02 1d3c
00000260: 246f 33bd 1f6a 0b3d 8acb 99bd bfa4 69ba
00000270: be67 dbbd 51c8 4abc bb80 b4bd d7e1 2bbb
00000280: 3e50 853c 38f0 55bd 67a3 75bc 5c83 bcbd
00000290: 1e3c 9abc 259f 8d3d edb4 02bd a69e a93d
000002a0: bc22 acbd 2044 63bc fbea 33bd 693a 91bd
000002b0: 6e9f 8fbd 0e59 dabc bea8 e53c c9a5 debc
000002c0: 333b 17bc 62d7 f6bd ae59 d43c 7a90 593c
000002d0: 76b0 95bd ea9d c0bd d3fa 9fbd c53f ad3c
000002e0: 1f19 23bd a04b 8dbd ee59 233d 840b 343b
000002f0: 7e20 1bbc 556a b9bc f333 f0bd bdad b13d
00000300: 22b9 8dbd 0d21 c8ba fc12 36bc a8d7 b1bc
00000310: 43eb 163d 8601 e9bd 97e5 193d 02f5 423c
00000320: 2a69 853d 875d 5fbd 8b34 25bd 130f 0e3d
00000330: 7aa1 8c3d 2b20 08bb 13b1 13bd 7e99 0dbc
00000340: 2af0 123d 5463 aabd 9825 2bbd 3cd7 07bd
00000350: 4cac 163d e363 f7bc cdff 7b3d d3b1 f2bc
00000360: 079e b3bc 24c0 10bd 4db6 a33d 1a75 bf3c
00000370: 82fb b7bd 9841 f3bd 9b11 38bd 5310 ea3c
00000380: 2c5f 54bd c1ae a6bd 3249 b7bc dd74 003d
00000390: b3e5 5fbd 3e92 96bd 9b82 a6bb bcbc 723c
000003a0: 8af6 393d b6b4 a4bc 8d2a 003d ed55 723d
000003b0: 6564 263c 8497 2cbd f343 93bd 1e5d 9238
000003c0: 1765 f5bc a666 9fbd f852 5abd 4cd6 59bd
000003d0: 93bd 873c bfcd 9cbb 56d3 f8bd c323 16bd
000003e0: 8895 703d beac a1bb e185 b2bd 101a 2cbd
000003f0: 48d5 a03d 90e5 75bd ceb1 393d b09b aebd
-0.083713695 0.020343373 -0.10918842 -0.03170933 -0.04134882 0.016387768 -0.10748235 0.08096106
-0.015049175 0.004106667 -0.037523888 -0.11597174 -0.038163792 -0.14575116 -0.048932813 0.05323563
0.011890046 -0.07412388 0.00055620144 -0.06488881 -0.046113797 0.020209529 -0.09583599 -0.1496997
-0.046347648 -0.0053401426 -0.08190012 -0.01076009 -0.015562664 -0.12062207 -0.012255081 0.069727086
0.0664681 -0.004463741 0.02645348 -0.14543808 -0.025743729 0.033677306 -0.032895137 -0.03060702
-0.047141027 0.004387542 -0.032719478 -0.01076992 -0.013865881 -0.068290204 -0.049364578 -0.10885654
-0.035912137 -0.083056085 -0.081277214 -0.08539087 0.031332362 -0.10683779 -0.017822517 0.016191576
-0.116494186 0.1317378 0.03710025 -0.036776517 0.008437907 0.009175927 -0.0032032703 0.011829766
-0.11657929 -0.06130984 -0.033003673 -0.095158964 -0.08761151 -0.0422794 -0.067247204 -0.07506897
-0.07424637 0.010878418 -0.031200267 0.051794935 -0.0029257468 -0.005405038 -0.12625559 -0.088868044
-0.17605938 0.015679955 0.08759563 0.0510335 0.06610742 0.008089868 -0.09933464 0.013489457
0.056840386 0.06850876 -0.023392038 -0.047546443 0.023325762 -0.0053006974 -0.07369674 -0.040198807
-0.066688195 0.0025848479 -0.052647565 -0.055320665 -0.037593883 0.008377402 -0.0556031 0.0070163063
-0.04431822 -0.035381388 -0.021262156 0.042132635 -0.021459894 -0.1255447 -0.055622354 -0.024225637
-0.07173633 -0.094182916 -0.025900913 -0.0023291977 0.032418404 -0.04486217 -0.11350494 0.0039286027
-0.037799306 -0.03868131 -0.08317499 -0.09375955 0.028792314 0.032548737 0.05020144 0.06366622
-0.118031524 -0.006296202 -0.07898756 -0.055611502 -0.04468022 -0.109293774 -0.07227884 -0.0149048325
-0.020607598 0.038382743 -0.016535975 -0.120502874 -0.07829571 0.023109986 0.008690975 -0.016395608
-0.04252668 -0.027936205 0.033567477 0.05056801 -0.113186136 0.06270802 -0.093652435 0.009583006
-0.043807164 0.03403675 -0.07509525 -0.0008912794 -0.107131466 -0.012376861 -0.08813616 -0.002622714
0.016273614 -0.052231044 -0.014992571 -0.09204742 -0.018827494 0.0691512 -0.031910826 0.08282213
-0.084050626 -0.013871223 -0.043925267 -0.07091219 -0.07012831 -0.026653793 0.028034564 -0.027178662
-0.009230423 -0.120528 0.025921669 0.013279075 -0.07309048 -0.0940512 -0.07811513 0.021148572
-0.03981888 -0.0689919 0.039880686 0.0027472684 -0.009468196 -0.02263371 -0.117286585 0.08675716
-0.06920077 -0.0015268639 -0.011112925 -0.021709278 0.036845457 -0.11377244 0.03757247 0.011899235
0.06514199 -0.054532554 -0.040333312 0.034682345 0.06866737 -0.0020771127 -0.036057543 -0.008642552
0.03587357 -0.083197266 -0.0417839 -0.033164248 0.03678541 -0.030198997 0.061523248 -0.029625809
-0.02192594 -0.03533949 0.079937555 0.023371268 -0.08983518 -0.118777454 -0.044938665 0.028572237
-0.051848575 -0.081388004 -0.02237377 0.03136145 -0.054662418 -0.07352112 -0.0050814874 0.014815506
0.045401134 -0.020105701 0.03129058 0.059163976 0.010155772 -0.042136684 -0.07190695 6.979167e-05
-0.02995543 -0.077832505 -0.05330178 -0.053182885 0.016569888 -0.004785269 -0.12149684 -0.0366552
0.058736354 -0.0049339226 -0.087169416 -0.042017043 0.0785318 -0.06003338 0.045335583 -0.08525789
