model/MAT_AutoEnc_Eig3.pth (torch, 967258 bytes, 36 tensors)

encoder.0.weight f4 [256, 24]
00000000: 267d a3bd 5454 17bc d0ce be3c bf1a 143e
00000010: 260a 5cbc d249 7abd d0d2 ac3d ddba 8e3d
00000020: 0dc5 c2bc bff4 283c 647f f9be e654 9c3d
00000030: f1da cabe d7a5 d03d e428 8d3d 073d ccbc
00000040: f44f 113e 6262 333f 7062 ddbe c248 783d
00000050: c08e f4bd bbed 12be 3445 3b3e 141f 1f3e
00000060: 865d c73d ceda 05bd 460e aebd c5c0 68bd
00000070: bfdd 0a3e 6650 42bd 0a18 72bd 79b0 63be
00000080: aa7d 67be 3353 813d 255e b6bd fcbb 5b3d
00000090: 8055 f23b b0f4 6d3d d7a3 d93c f948 473d
000000a0: 5343 253e 8d21 1a3e 3409 3bbe 0c6a 213d
000000b0: 4c72 a0bc c257 cf3d c4b1 1fbe bd06 13be
000000c0: 32bf 60bd 73ee 3ebd 248f 96bd 8a9f 2e3d
000000d0: d462 a3bd 741a c1bc 20c7 2abe fbc9 62be
000000e0: 2994 ec3d b2cf 28be 3321 1eba ac37 213e
000000f0: a9d6 22be 7f8c 463c 3a05 e6bd be3d 91bd
00000100: 0f4e 5bbe fb50 49be 14d6 a93c f4ad 933d
00000110: 3fc4 18be 8ff5 823c d6a3 35be 9c24 e2bd
00000120: c850 cebd f32a f8bd 7cad b53c c495 04bb
00000130: c5a6 893c d08d 803c 9620 153e 14dc 62bc
00000140: 9694 98bd 04e5 7abd 9b81 3dbe 78d4 0fbe
00000150: 3509 5c3d f993 7dbc 5d74 803d 2d2d bbbd
00000160: 9024 403d c355 50bc d467 d53d 6abe 403e
00000170: ef38 18bb 8574 38be abe0 07be 2b93 1dbd
00000180: 5c0c 48be 6032 f4bd a6eb 0ebe 38dd 3d3e
00000190: 960d 173c c782 25be 083f 613b 3190 233d
000001a0: 37e9 dabd 5c1b 063e 1b53 6d3b ce01 17be
000001b0: 4c66 a73d b6ad 12bd e146 01bd 6521 11be
000001c0: 918b 2f3e fdfa 37be 2a89 82bb 3434 403d
000001d0: 88c2 adbb 1f43 03bd bd38 13be f3bd c53d
000001e0: 4fdc 04bd edc7 1d3e 476f 1cbd 77f9 71be
000001f0: f4b9 bbbe e8f8 583d daa1 25be a7c9 7abe
00000200: 5a28 86bd 6548 193e fb07 c7bd f9a6 10be
00000210: 16c1 3cbd ac58 e3bd 6366 90bd e7f6 22be
00000220: 0fa7 0e3e ef80 55be 5d24 f43d e9b2 2a3d
00000230: 005b 1a3e 60c1 bc3d bd87 0a3e dc05 dcbd
00000240: 9864 41bd 884f 35be ceff 73be 3e45 72bb
00000250: 3e51 65be d5d6 72be e760 19bc 85a4 36bd
00000260: 61c8 b03d 4cd7 d33d 70ea 43bd 5d3d 67bd
00000270: 7516 75be a6b0 af3c 18dc 46be b9f4 e13c
00000280: 99a8 f33d 03a0 64bd beb1 4fbe 7348 15be
00000290: e504 1b3d beb2 833d 1e66 f5bd 1723 12be
000002a0: ee4f 2cbe 4024 07bd 6acb 8a3d 79bd 56bd
000002b0: a504 e8be c441 923d 6f83 243e 527e f5bc
000002c0: d6a1 01bd 048b 983d ce0f d93d 0a7e f73d
000002d0: f893 1bbe c9a1 d63d 44ca c73d c289 77bd
000002e0: b54e 013e a599 013e f6f0 053d c7a5 d03d
000002f0: 9cf8 6bbd 7438 453e 8236 a2bd e449 aa3d
00000300: d1ea e83c b92b 12be 897a 4d3d 9808 f3bc
00000310: 9981 7bbb b78f dd3d 7dd9 5abe 5af1 883d
00000320: 6588 55be 8b2b 073e f70d f1bc e059 bf3d
00000330: 7ead 02be 276b e13d f5db 213d ca39 bcbd
00000340: ad49 6c3d 56a7 55bd c36e d2bd 8485 6dbe
00000350: d9e5 c7bd a1d0 b9bc 38da 103e 5d48 6bbe
00000360: 2ce7 923c 74ad a93d 2cca 44be 74ca c93d
00000370: d911 ad3d 083c 24be 471c 4f3e 7279 5e3d
00000380: 9897 00be e5b1 2d3e 5b32 09be 4ac2 e4bd
00000390: c0e2 70bd 169e 9abd 755e fbbd dc71 1ebe
000003a0: 7bc9 fcbb 4120 313e d8da 48be c9df 46be
000003b0: 155c 1a3e 2271 0abd 3749 e53d 9e04 c5bd
000003c0: 550b 023e 79b2 3a3e 5470 243e 18de d23c
000003d0: a6a0 dbbc 58b0 373e ce02 e63d f427 97be
000003e0: fa83 163d b18e 20be 9d64 18be 6b95 aabd
000003f0: bd51 c03c 0fa9 d7bb 5428 1b3e cf5b 54bd
-0.079828545 -0.009236414 0.023291975 0.14463328 -0.013430154 -0.061105557 0.08438647 0.06969235
-0.023775602 0.010312258 -0.48730004 0.076333806 -0.39620164 0.101878814 0.06892565 -0.024931444
0.14190656 0.70071995 -0.43239164 0.060616262 -0.1194129 -0.143485 0.18288118 0.15539199
0.09734635 -0.03267937 -0.08498816 -0.056824464 0.13561152 -0.047439955 -0.059104957 -0.22235288
-0.22606531 0.06314697 -0.089046754 0.053646073 0.0073954463 0.05809468 0.026567383 0.048653577
0.16138963 0.15051861 -0.1826523 0.039407775 -0.019585751 0.1012416 -0.15595156 -0.14358039
-0.054869838 -0.04661412 -0.07351521 0.042632617 -0.07977834 -0.023572184 -0.16677523 -0.22147362
0.11551697 -0.1648548 -0.0006032169 0.15743893 -0.15902199 0.012118458 -0.11231466 -0.070918545
-0.21416496 -0.19659798 0.020731963 0.07210913 -0.14918612 0.015986232 -0.1773828 -0.11042139
-0.100740016 -0.12117567 0.02217745 -0.0020230869 0.016803155 0.015692621 0.14563212 -0.013846416
-0.074502155 -0.061253563 -0.18506472 -0.14045894 0.053719718 -0.015477174 0.062721945 -0.09139476
0.04690987 -0.01271576 0.10420194 0.18822637 -0.0023227294 -0.18013199 -0.13269298 -0.03847043
-0.19535965 -0.11923671 -0.1395708 0.1854142 0.009219548 -0.16163169 0.0034369845 0.039932434
-0.106890135 0.13096374 0.0036212865 -0.14746782 0.081738085 -0.035810195 -0.031561736 -0.14172895
0.17143084 -0.17966838 -0.0039836364 0.046924785 -0.005302731 -0.032046434 -0.14377113 0.096553706
-0.032436665 0.15408297 -0.03819206 -0.2363032 -0.36665308 0.05297175 -0.16175023 -0.24490987
-0.06550665 0.14969023 -0.09718319 -0.14126195 -0.04608258 -0.11100897 -0.07050779 -0.15914498
0.13930915 -0.20849966 0.11920998 0.04167453 0.15073776 0.09216571 0.13528343 -0.10743305
-0.047215074 -0.1770612 -0.2382805 -0.003696754 -0.22394273 -0.23714764 -0.009361482 -0.04459049
0.08631969 0.10343799 -0.047831 -0.056455005 -0.23934348 0.021446537 -0.19419897 0.027582513
0.11897392 -0.05581666 -0.20282647 -0.14578418 0.037846465 0.06430577 -0.11982368 -0.14271198
-0.16827366 -0.032993555 0.067770794 -0.05242679 -0.45316043 0.0714145 0.16065763 -0.02996746
-0.03164848 0.0744839 0.10598718 0.12084587 -0.15193164 0.10480077 0.09755376 -0.06043411
0.1262768 0.12656267 0.0327005 0.101878695 -0.05761014 0.19259816 -0.07920553 0.08314875
0.028432282 -0.14274491 0.050165687 -0.029667184 -0.0038376807 0.10818427 -0.21372028 0.06686659
-0.20852812 0.13200204 -0.029425604 0.09343314 -0.12761495 0.11006766 0.039516408 -0.0919071
0.05768745 -0.052161537 -0.10275032 -0.23195463 -0.09760637 -0.02268249 0.14145744 -0.22976823
0.017932497 0.08285037 -0.19217747 0.09853068 0.0845067 -0.16038525 0.2022563 0.054315038
-0.12557828 0.16962393 -0.13398115 -0.1116987 -0.058809996 -0.07549684 -0.122738756 -0.15473121
-0.007714448 0.1729746 -0.19614732 -0.19421305 0.15074189 -0.033799298 0.11195605 -0.09620021
0.12699635 0.18232144 0.16058475 0.025740668 -0.026810002 0.17938364 0.11231004 -0.2952267
0.036746956 -0.15679432 -0.14882131 -0.083292805 0.023476476 -0.0065814327 0.15152103 -0.051845368

encoder.0.bias f4 [256]
00000000: 4788 623c dbf9 1abd 626a 09be 0a96 4fbe
00000010: 930a b2bc 7280 673d 821a 983d 611c 73bd
00000020: 3e15 0a3e 088f 27be 5002 2abe ef33 f8bd
00000030: b671 9b3d 6c8b 69be 6ffe c2bd a6f8 c73d
00000040: 9cd7 cc3d 7159 8e3d 3d93 7abe 8775 3dbd
00000050: c4cc c3bd 4283 c5bb 9829 5f3d 5f3b 01bd
00000060: 9cbd 83be 028d 56bd ceac bbbc cd16 41bd
00000070: b8f5 b0bd 4b3d 143e 942a b6bd fbf5 bbbd
00000080: 66f3 c7bd 2aa1 3abe 8374 a0bd 3f7a 0fbe
00000090: f773 84be 920c 2d3e 2710 b53d e6af 3bbe
000000a0: 2fd9 89bc ce30 8bbd feb9 c3bc 6c1b 20be
000000b0: 9098 ed3d c9ae 15be 3f5b 033e 709b 82be
000000c0: 499d b1bb 0bb8 57bd 4ba5 0c3d 307b 253e
000000d0: cc1f 4fbe ad18 c23d 6db2 49be 4c24 32bc
000000e0: 7920 60be 8177 0fbd 29ce b03d 595b 93bd
000000f0: 1c04 6dbe aa92 823d b0ed 05be 7d29 4d3d
00000100: d71d a63c 3e9b b93d e226 133d 4917 943d
00000110: edfe 24bd ba76 44be 6069 ce3d 77b5 16be
00000120: 31f3 babd 41c3 ab3d 8a42 0f3e f70b 78be
00000130: 2c1a 50be 6761 5cbe c011 313c 43e0 17bd
00000140: bc5e 133d 7610 5fbe d8bd cfbd e0ad ffba
00000150: e744 1dbe 6367 c8bd 9a5f ef3c 30bb 163e
00000160: 50a3 0ebd 86f7 c03d 4c66 e23d 6fa1 ecbd
00000170: 9910 28bd e27a cbbd 51bb 103d b564 05be
00000180: 16fc 6bbe 8f25 0a3e e1cc 99bd f90b 503d
00000190: 418f 863d 72a7 06be 7cab 39be a78c 0bbe
000001a0: da2e 8ebd 91c7 ecbc f72e f8bc 61f5 003e
000001b0: 68ba 2e3e d231 b73c 8e21 4bbe f846 39be
000001c0: 2058 9d3d a018 c8bd 8a5e 19be f645 2abe
000001d0: b767 8e3d a195 1c3e cbbd c7bd f878 acbd
000001e0: 1012 f63d 46bf 3bbe 3c3a dc3d 828d 16be
000001f0: 618b 16bd bc01 9e3d f377 823c a51a 883b
00000200: 0ad3 f4bd bb75 23be b8da 353e aaff 4f3e
00000210: 084e 873b 7b6e d7bd e0c9 143d 530a 48bd
00000220: caa0 fa3d 220c 48be e19b 2f3c c309 34be
00000230: 61c1 b43d f285 093d 9c36 26be 2046 ef3d
00000240: 38bb 503d 63e9 28be f324 54bd 3fa9 16be
00000250: b67a a2bd 9643 4dbd a10e 55be d590 13be
00000260: 62a9 32bd c1fb 043d fb45 20be 2ceb 9b3c
00000270: f6d6 213e 5251 df3d 6e28 84bd ebd7 f43d
00000280: b43a 47be 548a 223e b342 113d 145d 843d
00000290: f3b6 f53c 032a c83d ffdd a8bd d2d3 ecbd
000002a0: 6633 46be d3e0 44be 2167 283e 2a93 033d
000002b0: 7c4f 933c 76ed 5f3d 5d4f 86bd ad3b 163e
000002c0: 0704 1ebe 92dc 65bd d0fa 013d 2973 193e
000002d0: f897 dc3c 033a 74be 0223 013d 2d28 bbbd
000002e0: c865 263e 0193 3cbd 5f08 81be 6b89 9abd
000002f0: 1fc8 cfbd c8d3 063d 8d6e 36bc ccef 7bbe
00000300: d157 4abe 4380 debd 5a98 c23b 980e 5bbe
00000310: 2fbc 28be 5369 6f3d 250a 2abe aa64 72be
00000320: 8bee 213d 3026 7ebb f70f 02be 2a42 fabd
00000330: 6e87 123e d7ea 1b3d 5b1d 16be 1437 0a3d
00000340: 932a 183e 749a 0fbe 9e52 ee3c 4ea7 b53c
00000350: 635c 913c 97b3 1abd e12c 8c3d a195 28be
00000360: 2943 333e bb48 89bd 693f b83c 21d0 8d3c
00000370: f2c0 50be 772d 68bd e400 023e 3399 bf3d
00000380: 3147 bdbc c86a 2fbe c64e f43d 308b 193e
00000390: 6d59 9abd 225b 5bbd f5a0 3ebe c2b8 423d
000003a0: bb81 0d3c 0a90 23be 78c7 f93c 59a3 4c3e
000003b0: d116 b43d 6545 d2bd d7e5 5abd 096c 4c3e
000003c0: 5aa9 eb3c a1a8 333c 007a 6b3c eee9 fcbd
000003d0: 6b80 5abd e2d0 00be 8a72 183e 71a2 333d
000003e0: 8622 5dbe 7f8d 10be ff36 0e3e 8ef0 073e
000003f0: 2bd7 d5bd b430 5bbe da47 9f3d d4ae 4f3d
0.013826436 -0.037835937 -0.13419488 -0.20272079 -0.021733558 0.05651898 0.07426931 -0.059353236
0.13484666 -0.16363156 -0.16602445 -0.121192805 0.07590048 -0.22807091 -0.095211856 0.09764223
0.10002062 0.06950653 -0.2447023 -0.04625466 -0.0956054 -0.00602761 0.054483026 -0.03155076
-0.25730598 -0.05238057 -0.022909548 -0.047140885 -0.08640617 0.14476506 -0.0889484 -0.091777764
-0.097632214 -0.18225542 -0.07834723 -0.14011477 -0.25869724 0.16899326 0.088409714 -0.18328819
-0.016827194 -0.06796418 -0.023892399 -0.1563546 0.116013646 -0.14617456 0.12827776 -0.25509214
-0.005420361 -0.05266575 0.034337323 0.16160274 -0.20226973 0.09477363 -0.1969697 -0.010872912
-0.21887387 -0.035026077 0.08633072 -0.071951576 -0.23146099 0.0637563 -0.13078952 0.050088394
0.0202779 0.09062813 0.035925753 0.07231004 -0.04028218 -0.19185916 0.100786924 -0.14717661
-0.09128416 0.08386851 0.13990226 -0.24223314 -0.20322484 -0.21521531 0.010807455 -0.037079107
0.035979018 -0.21783623 -0.10143632 -0.0019506775 -0.15358315 -0.097853445 0.029220391 0.14719844
-0.034823716 0.09422211 0.11054668 -0.115542285 -0.041031454 -0.099355474 0.03533489 -0.13026698
-0.23045382 0.1349089 -0.07509781 0.050792668 0.06570292 -0.13149813 -0.18131822 -0.13627873
-0.0694253 -0.028903754 -0.030295832 0.12593605 0.17063296 0.022362623 -0.19837019 -0.18093479
0.07682824 -0.09770322 -0.1497747 -0.1662825 0.06953376 0.15291454 -0.09752997 -0.084215105
0.12015164 -0.18334684 0.10753295 -0.14702418 -0.036754016 0.077151746 0.015926337 0.004153567
-0.11954315 -0.1596288 0.17759216 0.20312372 0.004129175 -0.10519119 0.036325336 -0.04883797
0.12237699 -0.19535878 0.010718317 -0.17581849 0.088259466 0.033575006 -0.1623177 0.11683297
0.050959796 -0.1649528 -0.05179305 -0.14713 -0.079335615 -0.050113283 -0.20806362 -0.14410718
-0.043618567 0.032466654 -0.15651695 0.019033037 0.15804657 0.109041825 -0.06453024 0.119552456
-0.19455987 0.1587308 0.035464 0.06463066 0.029994464 0.09773638 -0.082454674 -0.11563839
-0.19355544 -0.19226389 0.1644559 0.03212277 0.017982237 0.05466982 -0.06558106 0.14671202
-0.15431224 -0.056118555 0.031733334 0.14985336 0.026927933 -0.23850255 0.031527527 -0.09138522
0.16249764 -0.04603863 -0.252017 -0.07545742 -0.10145592 0.032916814 -0.011134756 -0.24603194
-0.19760062 -0.10864308 0.005938572 -0.21392286 -0.16478036 0.058450054 -0.16605432 -0.23671213
0.039534133 -0.0038780086 -0.12701403 -0.12219651 0.14309475 0.038065758 -0.14659636 0.033743933
0.14859991 -0.14023763 0.02909213 0.022174504 0.017744249 -0.037768926 0.068444975 -0.16463329
0.17506088 -0.06703325 0.022491174 0.017311158 -0.20386103 -0.056683984 0.12695652 0.09355392
-0.023105236 -0.17130578 0.11929087 0.14994502 -0.07536588 -0.053553708 -0.18616088 0.04753948
0.008636887 -0.15972915 0.030490622 0.19984187 0.087934144 -0.10267142 -0.05344185 0.19963087
0.028767277 0.010965497 0.014372349 -0.12349306 -0.053345125 -0.12579682 0.14887443 0.043856088
-0.21595201 -0.14116476 0.13888167 0.13275358 -0.10441431 -0.21405298 0.077773765 0.05070384

encoder.2.weight f4 [128, 256]
00000000: 8581 dabd 6095 c0bd 00d2 8bbc 2ecc 243d
00000010: 2802 603c a1dd f5bd 2ed1 d3bc c230 0fbd
00000020: 9a29 e0bd e0b1 593d 3782 47ba 407a b73b
00000030: 02d6 553d 5ba7 e6bd c24f 443d 6bf7 04bc
00000040: a8e1 6ebc 0443 a4bd 761b a1bd 2de7 9bbc
00000050: 721c 153d 7e48 34bd 075c edbb 7240 59bd
00000060: 2443 03ba eea1 84bd 28d6 80bc 5f2f b3bd
00000070: 30d8 1c3d 79df 43bd da5e 4cbd 1868 39bd
00000080: 724b 22bd 84a8 b6bc 1459 b3bd c16f 54bc
00000090: 290f 96bd 9bc1 3ebc 817d b1bd 0068 a739
000000a0: eaea 13bc 941f f2bd 8f5a 65bc a023 333d
000000b0: d83b e5bb 1c26 30bd cbc6 ecbc c441 72bd
000000c0: 9ad9 b1bd 63e8 34bc cfca f9bc 8028 0bba
000000d0: 81be 22bd 9e41 e53d 0612 863a 30fd 673c
000000e0: eee7 d1bd 3a61 dfbd fcfb abbc 3565 8fbd
000000f0: 4729 b73a 7d47 98bd 8ab8 0bbd b2d7 b2bd
00000100: 832f aabd e893 c6bc f831 7c3d 4114 98bd
00000110: 5e30 673d 70ee cebd a779 2bbd dd64 a9bd
00000120: f03e 32bc e81e 71bd ec5d 383d 91f3 dabd
00000130: faa2 18bd a832 26bb 80e5 393c 8101 08bd
00000140: fdf4 d6bd 6110 b13d fcb9 bdbc d7ae afbd
00000150: 4da2 35bd f689 9abc 1451 e7bc 4748 adbd
00000160: 0354 eebd 1273 523d c0fb e9bd ee5b c43d
00000170: 6e7a 31bb 3d21 8f3d b0dc d63b 3044 aebd
00000180: 4727 a0bd 52c3 f6bc 2286 57bd 00d5 aebc
00000190: 1007 b0bc 4c27 3b3d 9064 f2bc 909f c1bc
000001a0: 883e 97bd 4bc6 3abd f900 75bd 26bb 34bd
000001b0: ac82 48bd 44b9 a6bd dad2 1e3d 25ea 4abc
000001c0: 267b 4f3d 5201 7dbd a893 55bb 95e9 9bbd
000001d0: d0cc b8bd a992 10bb 0093 7bbc 91f2 5ebd
000001e0: 0610 68bd 6238 1abd c077 343b 4be1 cbbd
000001f0: 44f9 2fbd e94a e63d 4eab 86bc 45e6 9dbc
00000200: 70fa b3bd f455 4ebc d106 c1bc ddcb 49bd
00000210: 50ed 8c3c 6e47 4cbd 6467 6fbd ac15 13bd
00000220: e8ec b9bd c8c7 353c 04fc 7bbd d7c4 babd
00000230: e1ed 48bc dac3 6ebd 4df6 a63d 8fc1 d6bc
00000240: 8a8f 31bd 07f9 37bd 1b6b 72bb 2c1e 63bd
00000250: 003e b0bd d03a 86bc 2633 77bd 0ce9 27bd
00000260: 4064 95bb 26ab 84bd de9a e9bc fb4c e63d
00000270: 06ed 4cbd caf2 9dbd 2029 b73b 64d4 fe3c
00000280: 7662 58bd 8a10 94bd a050 5f3c cdeb 53bd
00000290: c017 f73b 4633 cbbd a587 fdbc e018 86bc
000002a0: ad30 84bb ccbe edbc 643a 73bd f057 183c
000002b0: 50d3 9dbd 6c0d 6b3d e083 e2bd 1058 f0bc
000002c0: 9abf 9abc 4e67 7ebd 180a 583d 74d8 6bbd
000002d0: e0ee d8bc 7136 e4bd 510e d5bd 3ae1 09bd
000002e0: 1879 0fbd 0c8a cf3c 6d32 c9bd 16bf 2e3d
000002f0: 4dd5 45bc 4f77 5fbd f0f3 b4bd c51f 46bd
00000300: 5685 a9bd c74e 02bb 119c 86bc 6248 f0bd
00000310: 5c37 d5bd 05e1 68bd eaae 00bd 0ca5 b1bd
00000320: d570 86bc 7215 a1bd 6d93 d5bd 5c6e 083d
00000330: 5f71 87bd cddf 6abc f8c5 6ebc 57c0 84bd
00000340: 70e0 c4bd e840 55bd d83d 41bd cde0 a2bc
00000350: 3d10 22bd 60f5 70bd 4ff6 6ebd 40d2 86ba
00000360: f258 43bd 901d 76bd b50d 71bd c8d3 cfba
00000370: d892 c8bd 9530 20bd 42f2 0cbd 6676 fdbc
00000380: d656 95bd 91fe 93bc db12 bc3a bcb3 45bd
00000390: b1f6 35bc 899a c1bd d4e5 28bd 7249 bebc
000003a0: 77dd cebd 6095 92bc 3c10 89bd 8212 693d
000003b0: 0053 953c fc4b bdbd d2cd acbd b424 03bd
000003c0: 5096 7e3d cd55 f1bd b479 c3bd 496d e3bd
000003d0: 391f b7bd d9d1 acbd 2bc5 81bd 636e 73bd
000003e0: 5bbd c0bd aa6c 60bd cdfe ebbd b046 abbd
000003f0: ff9e b4bd a0d4 84bd a277 6cbd 45d0 efbd
-0.10669235 -0.09403491 -0.01706791 0.040233783 0.013672389 -0.12005163 -0.02585658 -0.03495861
-0.10945435 0.05314815 -0.0007610651 0.00559929 0.052206047 -0.11262389 0.047927625 -0.00811563
-0.014580168 -0.08020595 -0.07866566 -0.019031132 0.03640408 -0.044014446 -0.0072436365 -0.053039975
-0.0005007258 -0.06476198 -0.015727118 -0.0874927 0.03829211 -0.047820542 -0.049895145 -0.045265287
-0.03962273 -0.022297151 -0.08757225 -0.012966097 -0.0732711 -0.011642839 -0.08666516 0.00031930208
-0.009028176 -0.11822429 -0.013998642 0.043735147 -0.0069956593 -0.043005094 -0.028903386 -0.05914475
-0.08684082 -0.011041733 -0.030492214 -0.0005308464 -0.03973246 0.11194156 0.001022876 0.014159486
-0.10249315 -0.10907216 -0.020994179 -0.070017256 0.0013974094 -0.0743551 -0.034111537 -0.08732547
-0.083098434 -0.02424045 0.06157109 -0.07425738 0.05644261 -0.10104072 -0.041864064 -0.08271191
-0.010879263 -0.058867365 0.045011446 -0.10690988 -0.0372648 -0.0025359783 0.011346221 -0.03320456
-0.104959466 0.08645702 -0.023159973 -0.0857827 -0.044344235 -0.018864613 -0.028236903 -0.084610514
-0.11637118 0.05137927 -0.114249706 0.09587847 -0.002708103 0.069887616 0.0065570697 -0.085090995
-0.078199916 -0.030122433 -0.052618153 -0.0213418 -0.021487743 0.045691773 -0.029588968 -0.023635656
-0.07384974 -0.045599263 -0.05981538 -0.04412379 -0.048952743 -0.08140805 0.038775302 -0.012384926
0.050654553 -0.061768837 -0.003258923 -0.076129116 -0.0902344 -0.0022060073 -0.015354872 -0.054430548
-0.056655906 -0.037651427 0.0027537197 -0.099550806 -0.042962328 0.11244757 -0.016439106 -0.01927484
-0.087880015 -0.012593735 -0.02356282 -0.049266685 0.017203003 -0.04987281 -0.05844821 -0.03590934
-0.090783894 0.011094995 -0.061519638 -0.091195755 -0.012263746 -0.058292247 0.08152447 -0.026215343
-0.04334978 -0.044915225 -0.003699011 -0.055448696 -0.086055756 -0.016385466 -0.060351513 -0.040993735
-0.00455907 -0.064779565 -0.02851623 0.112451516 -0.05003073 -0.07712324 0.0055896193 0.031107135
-0.052828275 -0.07229717 0.013630062 -0.05173855 0.007540673 -0.09921889 -0.03094847 -0.016369283
-0.004034123 -0.029021643 -0.059381858 0.00929831 -0.0770632 0.057385847 -0.110603094 -0.029338866
-0.01889019 -0.062110238 0.052744 -0.057579473 -0.026481092 -0.111431964 -0.10403121 -0.03366206
-0.035027593 0.02533438 -0.09824071 0.042662703 -0.012074781 -0.05455714 -0.0883559 -0.04837014
-0.08277385 -0.001988338 -0.01643184 -0.11732556 -0.104109496 -0.05685522 -0.03141681 -0.08674058
-0.016411224 -0.078654185 -0.1042851 0.033308372 -0.06613421 -0.014335585 -0.014573567 -0.064819984
-0.096131206 -0.052063853 -0.04717812 -0.019882584 -0.039566267 -0.058827758 -0.058340367 -0.0010286048
-0.047692247 -0.060086787 -0.058850963 -0.0015855962 -0.09793633 -0.03910883 -0.034410723 -0.030940246
-0.07291953 -0.018065723 0.0014348881 -0.04826711 -0.011106179 -0.09453303 -0.041234806 -0.02322838
-0.10100835 -0.017893493 -0.066925496 0.056902416 0.018228054 -0.092430085 -0.084376946 -0.032017425
0.062155068 -0.11783943 -0.095446974 -0.11104829 -0.08941502 -0.08438463 -0.06336435 -0.059431445
-0.09411117 -0.05479113 -0.11523209 -0.08363092 -0.088193886 -0.064858675 -0.05773128 -0.11709646

encoder.2.bias f4 [128]
00000000: 1787 36bd 7ef6 f13d 2a9d 74bd 104d a2bd
00000010: 9a72 8e3c 82a6 723d 4945 d9bd cf2b 97bd
00000020: bd4f fabc 6e21 75be a087 afbd 5145 49be
00000030: a377 de3b 7ddb a9bd 20a7 76bc fdc4 123c
00000040: 7f38 e5bc 3c97 ed3c 879b acbd f09f d23c
00000050: 4cbd df3d 4571 b2bd 09a4 493d 562f d6bd
00000060: df49 1c3e bd00 94bd 4b24 ec3c e898 653c
00000070: c6a5 b3bd c864 033d d7fc e3bd a616 48bd
00000080: 0379 88bd 88dd e3bd 8329 193c 13a8 d3bc
00000090: 2d2c 8f3b f9d7 10bd 03d6 1dbc 7e6a 383c
000000a0: 12f3 4ebd f0fe 1d3d d945 08bd 6e57 843e
000000b0: ddcb ad3b 6c67 47bd 00ac 48bc bea1 d5bc
000000c0: 8114 d33b 997f 12bd 209b 14bc b086 38bd
000000d0: 92a6 483e dd05 8e3a 795c 1cbc 9447 afbc
000000e0: 29ad f2bd 5161 a9bc 47e6 a4bd 42dc b8bc
000000f0: 6c5e b3bd c0df 24bc 9a3b 4bbd 2c58 c33c
00000100: 8a7c 81bb 5d5a b8bd 539b 103d 9f55 8cbd
00000110: 28e0 e5bc 198d bdbd 969a 33bd 55c9 6ebc
00000120: 30d8 763c b165 cabd e582 f1bc 6b69 76bd
00000130: 1a43 49bd b012 7e3d 32e9 81bd b789 ffbc
00000140: b6a1 053d 4ba4 7dbd 643c 413d ce4f 91bd
00000150: 9f17 a5bd 2bea 38bc 7e26 563c 9187 e5bd
00000160: 0e41 8c3c c01a 94bd 80d8 1bbd 71b5 8f3b
00000170: c106 eb3b 9b59 5cbd 2cd4 883c 9783 f33d
00000180: 363e 4bbd 79d6 c4bc b353 983d cf74 21bc
00000190: ebd0 22bd cb5a 5ebd a2c5 a23c 84e5 9cbd
000001a0: 9ecc a4bc f1be 3bbc 3c5f 84bc 56f8 c1bd
000001b0: fc8b 63bd a7b0 49bc e42d 86bd 718d de3c
000001c0: 62ac c23d 445a 52bd 6956 f1bc e5ff 983c
000001d0: b2b5 303d c5bd 8fbd 2dc8 adbd 73bd d4bd
000001e0: c3cb 35bd e560 d5bd 8881 b9bb c5fd 4dbd
000001f0: 86f5 1b3b bd6e 5bbd b168 29bd 208c fbbc
-0.044562425 0.11814593 -0.059720196 -0.07924855 0.01738863 0.059240825 -0.10608918 -0.07381403
-0.0305556 -0.23938534 -0.0857079 -0.19655348 0.006789164 -0.08293817 -0.015054494 0.0089580985
-0.027981041 0.029002778 -0.08428102 0.02571103 0.109247774 -0.08713011 0.0492287 -0.10458247
0.15262555 -0.07226703 0.0288259 0.0140135065 -0.08771853 0.032078534 -0.1113221 -0.048849724
-0.06663706 -0.11126238 0.009348276 -0.02583698 0.00436928 -0.035362218 -0.009633544 0.0112558585
-0.05052478 0.038573205 -0.033269737 0.25847954 0.0053038434 -0.048682615 -0.012248039 -0.026078101
0.0064416532 -0.035766218 -0.009070188 -0.045050323 0.19594792 0.0010835488 -0.009543532 -0.021396436
-0.11849434 -0.020676287 -0.080517344 -0.022565965 -0.08758244 -0.010063112 -0.049617387 0.023845755
-0.003951614 -0.090016104 0.03530438 -0.068522684 -0.028060988 -0.09255428 -0.043848597 -0.0145743685
0.015066192 -0.09882677 -0.02948136 -0.06015913 -0.04913626 0.06202954 -0.063433066 -0.031193597
0.032624923 -0.06192426 0.047176734 -0.070953 -0.08061146 -0.011286299 0.013070701 -0.11207498
0.017120864 -0.07231665 -0.038048267 0.004385643 0.007172436 -0.053796392 0.016702734 0.11890333
-0.049619876 -0.02402805 0.07437839 -0.0098545095 -0.03975002 -0.054285806 0.01986963 -0.07660964
-0.0201171 -0.011459098 -0.016158693 -0.094711944 -0.05555342 -0.012310184 -0.06551722 0.027167054
0.09505536 -0.051355615 -0.029460149 0.018676708 0.04314203 -0.070186175 -0.08485446 -0.10387697
-0.044383775 -0.10418872 -0.0056611933 -0.05029084 0.0023797466 -0.053572405 -0.041359607 -0.030706465

encoder.4.weight f4 [3, 128]
00000000: 160e 7dbd af18 4d3d b944 e1bb e89c 6ebc
00000010: 085f 14bd 6baf 313d 9cc5 a43c 4b1e a4bc
00000020: 17d7 b4bd b631 0bbe acc5 a23a 5529 50be
00000030: aca6 05bd 77ee f2bc b68d d2bc 4700 963d
00000040: e878 2dbd ff26 a33d d409 ff3d 00ab 043d
00000050: 1efb 603e 931b 40bc 7d6c d13d 75b4 10bd
00000060: 4c97 1c3d a508 9abd 01a5 883d c9a1 ec3c
00000070: 9811 cdbd ce39 873d d8c8 a23d 8f90 fcbd
00000080: f390 603d 0c0d 01be e420 ffbc 17c9 14be
00000090: 6c5d be3d ee44 0abd d33a a13c 96d1 b3ba
000000a0: 1ea5 453b 6d19 ed3c b2e4 043e 68da 533e
000000b0: 1334 d3bc 819c 17bd d8fb 32bd d882 e1bc
000000c0: 68a5 8d3d 2b52 7abc 7640 0fbc e539 89bd
000000d0: 3507 35bd 6f47 013c 3ad7 9b3d d52b 08bb
000000e0: 12aa e5bc 1188 33bd f6f6 643d 0eef 853d
000000f0: af98 d33d 89fd e13b 4423 2d3c 8af1 d73c
00000100: 3628 d63d be07 c2bc ea42 063d f144 af3d
00000110: 32d1 20bc 407f 90bb f0b5 b23d dd2a 6d3b
00000120: 70c9 793d 4773 60bd eb78 143d 29d1 c2bc
00000130: 1481 0f3b 245d a8bd 871a 0cbe d1ed 6b3d
00000140: 90bb 843d 3c4b 60bd c06a 0d3d 7ddc 51bc
00000150: 8f08 4fbc 6667 743b a96c 773c 222f fcbb
00000160: 4cf0 2d3d 1100 fcbc 98fd fb3d 19da 503d
00000170: 3a06 143e 36b4 09bd 15f2 05bd 9b28 6d3e
00000180: 5091 a13d afc1 dbbb cc5b fe3d e7db 53bc
00000190: 4cf2 86bb 295a f6bc 9f3c 2d3d 3b49 b03c
000001a0: f3cf 6dba cd80 d23c 757c 0ebe 28af cbbc
000001b0: e885 41bc de3c 293c 5c04 41bd 962b c23d
000001c0: de85 053e 65f1 79bd 6cda e73c bcf0 39bc
000001d0: 7d9a 083e aca2 863c 684b 74bd 3db3 b2b9
000001e0: 7cf1 993d d8ed 9c3c f953 f53d a039 ddbd
000001f0: fbc9 573c bf43 bb3c 3229 52bc 3740 16be
00000200: 7774 a13d 8241 023e d8a1 103c c83e 9d3d
00000210: 7319 b23c 5d03 06bd 95bb d53c 26ed 60bd
00000220: fb61 ed3d 46ee 20be 6ea3 8c3d 2880 48be
00000230: 1ce8 88bd de7c 1b3d 079a 353d 302b ba3b
00000240: d9eb e73d a910 5f3c 7f74 acbc 5c5d 783c
00000250: f76d dd3d d04b d2bc 2a2b 673d e2c9 20bc
00000260: 3e70 1c3e a342 683d 293f 09bd ada4 4bbd
00000270: ec51 33bc 4028 8f3d 9153 d0bc 2545 49bc
00000280: 5c6a 2f3d 8bc0 123d 68e7 b2bd f090 833d
00000290: 9503 4b3c 1493 aa3a 5dbe e5bc 7462 a53c
000002a0: 3d53 f3bd 20bd 38bd 9c20 bb3b 8cf2 863e
000002b0: be0b abbd 79d2 683c d5a2 313c 0740 c5bc
000002c0: a283 0fbc 9039 3abc 9e76 0dbc 152a c33d
000002d0: adc5 9c3e f559 4a3d c6e1 cebc 0d55 703c
000002e0: f6f1 8b3b ce86 a93b f45b 73bc dd90 f93c
000002f0: a025 0d3d 5c26 c5bb c261 473a 6202 873d
00000300: 4b73 fe3c 67b2 b8bd 5e90 a53c 47b1 ba3a
00000310: 874c 183d 53f2 fe3d eb91 f5bc 1407 873b
00000320: 2ff8 393d 0ddf b4bb bee9 6dbd 812a 8d3c
00000330: 6c9c af3d 1b8c 4abd 45fb aa3c 252e b83c
00000340: 4129 993d 6f8e f93c e384 cf3c b2e3 a2bc
00000350: 15cf f7bd e8cc cebc f39b d23c e89c 9e3b
00000360: 682c 243d d9e8 833c 223c 5ebc d265 60bc
00000370: aabc 2fbd 5410 af3b 354b a6bd e316 1fbf
00000380: 81ac 4d3b ee59 42bd 7346 523d a7b4 ea3b
00000390: 273b 10bc 4139 2a3d 3e22 c9bc a65b 3c3b
000003a0: 3cbf b7bd aea6 bdbc e079 033d 7cca d7bc
000003b0: 36e1 543d cd13 0b3e 3a2b 98bb 2bc6 62bb
000003c0: 31f8 f1ba 4234 afbd a37e 353d f8f5 433e
000003d0: 4fcb 8d3d 0af8 113e 2b6b 66bc e64a cabc
000003e0: e514 b13c 035d c43d 28ad 68bd 389b 863d
000003f0: 3afd 4e3d 771c 213d 4dd0 363c e97a 2a3d
-0.06178101 0.05007237 -0.0068746475 -0.014563777 -0.03622344 0.043380182 0.020113759 -0.020033976
-0.08830088 -0.13593182 0.001241853 -0.20328267 -0.032629654 -0.029654725 -0.025702339 0.07324272
-0.042351633 0.07966422 0.124530464 0.03238964 0.21970794 -0.011725324 0.102257706 -0.035328347
0.038230225 -0.0752118 0.06672097 0.028885739 -0.10013121 0.06602822 0.07948464 -0.1233226
0.054825734 -0.12602633 -0.031143613 -0.14529835 0.092951626 -0.033757143 0.01968137 -0.0013719078
0.0030158232 0.028942788 0.12977865 0.20688784 -0.025781667 -0.037014488 -0.04369721 -0.027528211
0.06916314 -0.015278379 -0.008743396 -0.06700496 -0.044196326 0.007890566 0.076094106 -0.002077808
-0.028035197 -0.043830935 0.055899583 0.06539737 0.103318565 0.006896679 0.01056749 0.026360292
0.104568884 -0.023685332 0.032778658 0.085580714 -0.009815501 -0.0044097006 0.08726108 0.0036188879
0.06098312 -0.054797437 0.03624813 -0.023781376 0.0021897005 -0.0822089 -0.13681994 0.057599846
0.06481087 -0.05475925 0.034525633 -0.012808916 -0.012636318 0.0037293076 0.01510159 -0.0076960484
0.042465493 -0.03076175 0.123042285 0.050989244 0.144555 -0.03361913 -0.03270157 0.23160021
0.07889044 -0.0067064385 0.124198526 -0.012930847 -0.0041182395 -0.030072289 0.04229414 0.021519294
-0.00090718194 0.025696183 -0.13914664 -0.024863794 -0.011811711 0.010329453 -0.047123298 0.094809696
0.13039348 -0.061021227 0.028302394 -0.011348899 0.13340183 0.01643499 -0.059642226 -0.0003408435
0.075167626 0.019156381 0.11978907 -0.10802007 0.0131707145 0.022859452 -0.012827205 -0.14672934
0.07883542 0.12720302 0.008827649 0.0767799 0.02174065 -0.03271805 0.026090423 -0.054913662
0.11590954 -0.15715894 0.06867109 -0.19580138 -0.06684896 0.03796088 0.044336345 0.005681418
0.11324281 0.013614812 -0.021051643 0.015158977 0.1081199 -0.025670916 0.05643765 -0.009813758
0.15277192 0.056704175 -0.0335075 -0.049717594 -0.010944825 0.06990099 -0.025430473 -0.012284552
0.04282604 0.035828155 -0.087355435 0.06424129 0.012390991 0.0013013803 -0.028044874 0.020188548
-0.11881111 -0.04510224 0.0057106744 0.26356924 -0.08351849 0.014210337 0.010842045 -0.024078382
-0.008759411 -0.011366263 -0.008634238 0.09529511 0.30619565 0.049402196 -0.025254142 0.014668715
0.0042707874 0.0051735407 -0.014853466 0.030464584 0.03445971 -0.0060165357 0.00076058146 0.06592251
0.031060835 -0.090184025 0.020210441 0.0014243507 0.037182357 0.124485634 -0.029976806 0.004120717
0.045402702 -0.005519754 -0.058084242 0.017232182 0.08574757 -0.04945002 0.020871768 0.02248294
0.07478572 0.030463425 0.02533192 -0.019883964 -0.12100045 -0.025244191 0.025709128 0.004840482
0.04008141 0.016102241 -0.0135641415 -0.013696151 -0.042904533 0.0053425226 -0.08119813 -0.621443
0.0031383338 -0.047449045 0.051336717 0.0071626487 -0.0088031655 0.041558508 -0.02455246 0.002874115
-0.08972022 -0.023150768 0.03209865 -0.02634167 0.05197259 0.13581772 -0.004643825 -0.003460298
-0.0018460808 -0.08554889 0.044310223 0.19136798 0.06923544 0.14254776 -0.014063637 -0.024693917
0.021616409 0.09588053 -0.05680576 0.065725744 0.050534464 0.039333787 0.011158061 0.041621123

encoder.4.bias f4 [3]
00000000: 5531 013e 1e86 8f3d 88c4 debb
0.12616475 0.07008003 -0.0067983307

decoder.0.weight f4 [128, 3]
00000000: b7a7 c2be ddca 9c3d afd0 d03e aa89 aabe
00000010: fbb2 42c0 d538 9c3e e9a8 58be 1393 e3bd
00000020: 9bbf 4e3e 8c2b 5abe d052 cebd 5dbd c73e
00000030: 7e61 70be 51e1 f93e 361d f63e 0439 eabe
00000040: 3857 0e3d 5d73 143e e49d 83bd fe34 90bd
00000050: 8d7e ccbe e2df b33e 320a 603e e78f 90bc
00000060: b8d4 7dbe 28a1 83be c621 af3d 19c9 913e
00000070: 7d73 483e 3f70 d5be 28b1 07bf f24d 6d3e
00000080: 3dba 4b3d 0581 013f 57b9 f93e 65c3 53be
00000090: a062 0d3f 6496 15bf 1f5f f73e 728d e5be
000000a0: 63c3 f93c 24a3 fd3e e211 893e 4cdb 573e
000000b0: d2c2 03bf cdcd 1d3c acd0 013f 294b 583f
000000c0: da27 2e3e 1bad 8cbd f5bd 14be 5088 adbe
000000d0: 2b56 13bd ba4d 41be 178b b3be ece5 ff3e
000000e0: 72c5 f43e 1a84 1cbd 71d9 963e 4348 3fbe
000000f0: 0d59 393e d685 a23e 3050 27ba f26d 5fbe
00000100: c580 de3c caae d2be 474d 1dbf 0a48 12bf
00000110: 4cba dabe bbe0 e8be 6820 f73e e665 883e
00000120: 1e2f c4bd 7ebd 24be 7cd7 4ebe 14db aa3e
00000130: 319b b4be cf96 e5be 3cf4 0c3f 61c9 27bf
00000140: a629 09bf 448f 8cbe db18 473f e37b 5b3f
00000150: 95e8 813e a260 1abe f060 383d 8388 b0be
00000160: 0ecb 103f b164 8cbe 40b7 8bbe 21a8 523c
00000170: d7be 0a3f 34c1 333f 6b4c 87bf 8886 79be
00000180: ecf8 25be 329f cd3e 0a8f b5bd 96f1 073f
00000190: f752 e83d 06b8 88be d10a f8bc ba09 c93e
000001a0: a106 02bf 0a7b aabe a8ac 6f3e 46c5 febe
000001b0: ff9d ebbe a1d1 8d3e 737b 043e 3765 513d
000001c0: 6eb5 933d ff10 003e 6896 d93e 92a6 5a3e
000001d0: fbaa aebe 2055 303f 8356 95bf 59ef 9d3f
000001e0: 2327 ee3e f964 983e 0386 763e 489f 053e
000001f0: 65f2 66bd e89a 2fbe 7a23 b93e 0e8b f53e
00000200: 728f b0be f599 9bbe 686a 123d d8a5 02bf
00000210: 3a8a e13e 6a6d 6bbe 4c10 f6be 8ce7 60be
00000220: 9aa1 b4be ee8d 2a3e 451b 8cbe e588 27bd
00000230: cce9 0240 d2db f03e ea1c 2e3f 253c 363e
00000240: 0878 6a3e 1311 ba3e c21e 443f e659 023f
00000250: dea3 893e 2d26 82bd 6b48 c43e 72a8 56bf
00000260: e6be f43f 880e 1d3f 4d2f 273e ad9e 363d
00000270: 260f b23e 1ae5 36bd 40ba dcbe 0dba 96bd
00000280: 788b 1fbf 0709 edbe 63df 193e 2a5a 78bd
00000290: 5383 05bf aa87 69be a901 73bd 5a24 093f
000002a0: 76c2 9ebe ed15 f23d c79e 9b3e c547 f2be
000002b0: e5c3 edbd e120 84bd 817f a3be 40cc f3be
000002c0: 94e5 973e e076 053e 20b0 0cbe 236c 3cbe
000002d0: 19ab 03bf d01f 9d3e 4031 f8be bf83 f13e
000002e0: c513 9fbe 83ac 933e aa94 2ebd 175f 07bf
000002f0: 8528 dbbe 5938 883c 480e edbf 9576 b73f
00000300: f617 683d 8661 8b3d 973a 08be 5300 0bbf
00000310: 5b3f 5cbf edba b1be ce79 07be 992f 9e3e
00000320: 14fe ca3e b98d 803e e82e 183f e0a8 673f
00000330: 274c 9ebe a611 1bbc a95a 7a3e 1fdc 11bf
00000340: 0657 253e 8fd8 f13e c6cb 07bf a9e4 f3be
00000350: 059e 853d 3a73 a63e db2d 1dbe ccd5 a53d
00000360: a0d6 0bbf 9fc0 ffbe 38f5 b93e 9c9b 1e3f
00000370: 6ca6 d8bd 83f7 5abd d743 b8be cdf9 edbe
00000380: cf60 c9be a897 4abe 7fc7 c73e 16fa 9dbe
00000390: 578a ed3e 35e4 f1be eaa8 4ebe ef4b 64be
000003a0: 8feb 93bd 62a3 a5be 33a9 41be 5ff0 8cbe
000003b0: b444 23be 2af3 a1be a58a d9bf f631 aabf
000003c0: bef7 fd3e f6ab 583e 442f 8b3e 798d 55bd
000003d0: fcca cc3e d6cc 5b3e d443 e7be baa5 a43d
000003e0: 59b5 243e 5c43 8ebe d2c9 293e 8db2 263d
000003f0: 097b 91be 158e 193e eb27 b3be 5315 0fbf
-0.3801858 0.076558806 0.40784213 -0.33308154 -3.042174 0.3051211 -0.21158184 -0.111120366
0.20190279 -0.21305674 -0.10074389 0.3901166 -0.2347469 0.48804715 0.4806916 -0.45746624
0.034751147 0.14497133 -0.064265996 -0.070413575 -0.399403 0.35131747 0.21878889 -0.017646743
-0.24788177 -0.2570889 0.08551364 0.28473738 0.19575305 -0.416872 -0.53004694 0.23174265
0.049738158 0.50587493 0.48774216 -0.20680006 0.55228615 -0.584326 0.4831476 -0.44834477
0.030488675 0.4953853 0.26771456 0.21079749 -0.5146915 0.009631586 0.50709033 0.84489685
0.1700739 -0.06868955 -0.14525588 -0.3389306 -0.035970848 -0.18877307 -0.35067055 0.49980104
0.4780689 -0.03821192 0.2946277 -0.1867991 0.18100376 0.31742734 -0.00063824933 -0.21819285
0.027161011 -0.41148978 -0.6144604 -0.5714117 -0.42720258 -0.45483956 0.48266912 0.26640242
-0.095792994 -0.1608791 -0.20199388 0.33370268 -0.35274652 -0.4484162 0.5506017 -0.65541655
-0.53579175 -0.27453053 0.777723 0.8573591 0.25372759 -0.15075925 0.04501432 -0.3447915
0.56559837 -0.2742057 -0.27288246 0.012857468 0.5419745 0.7021668 -1.0570196 -0.24367726
-0.16208237 0.4016052 -0.08865173 0.53103006 0.11343949 -0.267029 -0.030278595 0.39265233
-0.50791365 -0.33296996 0.23405707 -0.49759883 -0.4601898 0.27698997 0.12937717 0.051121917
0.07212339 0.12506483 0.42497563 0.21352604 -0.34114823 0.6887989 -1.1667026 1.2338668
0.46514234 0.29764536 0.24074559 0.13049042 -0.05638351 -0.17148936 0.3615988 0.47957653
-0.3448444 -0.30390897 0.03574601 -0.5103431 0.4405077 -0.22990957 -0.4805931 -0.21963328
-0.35279542 0.16655704 -0.27364555 -0.040902037 2.0455198 0.4704271 0.6801287 0.17796381
0.22897351 0.36341152 0.7660943 0.50918424 0.26882833 -0.06354938 0.383365 -0.8385078
1.9120758 0.613503 0.16326638 0.04458492 0.34777182 -0.044652082 -0.43110847 -0.07359705
-0.6232219 -0.4629595 0.15026622 -0.060632862 -0.5215351 -0.22805658 -0.059327755 0.53571093
-0.31007737 0.11820588 0.30394575 -0.4732038 -0.116096295 -0.06451584 -0.31933215 -0.47616768
0.29667342 0.13033628 -0.13739061 -0.18400626 -0.5143295 0.30688334 -0.48475075 0.47170827
-0.3106977 0.28842553 -0.042622246 -0.5287947 -0.4280435 0.016628431 -1.8519983 1.4333063
0.056663476 0.068057105 -0.133036 -0.5429737 -0.8603417 -0.34712926 -0.13230059 0.3089569
0.3964697 0.25108126 0.59446573 0.9049206 -0.30917475 -0.009464657 0.24448647 -0.56976503
0.16146478 0.47235534 -0.5304531 -0.4763539 0.065242805 0.32509786 -0.15349524 0.08097419
-0.54624367 -0.49951646 0.363199 0.6195619 -0.105786175 -0.0534587 -0.35989258 -0.46479645
-0.39331672 -0.19784415 0.3901939 -0.30854863 0.46394607 -0.4724442 -0.20181623 -0.22294591
-0.072226636 -0.32351214 -0.189122 -0.2752714 -0.15944177 -0.31630832 -1.6995436 -1.3296497
0.49603075 0.21159348 0.27184498 -0.052136872 0.39998615 0.21464857 -0.45168936 0.08039422
0.16084804 -0.27785766 0.16580895 0.040697623 -0.2841418 0.14995606 -0.34991392 -0.55891913

decoder.0.bias f4 [128]
00000000: 85d9 f73d f7ae d8bf 3dca 1a3e 83cc 4fbc
00000010: 8d03 f1be 4f00 51be 507e 863e b1f2 4e3f
00000020: eb9b 443e 6fbd fcbe bbe7 413d cbfc 93bd
00000030: 4363 253f faf8 a3be d817 f23d f064 4abe
00000040: 5d58 63be 1f16 c03d 816b 623e bb1a 47be
00000050: d2ac 3b3f 8273 1b3e 0c31 03bf ceb6 68be
00000060: 528d 683e 66c0 7fbc 8317 62c1 8d51 543f
00000070: e095 f03f 0a81 8bbf c379 26bf 3fa6 3340
00000080: 9719 e2be 3539 ea3e 85d2 d23d bbaa 5c3e
00000090: 4500 c9be a555 1fbe aaba d53e 3cfe 513e
000000a0: ce92 293f 770e 06be c1b6 8abe d7bc 9a3f
000000b0: cb1e 9dbe c7ca 373e 2dbc 59bf 1d95 b83e
000000c0: 732a fc3e cdf0 44be 4d63 1240 14e6 943f
000000d0: f42a e43e 76e9 0bbf c61e be3e 5c3f ae3e
000000e0: 0f92 153f bf08 4c3d cc21 90be b687 df3e
000000f0: 5866 7abe 0b27 8bbe c94a fe3e 60e8 9bbf
00000100: 1c89 0f3f 9f0d e13e 3cbd 53bc 6d97 623f
00000110: 03fd 1cbf ae2a 75bd 561c 27be 8387 1340
00000120: 9b76 95be 8528 9e3e 7493 f33f acd7 1ebf
00000130: 9bc5 ba3f 67f5 8c3e daef e63e 00da b8bf
00000140: 94a2 f9bd 0aad 03bf a09e b13e bab9 8abe
00000150: 83c2 d33e dbc4 5e3d 9f4f 4b3e 30f1 e5bc
00000160: c84a 973f 34f2 57c0 a299 4f3e c975 323f
00000170: 4c88 cd3e 2712 383f 7948 a33e 8c48 1040
00000180: 36de 5c3e d36e d13e e83f 2d3f 3c97 12be
00000190: 81d2 033f 31c7 88bd 2485 86be 861d 2b3e
000001a0: ed89 133e b2a6 9d3d 2eac 043e 257a c140
000001b0: 352d c1be 0e82 b3be f5f9 793f cd8f 3540
000001c0: ef3d f6be da1d b2be c929 eebe a533 92bf
000001d0: 50b4 d8bd 083b a93d 5681 ac3e 5da0 aa3d
000001e0: 5f62 d8bd fbdb 85bd f8cf 40bf 9d10 2640
000001f0: e6cb 6fbe c1ba bc3e 21cd 8d3f 217d c1bd
0.121020354 -1.6928395 0.1511621 -0.012683037 -0.47073022 -0.20410274 0.26268244 0.8083907
0.19200103 -0.49363276 0.047340136 -0.07225951 0.64604586 -0.32025892 0.11820954 -0.19765067
-0.22201677 0.09379219 0.22111322 -0.1944379 0.7331058 0.15180781 -0.51246715 -0.22725984
0.2271016 -0.015609836 -14.13074 0.82936937 1.8795738 -1.0898755 -0.65029544 2.8070219
-0.44160149 0.4574677 0.1029406 0.21549504 -0.39258018 -0.15560015 0.41743976 0.20507139
0.6623963 -0.13091455 -0.27092555 1.2088879 -0.30687556 0.17948447 -0.8505276 0.36051264
0.49251136 -0.19232483 2.2873108 1.1632714 0.4456402 -0.5465311 0.37132853 0.34032714
0.5842599 0.04981303 -0.28150785 0.43658227 -0.24453104 -0.27178225 0.49666432 -1.218029
0.5606859 0.43955705 -0.012923535 0.8851231 -0.61323565 -0.059855156 -0.16319403 2.305146
-0.2919205 0.3089029 1.9029374 -0.6204784 1.4591554 0.27530977 0.45104867 -1.4441528
-0.121892124 -0.5143591 0.34691334 -0.27094823 0.41359338 0.054386955 0.19854592 -0.028069109
1.1819696 -3.374158 0.2027345 0.69710976 0.4014305 0.719027 0.3189123 2.254428
0.21569142 0.40904865 0.6767564 -0.14315504 0.5149308 -0.06678618 -0.26273453 0.16710481
0.14408083 0.0769781 0.12956306 6.04616 -0.37729803 -0.3506016 0.9764703 2.836902
-0.48094127 -0.347884 -0.46516255 -1.1422011 -0.10581267 0.082632124 0.33692425 0.08331368
-0.10565638 -0.065360986 -0.75317335 2.594764 -0.23417625 0.36861232 1.1078225 -0.094476946

decoder.2.weight f4 [256, 128]
00000000: f972 f3bc bae8 a7bd 933b 75bd 6b38 38bd
00000010: cd12 5dbd 1530 a4bd ea3b 03be 043d a5bb
00000020: 5267 8c3d d4a1 f33c 3ec2 0bbe 5e14 b2bd
00000030: d1c6 14be 5465 e1bc db05 c43c 993a 18bd
00000040: f0ca cfbd 0044 f7bb aeb0 ffbd 9714 fbbd
00000050: e036 91bd 4a95 fbbd 737b 96bd 3018 dbbd
00000060: df77 c7bc b8df 2bbd eaf4 3f3d 9edb 0fbe
00000070: eb0e 24bd c94b 33bd 2806 e53c bb55 8f3a
00000080: c7e6 05be d87a 9c3b eca0 62bd f2fd 43bd
00000090: d8ee cebc 7e19 65bd 6321 dabb e35d 9abd
000000a0: 48de c83c d0aa c1bd 6d9d 803b b809 adbd
000000b0: 9b91 1f3c 8cb6 01be 2321 823d 146c dfbd
000000c0: dd00 0dbe ebc8 9dbd 4f2b 533d e55c f73b
000000d0: 23de 263c f644 50bd f1b4 0abe 7e4f a5bd
000000e0: d975 e43c 3d23 0fbe 6c73 9e3d ff71 88bd
000000f0: 5de0 a2bb 3ad1 a1bd 7d78 3fbd af51 a93d
00000100: e1bb c33b 8a8c 8dbd 0f14 183c 917c 14be
00000110: a0c5 42bd 5ca8 f2bd 5e9a 99bd d9a0 10bd
00000120: 9a88 143d 55f7 a8bd 1827 e4bd 3d14 e03c
00000130: f250 7dbd 8e12 a5bd ad86 e2bd e2a7 bcbd
00000140: 6d81 5fbd c72e 7e3b ce9e 89bd ad7c cabd
00000150: d328 59bd 2efa 62bd 1523 78bc 1a18 60bd
00000160: 00ab 86bd 1b33 a7bd 3bec b6bd 3549 bbbd
00000170: 88e5 853b 9580 b23b adb4 10be 2192 9a3c
00000180: 6567 763c 7586 0ebd 7c58 8bbd 2f40 eebb
00000190: dcb5 4cbd 706b 113c 39bf bebc 7ac5 a1bd
000001a0: 01d4 85bd 1449 fabd c6e8 08be 9069 4bbc
000001b0: c435 91bc b153 0dbd 86f2 c4bd 14fc 08bb
000001c0: c509 023d 021c 8bbb 18a2 f63b e1ee b5bd
000001d0: 7410 c1bd daa1 303c f568 a63b acb9 05bc
000001e0: b570 08be db14 e7bd 25d8 ac3d 1d0d ccbd
000001f0: d8a2 49bd 3ed3 ebbc f634 43bd 2efe d83c
00000200: df4c 623d db87 173d bbe7 68bd 9fc9 443d
00000210: 110e 78be 5d0c 283d b091 f8bc 0885 62be
00000220: e98a 813c b935 8ebe f001 3fbd bf2b 9dbe
00000230: e360 46be ab1a a9bc cd60 9ebe b671 3dbe
00000240: 4c19 7cbe 78e4 423d 66cd 88be 23af 70be
00000250: 7e3d 94be b103 563c a039 40bd db83 8bbe
00000260: d9e5 e43c 2395 5abd 2ed8 a3bd f3dd 98be
00000270: e1c5 8ebe 53f5 543d eb1d e83c b328 c2bc
00000280: 95be 59be 1bee 40be 748b a6be 9493 82bd
00000290: 88b0 05bd 24ba 38be 90b2 92be 46a6 8abe
000002a0: 2b27 77be 1a9c bc3c 42a3 3cbe ee95 48bd
000002b0: 0f00 31be 5ed0 433d 2eff 28be fee8 89be
000002c0: 8ef9 29be cc82 90be 8b01 83be d22d a4be
000002d0: e7ab 96be 2042 11bc 7e16 a93d 30d8 95bd
000002e0: 70d3 0f3d 064e b4bd 1af1 50bd 9559 a03b
000002f0: 0827 7f3d e20f 85be 0c08 413d b278 26bd
00000300: 0e6c 3bbe 1557 3e3b a133 a4be 293d 52be
00000310: 7148 2fbd db2d 883d 18d8 a3bc 243e a1be
00000320: 60f5 7f3c d360 8cbe ec22 0b3d 4f3a a9bb
00000330: 089e 95be 93f5 86bd 7d5e acbc 9b1a 0dbd
00000340: 41a6 88be 3b2f 2fbe f308 0fbc d32f 93bd
00000350: 2cd6 813c 2471 883d bcde 903d 1e75 7cbc
00000360: 5fad 8abe 3878 5cbe 4eee ac3d e349 40be
00000370: 6ac3 2fbe 7414 86be 51bf 2fbe f10f a23c
00000380: b530 a5bd 0819 42be eaca cfbc 41f0 2cbd
00000390: aedb 84be 9867 95be ff74 0cbc 4da7 88be
000003a0: 719b 3bbc e171 90bd 7a92 5abe 7c8a 133d
000003b0: 30d3 88be e8e2 adbd b75a 96be a60d 54bd
000003c0: 1815 fabb e1e7 71be bb49 7ebd 62f6 f0bc
000003d0: 0e80 113d dad8 96be fc1e 28be b5e7 833c
000003e0: daa2 6dbe c503 66be 06d3 3e3d b94f 6bbe
000003f0: bfcf 8bbe 94ba a53d 5e00 1fbe cf6f 5ebe
-0.02971791 -0.08198686 -0.059871268 -0.04497568 -0.053973008 -0.080169834 -0.12815824 -0.005042674
0.06855644 0.029740252 -0.13648316 -0.08695291 -0.14528967 -0.027514137 0.023928573 -0.037165258
-0.10146129 -0.007545948 -0.12484871 -0.122597866 -0.07090545 -0.12284334 -0.07347765 -0.10697973
-0.024349151 -0.0419614 0.046864428 -0.14048621 -0.04005329 -0.043773446 0.027957037 0.0010935584
-0.13076316 0.0047753863 -0.05532925 -0.047849603 -0.025260374 -0.055932514 -0.006656812 -0.07537439
0.024520054 -0.09456408 0.0039250166 -0.08449119 0.009739305 -0.12667292 0.063539766 -0.10909286
-0.1376986 -0.07704338 0.051554974 0.0075489157 0.010184797 -0.050847016 -0.13545586 -0.080718026
0.027888225 -0.13978286 0.07736859 -0.06662368 -0.004970594 -0.07901235 -0.046745766 0.08267533
0.0059733246 -0.06911571 0.009282126 -0.14500643 -0.04755175 -0.11848518 -0.07500146 -0.035309646
0.036263086 -0.082503 -0.11140269 0.0273534 -0.061844774 -0.0806018 -0.110608436 -0.092117086
-0.05456679 0.0038785206 -0.06719743 -0.09887061 -0.05301745 -0.05541437 -0.015145083 -0.054710485
-0.065755844 -0.081640445 -0.08931776 -0.091448225 0.0040862 0.005447457 -0.14131422 0.018868508
0.0150393 -0.034796197 -0.068039864 -0.007270835 -0.049978122 0.008875713 -0.023284541 -0.07898994
-0.06534577 -0.1222097 -0.13370046 -0.012415305 -0.017725833 -0.034503642 -0.0961657 -0.0020902203
0.0317476 -0.004245282 0.0075266473 -0.08883453 -0.09426966 0.010780776 0.00507843 -0.008161943
-0.13324244 -0.11283275 0.08439664 -0.09963439 -0.049227566 -0.028787252 -0.04765793 0.02648839
0.05524909 0.036994796 -0.05686162 0.048043843 -0.24224116 0.041027416 -0.030342907 -0.2212106
0.015813308 -0.27775362 -0.046632707 -0.30697438 -0.19372897 -0.0206426 -0.30933228 -0.18500409
-0.24619025 0.047581166 -0.26719207 -0.2350431 -0.28953165 0.013062404 -0.046929955 -0.27249035
0.027941631 -0.053364884 -0.080002174 -0.29856834 -0.27885345 0.051991772 0.028334578 -0.023701048
-0.21264108 -0.1884083 -0.3252827 -0.063758045 -0.032639056 -0.18039757 -0.28651857 -0.27079982
-0.24136035 0.023023654 -0.18421653 -0.04897111 -0.17285179 0.047806136 -0.16503593 -0.2693557
-0.16599104 -0.2822479 -0.25587115 -0.32066208 -0.29428026 -0.008865863 0.08256243 -0.07316625
0.035113752 -0.08803944 -0.051011182 0.0048934915 0.062293082 -0.2598868 0.047126815 -0.040642448
-0.18302938 0.0029043604 -0.3207064 -0.20531143 -0.042793695 0.06649371 -0.020000502 -0.31492722
0.015622467 -0.2741762 0.03396885 -0.0051644216 -0.2922213 -0.06589808 -0.02104115 -0.0344492
-0.26689342 -0.1710786 -0.008730161 -0.07186856 0.015849195 0.06662205 0.07073733 -0.015408782
-0.27085397 -0.21530235 0.084438905 -0.18778186 -0.17164388 -0.2618748 -0.17162825 0.019782992
-0.08065931 -0.18954861 -0.025365312 -0.04222131 -0.25948852 -0.29180598 -0.008572816 -0.2669014
-0.011450634 -0.07052971 -0.21344939 0.03602074 -0.26723623 -0.084905446 -0.29366085 -0.05177083
-0.007631909 -0.23623611 -0.062082034 -0.02941436 0.035522513 -0.2946232 -0.1641807 0.016101697
-0.23206654 -0.22462375 0.046587966 -0.2297963 -0.27306935 0.080922276 -0.15527484 -0.21722339
