model/MAT_AutoEnc_Eig3.pth (torch, 965973 bytes, 36 tensors)

encoder.0.weight f4 [256, 24]
000000 64 23 41 be 8b 62 1a be 77 05 3a 3e a4 9a 13 be
       -0.18861157 -0.15076654 0.18166147 -0.1441446
000010 e2 a0 4f be 1a 65 1f be 8c ae 13 3d 96 40 24 3e
       -0.20276216 -0.15565911 0.036055133 0.16040263
000020 d8 86 48 be 41 1a 40 bd ae e4 e1 bc 25 e6 2f be
       -0.19582689 -0.046900038 -0.027574863 -0.17177637
000030 9d 05 1f 3e 5d e8 07 be ff f7 db bd 83 f1 81 3d
       0.15529485 -0.13272233 -0.10740661 0.06344893
000040 e9 78 0b 3e f5 9d b5 3d f8 40 99 bc fc 0c 5c 3d
       0.13620342 0.088680185 -0.018707737 0.05372332
000050 ff 6e e8 3d 1e 1d 50 bd 50 5d df bd 06 23 de 3d
       0.11349296 -0.05080902 -0.1090647 0.10846524
000060 20 c7 0b be b7 82 06 3e d7 cf bb 3d 89 bd fa bd
       -0.13650179 0.13135801 0.09170502 -0.12243182
000070 0d b9 5b bd 03 34 75 3c fd c8 84 3d d4 ef 08 be
       -0.053643275 0.014966014 0.06483648 -0.13372737
000080 76 19 20 3e b8 e6 6d 3e 10 65 e6 bd d7 89 ec bd
       0.15634713 0.23232543 -0.11249745 -0.11549728
000090 87 09 42 be 84 ff fb 3c fd ee ff 3d 73 d0 6c bd
       -0.18948947 0.030761488 0.12496755 -0.05781598
0000a0 34 b8 f8 bd b3 96 3d bf c3 35 f5 bd cf 68 0d be
       -0.12144509 -0.74058074 -0.11973145 -0.13809513
0000b0 19 03 94 3d c4 5b 33 3e be 09 01 3e b0 ad 40 bd
       0.07227153 0.17515475 0.12601373 -0.04704064
0000c0 d2 e9 34 3e ef b1 6a be 9c 3f 1e 3e 55 5f 52 3d
       0.1766732 -0.22919439 0.15453953 0.051360447
0000d0 d2 ce 8f c0 9a 27 35 bd 5a f1 3b 3d e5 9e 88 3d
       -4.4939966 -0.04422722 0.045884468 0.06670932
0000e0 e2 5d 4e be 79 d0 99 3f 7d 23 78 bf 1f 1a f4 be
       -0.20153001 1.2016746 -0.9692915 -0.4767618
0000f0 76 86 3b 3f b5 10 92 3f d0 9c 8e 3e 4d 4f 46 3e
       0.73252046 1.1411349 0.27854013 0.19366188
000100 5a ef b3 3d 50 49 32 3f 22 f9 d2 3e ba a5 d3 bd
       0.08785887 0.69643116 0.41205698 -0.10334344
000110 02 e8 a1 be 2d e5 3c 3d b6 cf fc 3d b9 93 0c 3e
       -0.3162232 0.046116997 0.12344305 0.13728227
000120 6a 6e 31 3e 93 1a 29 bd 5d 77 3c 3e 87 01 d8 3d
       0.17327276 -0.04128511 0.18404908 0.10547166
000130 01 32 4f 3e 02 af 27 3e 89 d0 ef bc 75 f9 b0 bc
       0.20233919 0.16375354 -0.029274242 -0.021603325
000140 0d 0e 13 be 13 89 2a 3e 16 5b 1c bd e4 16 2c 3e
       -0.14360829 0.16653852 -0.038172804 0.16805607
000150 98 c0 48 3d 32 d5 72 3d 69 58 8e bd 2e cb 09 3d
       0.049011797 0.05928535 -0.06950457 0.033641033
000160 26 04 13 3e 06 2d 68 3d 33 f2 00 3e 69 5d 2e 3d
       0.14357051 0.056683563 0.12592392 0.04256955
000170 5b 70 f2 bb 46 b9 fe 3d a5 68 95 bd c2 3b cd bd
       -0.0073986477 0.12437682 -0.0729535 -0.100211635
000180 e7 f1 68 be ad a8 13 bc 21 f1 04 3e 5c ef 9f bd
       -0.22748528 -0.009012383 0.12982608 -0.07809326
000190 b9 25 7e 3f bc 86 21 be ed 3a f2 bc 32 a1 59 3e
       0.9927631 -0.15774053 -0.029569114 0.21252897
0001a0 6e 23 68 3e 51 43 f7 be d2 e5 48 bf 33 c1 a9 3e
       0.22669765 -0.48293546 -0.7847568 0.33155212
0001b0 13 4a 7b 3e 4f 7d 0c bf 50 c4 49 3e c4 92 bc bd
       0.24539976 -0.54878706 0.19703794 -0.09207681
0001c0 0f d9 4a 3e 7a 42 6d bf 6f 74 ac bd a0 1e 34 3e
       0.19809364 -0.9267956 -0.084206454 0.17589808
0001d0 85 e2 92 3d 4c 40 c4 be 7a 97 d4 bd de f8 19 be
       0.071721114 -0.38330305 -0.10380454 -0.15036342
0001e0 8f da 37 3e 8a f0 c7 bd a6 7d 0e 3d 98 9a 4a be
       0.17954467 -0.09762676 0.034787796 -0.19785535
0001f0 9d b5 0e be 76 62 8f bd 95 89 25 3e 23 9e c7 3d
       -0.13936467 -0.07001202 0.16165765 0.09746959
000200 75 06 ad bd df f9 e5 bd c5 71 e5 bd f3 6f b2 3d
       -0.08448497 -0.112293 -0.112033404 0.08712759
000210 09 d6 fc bc 79 73 3a 3d e6 45 ee 3d 8b 94 13 be
       -0.030863779 0.04552028 0.11634426 -0.14412133
000220 48 6e 27 be 9f 47 52 bc bd 45 91 3c 6f a8 04 be
       -0.16350663 -0.012834459 0.01773345 -0.12954877
000230 0b e5 9e 3a c8 1a 26 be a7 81 c1 3d bd 17 8a bd
       0.0012122703 -0.16221154 0.09448557 -0.06742809
000240 7b f7 e5 3d 8c e8 77 3d 3d 94 06 be ce 40 bd 3a
       0.11228844 0.06052451 -0.13142486 0.0014438869
000250 c4 ba 99 3c b7 74 77 bd d9 3a 11 3d 77 06 0d be
       0.018765815 -0.060414042 0.035456512 -0.13771997
000260 6c 02 98 3d dd 98 40 be 2d 9f c0 bd 55 87 57 be
       0.07422337 -0.18808313 -0.0940536 -0.21047719
000270 97 2f 10 3e 61 e9 84 3d f5 8e d6 3d c1 f5 08 be
       0.14080654 0.06489826 0.10476486 -0.13374998
000280 46 d8 ab bd 40 55 80 3c 1a f3 49 be bb 50 8f 3d
       -0.0839086 0.01566565 -0.19721642 0.0699782
000290 35 00 21 3e 22 dc 7c be e2 11 7a be 85 8c 9d bd
       0.15722735 -0.24693349 -0.24420884 -0.076928176
0002a0 4b b7 84 be 46 24 11 3e 39 51 5a be 89 f4 84 bd
       -0.2592109 0.14173993 -0.21320046 -0.06491954
0002b0 03 ab fb bd 19 ab d3 3d 44 88 d9 3d 25 57 88 bc
       -0.12288477 0.10335369 0.10621694 -0.016643116
0002c0 3f 58 ad bd 00 e9 33 bd c9 bf 9d bd ac 6a 63 bd
       -0.08464097 -0.043923378 -0.07702596 -0.055521652
0002d0 f2 6b 77 bc bd 79 1e bc ff cc d3 3c 1f 06 83 be
       -0.01510142 -0.009672579 0.025854586 -0.25590608
0002e0 39 9f 09 3e ee 54 9b 3d 01 31 00 ba c2 a1 0f 3d
       0.13439645 0.075845584 -0.00048901147 0.035066374
0002f0 36 17 c2 bc 37 62 7c be 37 9d 2d 3d 37 10 81 3d
       -0.023692708 -0.24646841 0.04238626 0.06301921
000300 08 cf fc bd 42 0e 4b bb 8d f2 02 3e fa e2 45 be
       -0.123441756 -0.003098384 0.12787838 -0.19324866
000310 ab eb 2d 3e 4c 2e 25 3e 9f 01 4d 3e b9 1a 8f 3c
       0.16984431 0.16130942 0.2002015 0.017468797
000320 ad 92 ae bd 32 ad 38 3e 49 a1 a8 3d 93 a3 90 bd
       -0.0852407 0.18034819 0.08233888 -0.07062449
000330 2e b4 0d bd 76 54 12 be f2 35 27 3e 99 d0 3c 3d
       -0.03459566 -0.14290032 0.16329172 0.04609737
000340 8e 17 c7 3c e5 d7 34 3d 59 5f 8a 3c 74 a0 3e be
       0.024303224 0.044151206 0.016891168 -0.18615896
000350 9c bf d6 3d 2c d5 83 3c 00 33 f8 bd a9 dc 24 be
       0.10485765 0.01609286 -0.121191025 -0.160998
000360 ed 5d 4d bd d5 0f 0a 3e cf 38 62 3d c0 75 b0 bd
       -0.050138403 0.13482602 0.05522996 -0.08616209
000370 a6 7f 2a bd ef ba 4f 3e ba ae fe bb e7 ae 8d bb
       -0.04162564 0.20286153 -0.007772294 -0.0043238285
000380 fc 09 fa 3d c4 0a 8d 3e 1a 79 c5 be ee 90 be 3d
       0.122089356 0.27547276 -0.38568956 0.09304987
000390 1d 52 3f 3e 04 2c 58 3d 45 fe 77 3d 55 c4 60 3b
       0.18683667 0.05277635 0.060545225 0.003429671
0003a0 34 51 30 be 9c 36 bc be 20 5c 64 3d dc e3 b4 3d
       -0.17218477 -0.36760414 0.05575192 0.08832523
0003b0 55 54 61 3c 78 b2 13 3e 47 d5 38 3e 9d 4e 90 bd
       0.0137530165 0.14423549 0.18050109 -0.07046244
0003c0 d5 0a 57 bd 94 f5 5c bd fa 41 7b 3e 16 36 51 be
       -0.052500565 -0.05394514 0.24536887 -0.20430788
0003d0 71 c1 9a 3e 2e b8 96 bd b8 4a 17 be 5b 60 ef bc
       0.3022571 -0.07359348 -0.14774597 -0.02922075
0003e0 04 30 56 3e 7f bf 2f be 6a f5 f1 be 10 8d 46 3e
       0.20916754 -0.17162894 -0.4725755 0.19389749
0003f0 b0 d8 f1 bd 21 dc ac 3f 90 55 31 be f7 1c 96 be
       -0.11808908 1.3504678 -0.17317796 -0.29318973

encoder.0.bias f4 [256]
000000 e9 81 50 be c4 ab a6 bd ce a2 07 be ab 85 33 be
       -0.20362057 -0.081382304 -0.13245699 -0.17531459
000010 6e 75 21 3e 93 e0 92 bd c4 3a d9 bd 4b c5 c8 bd
       0.15767452 -0.071717404 -0.10606912 -0.09803256
000020 ff 79 e2 bd 3d 55 21 bd dd 14 dd 3c 34 3d 2c 3e
       -0.11058425 -0.03938793 0.026987487 0.16820222
000030 f1 24 c2 3d 31 d3 25 3d c1 a0 50 3d 1e 96 55 bd
       0.09479702 0.04048461 0.050934557 -0.052145116
000040 c8 ab 36 bd c4 f7 e8 bc 66 cf 6a bc b0 e0 80 3d
       -0.044597417 -0.028438456 -0.014331674 0.06292856
000050 b7 17 27 3e 2c e9 20 bd 30 45 70 bd 35 d1 35 3b
       0.1631764 -0.03928487 -0.058659732 0.0027743105
000060 ed a2 48 be fe e0 6a 3d fe 7e 18 be 51 8a 21 3e
       -0.19593401 0.057343476 -0.14892194 0.1577542
000070 40 07 11 be e0 f0 f1 3d 9e 5f 3e 3e ef 2a 66 be
       -0.14162922 0.118135214 0.18591163 -0.22477315
000080 0f 23 e7 bd 76 9d a7 be a2 13 10 be 26 04 f9 3d
       -0.11285984 -0.3273732 -0.1406999 0.121589944
000090 44 b2 94 3d 00 08 13 be 9c c7 07 be e1 c5 b4 3d
       0.07260564 -0.1435852 -0.13259739 0.08826805
0000a0 c0 2c b8 3c 95 27 5c be 3b 0f b7 bb 56 ae b0 3d
       0.022482276 -0.21499474 -0.0055865324 0.08627002
0000b0 d3 e3 72 be 84 a5 d1 bd a9 09 cf 3d 8c 86 41 3e
       -0.2371972 -0.10236648 0.101092644 0.18898982
0000c0 bd 14 3b be ea db 0e 3e 39 13 ca 3d 92 4b d0 3d
       -0.1826963 0.13951078 0.09866948 0.10170664
0000d0 9c 26 64 bd 29 58 11 bb 21 81 38 be 78 e6 83 bd
       -0.055700883 -0.0022177792 -0.18018009 -0.06440443
0000e0 7b b7 39 3e 7c 6b 89 bd 3b fd ee 3c 24 5c d7 3d
       0.18136398 -0.06709954 0.029173484 0.10515621
0000f0 f7 d9 2f be 98 ab 01 be 8d 1b 10 3e 10 1d 20 3e
       -0.1717299 -0.12663114 0.1407301 0.15636086
000100 ed c8 4e 3e 78 8e 57 be 5a b3 46 3d ae be 13 be
       0.20193835 -0.21050441 0.048510887 -0.14428207
000110 bb 85 a6 bd 5a bd 09 3e 47 70 7f 3d 84 06 d1 bc
       -0.08130976 0.13451138 0.062362935 -0.025515802
000120 d8 4d 21 3e 2b 09 93 3d b5 f0 8b 3c fb 7e 03 bd
       0.15752351 0.07179483 0.017082551 -0.03210352
000130 66 60 65 be a7 44 55 3d 71 ae 49 be 27 0a dd bd
       -0.22400054 0.052067425 -0.1969545 -0.10792952
000140 b1 7d 06 3d 28 a4 8d 3d 0c c4 23 3e bf cf 00 3d
       0.032834712 0.06916076 0.15992755 0.031448122
000150 93 64 9c 3c e6 62 c3 bd ab f3 30 bd ea 43 bb 3d
       0.019090926 -0.09540348 -0.04320113 0.09143813
000160 9a 9b 43 3e eb f7 68 b9 5c fc 8e 3c dc 71 dc 3d
       0.19102326 -0.00022217601 0.017454319 0.107639045
000170 e7 f8 cf 3d fe 2f 01 be ac 34 07 be f2 e3 89 bd
       0.10154896 -0.12615964 -0.13203686 -0.0673293
000180 35 3e b8 3d cd 85 d2 bd 2a 06 f8 3d 62 96 4f be
       0.0899624 -0.10279427 0.12110551 -0.2027221
000190 a1 72 69 3d a7 96 26 3e 26 36 65 be 51 15 2a 3d
       0.056994084 0.16268407 -0.22383937 0.041524235
0001a0 14 d8 6d be a5 b5 34 be 41 08 32 be f3 c8 22 3c
       -0.23226959 -0.17647417 -0.17385961 0.009935605
0001b0 3d 56 01 3d 29 da 48 3e 9e 9d 26 3e f9 92 13 3e
       0.031576384 0.19614471 0.16271064 0.14411534
0001c0 00 fe f1 bd 23 9d 46 be 33 3c 0f be c8 24 21 be
       -0.11816025 -0.1939588 -0.13987808 -0.15736687
0001d0 5b 5d 10 be 97 e8 e4 bd c9 f3 2f bc 9f 5e 43 be
       -0.14098112 -0.111771755 -0.010739275 -0.19079064
0001e0 ca 77 a6 3d dd fd b9 b8 17 c9 2a 3d 3c 4a 01 be
       0.08128317 -8.868773e-05 0.04169568 -0.12625974
0001f0 21 9a 8c 3d ad 0e d9 ba c7 9b 2a be b8 70 6a bd
       0.06865335 -0.001656016 -0.16660987 -0.057236403
000200 e8 a7 61 3d a2 6d 4d 3e cf 36 92 bc 99 b9 01 be
       0.05509177 0.20061353 -0.0178484 -0.12668456
000210 3d 24 c7 bd 57 19 31 be 7a a1 32 bd df b5 31 be
       -0.09723709 -0.17294823 -0.043611027 -0.17354535
000220 47 5f 3c be dd e2 40 be 08 29 9f 3a f2 82 8e bd
       -0.1839572 -0.18836541 0.0012142966 -0.069585696
000230 dd 66 03 bd fc 63 09 3e 88 f9 0b 3e 82 74 59 be
       -0.03208052 0.13417047 0.13669407 -0.2123585
000240 bc 3b 3a be fd 41 47 bd 5c 37 09 be b3 ac 58 be
       -0.1818685 -0.048646916 -0.13400024 -0.2115963
000250 fe 16 ac bd 35 67 e6 bd 05 7f 01 3e d4 94 0a 3e
       -0.08402823 -0.11250154 0.1264611 0.13533336
000260 30 80 d9 3d 28 91 9b bd 03 e8 34 3e 94 a3 bd 3d
       0.10620153 -0.07596046 0.1766663 0.09259716
000270 28 6a 0a be d9 e0 e2 3d c4 54 05 bc 2a c3 6c be
       -0.13517058 0.110780425 -0.0081378855 -0.23121324
000280 ba a6 0b 3e 64 05 44 be bf af 58 3e 0e 83 b4 3c
       0.1363782 -0.19142681 0.21160792 0.022035148
000290 4b 5a 43 be 2d 4b 27 3d f4 4a f0 bd 4d 8b 3d be
       -0.19077413 0.040843178 -0.11733046 -0.1851017
0002a0 fc a9 b3 bd 6d 48 5a 3d b0 74 4e bd 4e c0 07 be
       -0.08772656 0.053291727 -0.05040425 -0.13256952
0002b0 c7 31 2d be d5 0e 6a bd b5 18 12 be 11 bc be 3d
       -0.1691352 -0.05714305 -0.14267237 0.093132146
0002c0 e5 62 2b be d7 ba 37 3e 9a e5 a9 3d 5f 96 04 3e
       -0.16736944 0.17942367 0.08295746 0.12947987
0002d0 6b 96 47 bc 9b 06 0d be e9 b1 3f be 7f 6a 79 be
       -0.0121818585 -0.13772051 -0.18720211 -0.24357031
0002e0 98 d9 2a bd 9f f3 24 be f1 56 07 3e 7b 4d 1c 3e
       -0.04171142 -0.16108559 0.1321676 0.15263931
0002f0 d8 d0 08 be e3 b8 fb 3d 53 13 9c bd 8d a3 23 3e
       -0.13360918 0.12291124 -0.07620873 0.15980358
000300 6c 45 aa 3d 30 ec c2 bd ac 7c b5 3d 10 ff 80 bd
       0.083140224 -0.095177054 0.0886167 -0.06298649
000310 85 1a 14 bd 2f ef c2 bd e1 48 20 3e 77 b3 1b be
       -0.036158103 -0.09518277 0.15652801 -0.15205179
000320 e1 f3 18 3d ab d0 94 3d de 71 1e bd c3 58 2c be
       0.037341956 0.07266363 -0.03868281 -0.16830735
000330 cf a5 b7 bd ac fc d6 ba eb 6e fd bd 1d 2f 49 be
       -0.08967172 -0.0016402206 -0.123746715 -0.19646879
000340 7d 1e 40 be 04 bf 95 bd d5 22 21 be 5f d0 67 3d
       -0.1876163 -0.07311824 -0.15735944 0.056595203
000350 45 5c 75 bc ae 8a 22 3e de 53 9f 3c 55 03 9f bd
       -0.014975612 0.15873215 0.01944917 -0.077643074
000360 11 b6 3d be b5 a1 4d bc 00 24 d8 bd 44 0a 8e 3d
       -0.18526484 -0.012550761 -0.105537415 0.06935552
000370 3a 41 98 bd 3d e3 38 3d c6 4f 17 3e 58 f7 c3 bd
       -0.07434316 0.045138586 0.14776525 -0.095686615
000380 12 60 ad bd 57 26 68 bd fd fa fd bc 73 a6 21 be
       -0.084655896 -0.05667719 -0.03100347 -0.15786152
000390 28 d5 37 be 41 04 2d be 46 4c 86 3c 4d e9 2d 3e
       -0.17952406 -0.16896154 0.016393792 0.16983528
0003a0 f8 df f4 3d ee 8b 3b 3e b6 df 31 be 0f d1 58 3c
       0.11956781 0.18315098 -0.17370495 0.013233437
0003b0 74 22 7a be ca 63 a5 bd 33 d0 37 be 64 28 f2 3d
       -0.24427205 -0.08075674 -0.17950515 0.1182411
0003c0 f4 15 93 3d 7c 2d 71 bd 88 ec 9a bd 82 04 3c 3e
       0.071819216 -0.058881268 -0.07564646 0.18361095
0003d0 b5 62 28 3d b5 f9 dd 3c 4c a4 13 be d4 22 0d be
       0.04110976 0.027096609 -0.14418143 -0.13782817
0003e0 4b 41 0c 3e 98 60 b6 3d 32 a0 68 be 2b e5 a9 bd
       0.13696782 0.089051425 -0.2271736 -0.082956634
0003f0 8a a2 2b bb cc cd 90 3e 95 b6 0d bd ba 89 97 3d
       -0.002618941 0.2828201 -0.034597952 0.07399316

encoder.2.weight f4 [128, 256]
000000 64 2a b5 3c 88 f6 17 bc 18 b4 15 bd 5c 15 6e bd
       0.02211494 -0.009275086 -0.036548704 -0.05812584
000010 76 0d 6d bd 20 70 e6 bc 74 3d 74 3d 0c a0 b2 3c
       -0.057874165 -0.028129637 0.05962892 0.021804832
000020 8c e0 5c 3d f0 e8 a6 3c d8 67 15 bc b0 3f c8 bb
       0.053925082 0.020374745 -0.009118997 -0.0061111078
000030 8a 1f 27 3d ea d0 53 bd f2 91 31 3d 5e 50 56 bd
       0.040801562 -0.051712908 0.043352075 -0.052322738
000040 18 68 b2 3c 10 14 8f 3c e4 b6 2b bd 9c 86 a3 3c
       0.021778151 0.017465621 -0.041922465 0.019961648
000050 70 c7 c8 bc b8 d6 0c 3c 96 42 72 bd 70 84 dc 3b
       -0.024509162 0.008596115 -0.059145533 0.006729655
000060 a0 f5 31 bc 82 8c 54 bd 70 ce c0 3c ec 40 f8 3c
       -0.010861784 -0.05189181 0.023535937 0.030304395
000070 b8 c1 5f 3c 80 4b 74 3d e0 3e 95 3b 10 fb d6 3c
       0.013657026 0.059642315 0.0045546144 0.026242763
000080 10 44 0c 3d 08 50 32 bd 94 91 15 bd 50 aa 1d bd
       0.034244597 -0.043533355 -0.036515787 -0.0384925
000090 ac 0b dd 3c bc 82 da 3c e0 11 f6 bc 00 78 db 3c
       0.026983105 0.026673667 -0.03003782 0.026790619
0000a0 dc 9b 54 bd 88 47 27 bc 58 06 77 3c 14 31 eb 3c
       -0.05190645 -0.0102099255 0.015077196 0.028709926
0000b0 bc ff 1b bd 8a 14 30 bd 82 e4 75 bd d0 2c 66 3c
       -0.038085684 -0.042988338 -0.060032375 0.01404877
0000c0 b0 9b 6f bd ea c4 1e 3d e0 5a 36 3b 60 59 bc bb
       -0.058498085 0.03876201 0.0027825162 -0.005747959
0000d0 f0 26 99 bc f6 6a 7b bd e0 01 b5 3c 30 fd 66 bc
       -0.018695325 -0.061381303 0.02209562 -0.014098451
0000e0 d8 64 51 3d e4 1b 41 3d 5e 88 57 3d 50 23 92 3b
       0.051121563 0.04714574 0.052620284 0.004459776
0000f0 c8 49 44 3d 2c 68 6e 3d d0 19 dd bc ea ef 6e bd
       0.047921926 0.058204815 -0.026989847 -0.05833427
000100 3a e2 5c bd 10 20 d1 bb 28 40 b7 bc 5e 9d 52 bd
       -0.053926684 -0.006381996 -0.02236946 -0.05141961
000110 18 5b 74 bd b0 09 63 bc a0 33 18 bd 80 5a 40 3c
       -0.059657186 -0.01385729 -0.03715861 0.011740327
000120 be f2 44 bd 80 34 04 bd b8 55 67 bc 70 8a df bb
       -0.04808306 -0.03227663 -0.014119558 -0.006821923
000130 16 52 14 bd 00 49 63 bb 50 52 92 3b d0 e8 0c bc
       -0.036211096 -0.0034680963 0.004465379 -0.008600429
000140 ce 37 49 bd b6 84 70 3d 82 6c 5a bd 58 7f ed 3c
       -0.049125485 0.058720313 -0.053326137 0.028991386
000150 f6 c2 77 bd ec 2d 5b 3d 24 12 48 bd 3c 93 fc bc
       -0.060488664 0.05351059 -0.048845425 -0.030831926
000160 3a 1a 0f bd 8e 32 3c 3d ae 90 56 bd 48 0f bd bc
       -0.03493712 0.04594665 -0.05238407 -0.023078576
000170 0c dd 79 bd f8 11 d8 3c 22 c5 6b bd fc 9e 0d 3d
       -0.061001822 0.026375756 -0.057561047 0.034575447
000180 5a e4 53 bd 7c d6 93 bc 92 51 00 bd 70 91 04 bd
       -0.051731445 -0.01804661 -0.03132779 -0.032365263
000190 e0 9e 3c 3b 60 2c 82 3b 7e d4 7f 3d c8 8c 8e 3c
       0.002878122 0.003972575 0.062458508 0.017401114
0001a0 f0 80 e8 3c 6e c1 14 3d 1c c7 ef 3c 8c 78 cb bc
       0.028381795 0.03631728 0.029269747 -0.024837755
0001b0 a0 c2 fa 3b 20 ac d5 3b f0 dc 50 3c 60 f1 4a 3c
       0.0076525956 0.006520763 0.012747988 0.01238665
0001c0 12 8d 7b 3d e6 50 55 3d 30 5f 24 bc 60 19 f6 3b
       0.061413832 0.052079104 -0.01003246 0.007510349
0001d0 8c 4e 64 bd 40 cc 08 3d 14 25 f5 3c 80 24 f4 bb
       -0.05573897 0.033397913 0.029924907 -0.00745064
0001e0 fe 91 4c bd d0 48 22 3d 08 18 63 bd 34 84 d6 3c
       -0.049943916 0.03962022 -0.05544284 0.026186086
0001f0 2e 6d 03 bd f0 d1 37 bc 78 4e 76 3c c0 e0 48 3d
       -0.032086544 -0.011219487 0.015033357 0.049042463
000200 6a e5 13 bd a0 12 7f bb 10 76 2f bd 60 ee 43 3b
       -0.03610746 -0.0038921013 -0.042837203 0.0029896721
000210 e0 09 59 3c 08 37 a8 bc e8 e6 e9 bc 8a 59 24 bd
       0.013246983 -0.020534053 -0.028552487 -0.040124454
000220 c0 a7 80 3c 88 6e 80 3c 80 2f 6e 3c 88 cc 64 bc
       0.01570499 0.015677705 0.014537692 -0.01396478
000230 78 0a ee bc 10 57 a9 bb 76 78 31 bd c0 7d 26 bb
       -0.029057726 -0.0051678494 -0.04332777 -0.0025404543
000240 7e 93 59 bd e0 99 68 bd c0 8d fd 3a 50 81 49 3c
       -0.053119175 -0.05678737 0.0019344613 0.012298897
000250 8e 4d 6b 3d 70 d4 01 bd da 8b 5a bd d8 f1 30 3c
       0.05744701 -0.031696737 -0.05335603 0.010799848
000260 b2 73 2a bd 2c ae a7 bc 18 53 4d bd 80 45 cc 3a
       -0.041614242 -0.020468794 -0.050128073 0.0015584677
000270 b0 0a 2f 3d 3e 43 76 bd 70 fc c0 3b c6 41 6b 3d
       0.0427348 -0.06012272 0.005889468 0.057435773
000280 2e c0 2b bd b0 4e b0 3b 80 e4 a4 3b c0 81 f4 bb
       -0.041931324 0.005380474 0.005032122 -0.0074617565
000290 9c 20 5b bd 96 12 5b 3d 30 f3 f1 3c 18 17 49 3c
       -0.053497896 0.05348452 0.029534906 0.012273572
0002a0 fa ac 1c bd c0 c0 d2 ba 5c b6 76 bd 90 5b 4a 3d
       -0.0382509 -0.0016079172 -0.060232505 0.049403727
0002b0 c4 5f c9 3c ec 85 b0 3c 60 fd 0e 3b c8 30 1e 3d
       0.024581797 0.021548234 0.0021818504 0.03862074
0002c0 7a ad 0e bd 60 74 07 bd 3e 85 7f 3d 98 04 ff 3c
       -0.03483341 -0.03306997 0.06238293 0.03113012
0002d0 a0 5a 4b 3c 10 f7 a6 3c c2 21 02 bd 72 7a 75 3d
       0.012411743 0.02038148 -0.031770475 0.059931226
0002e0 8c 34 c5 bc bc 5b 18 bd 4c 13 44 bd a0 68 69 3d
       -0.024072908 -0.03719686 -0.047869965 0.056984544
0002f0 18 e1 e5 bc c4 63 04 bd b0 eb e5 3b 00 7f e3 3c
       -0.028061435 -0.032321706 0.0070166215 0.02777052
000300 60 1c 84 3b 30 02 f3 bb 40 19 a7 bb 28 a7 17 3d
       0.004031703 -0.0074160323 -0.0050994456 0.037024647
000310 da 25 3e bd 6a c6 7a bd 04 13 be 3c d0 7f 5e 3d
       -0.046422817 -0.06122438 0.023202427 0.05432111
000320 f8 c5 21 3d c4 60 b1 3c a4 4a 27 bd 3e 20 71 3d
       0.03949544 0.021652587 -0.040842667 0.05886864
000330 a0 8e e3 bb 1a 44 68 3d b6 05 5c bd c0 a1 7d 3d
       -0.0069444925 0.05670557 -0.053716384 0.061921835
000340 bc 89 63 bd b8 42 81 3c 30 3c 40 3d c0 6a 61 bb
       -0.055551276 0.015778884 0.0469324 -0.0034395903
000350 4c 44 df 3c d0 00 b3 3b c8 96 4f bc d8 f3 38 bc
       0.027254246 0.0054627433 -0.012670226 -0.011288606
000360 30 0f 0e bc 70 0e f8 bb 50 69 99 bb 90 e3 fa bb
       -0.008670613 -0.0075700805 -0.0046817437 -0.007656522
000370 38 c9 f3 bc a8 70 b4 3c 86 17 38 bd a8 e5 09 bc
       -0.029759035 0.022026375 -0.04494431 -0.008416571
000380 3a e9 68 bd 26 4b 5e bd 9a 11 5a bd d0 d9 e9 3c
       -0.056863047 -0.054270886 -0.053239442 0.028546244
000390 1c 27 96 bc 00 70 19 b9 8a b9 27 3d 00 db 5b ba
       -0.018329196 -0.0001463294 0.04094843 -0.00083868206
0003a0 9c 77 4c 3d 30 26 d2 3c ac 00 11 3d 30 e8 0d bc
       0.049918756 0.025652975 0.03540103 -0.008661315
0003b0 74 e5 9c 3c 22 ca 4c bd 96 16 21 bd 94 b3 09 3d
       0.01915238 -0.049997456 -0.03932818 0.033618525
0003c0 0e 7d 70 3d 32 99 37 3d b8 4d 68 bc d4 99 72 bd
       0.05871301 0.044823833 -0.014178686 -0.059228733
0003d0 90 e6 c2 bb 94 e3 f0 bc 58 c7 25 3c 74 bb 71 3d
       -0.0059478953 -0.029405393 0.010118328 0.05901666
0003e0 c0 44 4e bd 6e 0f 0d bd dc 33 7b bd ba cc 24 3d
       -0.050358534 -0.034438543 -0.061328754 0.040234305
0003f0 94 98 e3 bc fc 72 e0 bc 42 03 28 3d 8c 43 78 3d
       -0.027782716 -0.027398579 0.041018732 0.060611293

encoder.2.bias f4 [128]
000000 00 df 90 3c 91 15 9c bd c7 c5 c6 bd 31 7d 4d be
       0.01768446 -0.07621301 -0.09705692 -0.20067288
000010 81 b9 00 3b ac e7 ec bd 8f 0d 78 3d a5 b0 9c bd
       0.001964182 -0.115676254 0.060559805 -0.0765088
000020 5a f6 df 3d 50 6e 8c bd af 26 72 bd f4 1a 80 bc
       0.1093566 -0.06856978 -0.059118923 -0.015637852
000030 39 2e e9 bd 49 06 ed 3d 60 8e a9 3b d5 9f e2 3d
       -0.113857694 0.115734644 0.005174443 0.11065642
000040 45 4d bf bd 9a 36 af bd 6d 47 ec bc 2d 68 30 bb
       -0.0934091 -0.08555336 -0.028842652 -0.0026917562
000050 7c 14 9b 3c 77 cc a4 bd a9 de 0e 3c bc 17 ad bb
       0.018930666 -0.08046811 0.0087200785 -0.0052823704
000060 54 0d 8b bc 3e 12 8d be bd 99 6b 3d 9b 4a f1 bb
       -0.016974129 -0.2755298 0.057519663 -0.00736363
000070 41 e2 dc 3c d8 9c 1d bd f2 4f cc bd c0 3d 0a bd
       0.026963355 -0.038479656 -0.09976186 -0.033750296
000080 22 1a 03 bd 12 7c 97 3c 88 87 01 3e dc 81 81 bc
       -0.032007344 0.018491779 0.12649357 -0.015808992
000090 80 93 45 bc ea 47 ce bd 80 24 f2 3d 73 1b 5c 3d
       -0.0120590925 -0.1007231 0.11823368 0.053737115
0000a0 52 8e 54 3d 10 9f c1 3b 8c 39 b7 3c 43 5c be bb
       0.05189354 0.0059088543 0.022366308 -0.0058093383
0000b0 e9 f4 4d bd ba c5 c2 bd e7 fb 2a bd 3f 10 73 3c
       -0.050282393 -0.095103696 -0.04174414 0.014835416
0000c0 44 e5 cd 3c 24 50 22 3c d9 d9 1d 3c 11 11 81 bd
       0.025133736 0.009906802 0.009634458 -0.06302083
0000d0 10 30 32 3c c4 f1 7a be 17 86 cd ba c0 5b 59 bd
       0.010875717 -0.24506289 -0.0015680221 -0.053066015
0000e0 06 ae 00 3d e1 0f 7d bd ec ae 68 bd 7e 33 ba bd
       0.03141596 -0.06178272 -0.056807443 -0.090918526
0000f0 d2 91 89 bc a9 74 54 bb b3 85 04 bd 02 20 54 bd
       -0.016793165 -0.0032418168 -0.032354068 -0.051788338
000100 ba 4d ca 3d 94 b5 99 bd 1a 44 1b be b9 98 d6 3c
       0.098781064 -0.075053364 -0.15162697 0.02619587
000110 1d 2c a3 bc dc 39 ce 3c 1c 95 a1 bd e1 3f 4a 3d
       -0.019918496 0.025174074 -0.078897685 0.049377326
000120 65 54 ad bd a1 03 d4 bc 0f 3d 98 bc 36 2e a6 bd
       -0.084633626 -0.025880637 -0.018583803 -0.08114283
000130 70 10 27 bd 0c 12 84 3c 5f d9 25 bd 40 91 6d 3d
       -0.04078716 0.016121887 -0.040490504 0.05799985
000140 98 92 7b 3d 57 9d 24 bd e2 0f 05 3e d8 ab e6 bd
       0.0614191 -0.040189113 0.1299434 -0.11263245
000150 24 df 40 bd 38 d1 6a bc f4 ff 56 3d ac c2 cb bc
       -0.047087803 -0.014332108 0.05249019 -0.0248731
000160 97 f0 59 bd a0 f6 50 bb 3a 8b 4d bd e2 06 fc 3c
       -0.05320796 -0.0031885281 -0.050181605 0.030765
000170 97 aa ee bd e7 fd 17 3d 61 1b ad bc d4 25 91 bd
       -0.11653631 0.037107375 -0.02113122 -0.07087293
000180 76 32 4d bd 7e 39 37 3d 5f a3 48 bd 31 24 52 bd
       -0.05009695 0.044732563 -0.048983928 -0.051304046
000190 4d 98 45 bd 91 e5 5c bc d2 85 3e bd 0f 9a a1 bd
       -0.04824095 -0.013482467 -0.04651434 -0.078907125
0001a0 9f ff c2 3d a0 12 ab 3d c1 26 14 be 60 19 b8 bd
       0.09521412 0.08353162 -0.14467908 -0.08989215
0001b0 8f f0 f4 3c 16 ec 1f 3d d8 bd 1b 3c 07 b2 65 bd
       0.029899864 0.03904351 0.0095057115 -0.056077983
0001c0 b2 3b 07 3d df df 60 3d 61 b6 9f 3d e0 5c e1 bc
       0.033015914 0.054901 0.07798458 -0.027510107
0001d0 dd 36 f3 bc bb 84 05 bd ba 95 d4 3d a2 c9 1d 3d
       -0.029689247 -0.032597285 0.103801206 0.03852237
0001e0 b8 b6 82 bd db 76 b6 bd 97 16 ca bd 1d 2c 84 3d
       -0.06382507 -0.08909389 -0.0986759 0.064537264
0001f0 3c 67 b6 bd 07 61 af bd 93 ac 14 3d 3a 3a a2 bd
       -0.08906409 -0.08563428 0.036297392 -0.07921262

encoder.4.weight f4 [3, 128]
000000 d0 4b 29 3b 72 50 71 bd f0 9e 82 bc 64 25 14 3e
       0.0025832541 -0.05891461 -0.015944928 0.14467388
000010 1e 68 9e 3d 8d 3c 48 bd 8b 0b 7c 3e 4e 55 dd 3c
       0.077347025 -0.04888587 0.24613778 0.027018216
000020 4b 07 40 3e 38 8a e4 3c 72 2b f4 bc 0e 10 85 bd
       0.18752782 0.02789794 -0.029805873 -0.06497203
000030 54 6c a9 bc 86 e3 92 3d 02 55 48 3d df 44 be 3d
       -0.020681538 0.07172303 0.048909195 0.0929048
000040 26 2b 36 bd e2 c2 d7 bc 2b 0f 1a 3b 85 aa 85 bd
       -0.044474743 -0.026338045 0.0023507576 -0.06526665
000050 c2 ae 11 3e ac e1 10 bd fd ee 9c bd 60 7a 8e 3c
       0.14226821 -0.035371467 -0.07662771 0.017392337
000060 72 88 98 3c e3 68 9f be 23 4e ad 3d 18 05 6f 3c
       0.01861975 -0.3113471 0.08462169 0.014588617
000070 95 07 ae bc 30 c3 01 3e bf c6 e4 bd 6e 54 dc 3b
       -0.02124385 0.12672114 -0.1117072 0.006723932
000080 6d 32 00 3d 5e 4a ac 3d 60 ad 5a 3e 19 37 b4 3b
       0.03129809 0.08412622 0.213552 0.005499732
000090 8f 06 b1 bc 59 80 df bd b8 2d e1 bd 9f 95 25 3e
       -0.021609573 -0.10913152 -0.10995048 0.16170357
0000a0 1e f2 9e bd d5 4c a0 3c e5 ba 6e bd 98 f0 b5 bd
       -0.07761024 0.019567886 -0.058283705 -0.0888378
0000b0 18 b8 dd 3d 56 cb d0 bd 45 84 01 3e bf a6 f2 3e
       0.10826129 -0.10195033 0.12648113 0.47392842
0000c0 5b 64 4a bd a7 50 8b bd 4c 7c 96 3d a7 c2 54 3b
       -0.049412113 -0.068024926 0.073479265 0.0032464655
0000d0 a4 a9 6b bd bf 7d 99 3e 05 11 19 3d 78 d1 c8 3c
       -0.05753483 0.2997875 0.037369747 0.024513945
0000e0 48 7f 2c 3e 5a 3e ed 3c 2d 2e 9a bd 98 02 99 bd
       0.16845429 0.028960396 -0.075283386 -0.07471198
0000f0 f0 2e b4 3d 92 98 b3 bc 04 38 a7 bc a0 e8 99 bb
       0.08798015 -0.021923337 -0.020412453 -0.0046969205
000100 97 45 97 bd c1 fc 67 bd f0 e9 4b 3e 12 10 59 bd
       -0.0738632 -0.05663753 0.19913459 -0.05299384
000110 87 7e 1b be 60 68 9c bd 09 e3 9f 3d c0 4b 82 bc
       -0.15184985 -0.076370955 0.078069754 -0.015905261
000120 a6 de 78 3c 16 ef 9b 3e 4d 71 25 3d a5 2c 93 bc
       0.015189802 0.30455846 0.040391255 -0.017965624
000130 5e c4 a2 bc 76 12 71 3d 68 40 59 3b 46 6b a2 bd
       -0.019869026 0.058855496 0.0033149961 -0.07930617
000140 2f 00 5e bd 23 d7 3d bd 70 ac 8f 3d 51 8f cd bd
       -0.054199394 -0.04634775 0.07015312 -0.10037101
000150 11 93 b1 bc 5d b2 04 bd 2a e3 1e be 46 12 a8 3d
       -0.021676572 -0.032396663 -0.15516344 0.082066104
000160 1e 3e 24 bd 26 6f b3 3d 8d f5 a0 bd 4d 6a a5 3d
       -0.040098302 0.08761434 -0.07859335 0.08076916
000170 9b b9 ac 3d 67 9b 00 3e bb 96 83 3d 8e 11 d5 3d
       0.08433839 0.12559281 0.06425234 0.10403739
000180 19 bd 49 3c 0f 9f a2 3d 6c bd b0 3b fe b6 5d bd
       0.012313151 0.07940494 0.0053936746 -0.054129593
000190 4b 03 17 3e 9e 87 99 bd 76 22 bb 3c ad 6f ef 3b
       0.1474735 -0.0749657 0.02284358 0.007307014
0001a0 72 6a 52 3e 32 16 59 bd ca f0 01 bc 5f 16 0c be
       0.20548418 -0.052999683 -0.007930944 -0.13680409
0001b0 2e 97 2f bd 5f 34 93 bc 57 db 5a 3c cf 8d 3b bd
       -0.042868786 -0.017969308 0.013357959 -0.045789536
0001c0 43 e0 82 3d 8c c8 5b bd a6 fb 8a bd 61 ff 0b bc
       0.06390431 -0.053658053 -0.067862794 -0.008544774
0001d0 5d 50 4d 3e eb 55 5d bd 2f 68 81 bc 5c 6a dc 3d
       0.20050187 -0.054037016 -0.015796749 0.10762474
0001e0 74 a7 fb bd ec f0 79 3d 03 76 cb bd 1a 03 4b be
       -0.122877985 0.061020777 -0.09934618 -0.19825402
0001f0 fe bf 24 bc 8d 01 15 bc 70 d2 02 3e 06 ee 34 3d
       -0.01005554 -0.009094608 0.12775588 0.04417231
000200 54 71 0c 3d 69 fe c3 3d f3 9f d7 bd 00 d7 e5 bd
       0.034287766 0.09570009 -0.10528555 -0.112226486
000210 0f 9d a4 be b3 80 79 3c 8c 2d 21 3d 8f 48 e5 3d
       -0.32151076 0.015228438 0.039350078 0.1119548
000220 0d 27 26 3d 54 0e d5 3d 52 ee a2 3c 48 f9 fc bc
       0.040564585 0.104031235 0.01988903 -0.030880585
000230 69 14 01 3e 71 7f cb be 57 d8 72 3d 72 30 3a bd
       0.12605442 -0.39745668 0.05928835 -0.045456357
000240 d1 44 83 3d c3 10 37 3c 5d 12 bd bd ab e2 1e bc
       0.0640961 0.01117343 -0.09232018 -0.009697597
000250 7e 34 13 3a f8 71 ce 3c 2d 80 3b bc 18 ee 2c 3c
       0.0005615427 0.025200829 -0.011444134 0.010554813
000260 49 46 6d 3d 32 e8 4e be bd 08 f3 3d 29 d3 4c 3b
       0.057928357 -0.20205763 0.11866901 0.003125379
000270 de bb 70 3d 7c d2 46 bd 4e 28 f1 3d 1d 38 70 3d
       0.058772914 -0.048540577 0.11775266 0.058647264
000280 f2 68 25 bd 4e 31 bb bb 8d f4 9e bd eb 8a ba bc
       -0.040383287 -0.0057126647 -0.07761488 -0.02277132
000290 8a 9e be bd 4a 8e 96 bd ee dd 7f 3c 92 35 c7 3c
       -0.09307583 -0.07351358 0.015616877 0.024317537
0002a0 c3 df ec 3b b2 e0 a2 bc d3 64 60 3b f9 71 8d bd
       0.007228823 -0.019882534 0.0034239783 -0.06906504
0002b0 0e 0d 7b 3c f7 6d fc 3d 76 83 12 bd 6d 78 8a 3e
       0.015322937 0.12325662 -0.035769902 0.27045003
0002c0 6d 91 34 3c 68 2a 59 bd 00 23 b2 bd 04 77 45 bd
       0.011021 -0.053018957 -0.08698082 -0.048209205
0002d0 47 20 77 bd 75 cd 08 be dd f4 f9 bd 66 02 02 bd
       -0.060333516 -0.13359626 -0.12204907 -0.03174057
0002e0 60 fd 8f bb b1 ab 9c bc 58 fd 80 bd a9 5d d2 bd
       -0.0043942183 -0.019124838 -0.062983215 -0.102717705
0002f0 cf bb cc bb d6 00 47 bc 42 c6 b7 3d e0 6a ea bd
       -0.0062479745 -0.012146195 0.089733616 -0.11446166
000300 cb 9c 83 3d bd 0d 89 3d 18 cf b3 3d 3b 24 0b be
       0.0642639 0.066920735 0.087797344 -0.1358804
000310 09 1e 88 bd 4f 21 05 3c ae eb d5 bd 28 2d e3 bd
       -0.06646354 0.008125617 -0.10445343 -0.11092597
000320 85 4e ff bd a6 be d2 bb 96 cd 84 bd a2 02 e7 bc
       -0.12466148 -0.0064314185 -0.06484525 -0.028199498
000330 5f 0f ab 3d 72 dd b3 bc 21 e4 0e be e7 6c d9 3d
       0.08352541 -0.02195618 -0.13954212 0.106164746
000340 f5 56 12 3d 03 05 06 3d 6e ad 84 3d ad e8 bd bc
       0.03572746 0.032719623 0.064783916 -0.023182238
000350 d2 ea 1e bd aa e7 33 3c 32 7f 59 3e 6e d3 21 3d
       -0.03879816 0.010980526 0.21239927 0.039508276
000360 e0 a0 88 3d 09 d9 a9 3d 63 13 5c bd 90 2e e2 bd
       0.066713095 0.08293349 -0.053729426 -0.11044037
000370 86 ac c6 bd b5 62 b0 bd 22 d0 d5 be 1d 01 99 3c
       -0.09700875 -0.08612577 -0.41760355 0.018677289
000380 d0 94 29 bd d6 28 37 3d ac 0e 0a 3e dc 54 a3 bc
       -0.041401684 0.04471668 0.1348216 -0.019937925
000390 c9 23 fb bd d2 eb dc 3a 2d 10 3b 3d 00 5d 43 bc
       -0.12262685 0.0016854948 0.045669723 -0.011924028
0003a0 30 c3 30 3d ce 31 d3 3c 03 4f 69 bd 9d 3f 80 bd
       0.043154895 0.025780585 -0.056960117 -0.06262133
0003b0 e6 3e 8f bc e2 a9 5f 3c 6d 8e 8b bd dd a0 d4 bc
       -0.017486047 0.013651343 -0.06814275 -0.025955612
0003c0 fa c1 6c 3d e8 10 cb bd f3 14 4b 3d f7 1f 9f bc
       0.057802178 -0.09915334 0.049580526 -0.019424422
0003d0 6d 0f b8 3e 14 0e 30 3d b8 06 d4 bc 86 2b a0 3c
       0.3594927 0.042982176 -0.02588211 0.019552004
0003e0 64 15 bc bd 2a 85 22 bd 94 12 8d bd af b1 f7 3e
       -0.091837674 -0.039677776 -0.06888309 0.4837775
0003f0 2e db c9 bd b8 69 90 bc 75 75 76 3c fd 0b bd bb
       -0.09856258 -0.017628536 0.015042652 -0.0057692514

encoder.4.bias f4 [3]
000000 7e dd 01 3d 86 60 ff bd 26 1d 04 be
       0.031705372 -0.12469582 -0.12901744

decoder.0.weight f4 [128, 3]
000000 07 9c 0b be cc 97 de be dd 53 f8 3e ac 8e 5d 3d
       -0.13633738 -0.43475187 0.48501483 0.05409114
000010 01 ef 61 3e c3 08 04 3f d5 ef 37 3e 01 f3 24 3d
       0.22063829 0.5157587 0.17962582 0.04027081
000020 2b 16 0c 3f cd 09 a2 bf 10 3b 84 3d af 9d 2e bf
       0.54721326 -1.2659241 0.06456578 -0.68209356
000030 59 4d ff 3e f5 14 90 3d 12 90 42 be 8d 68 e7 3d
       0.498637 0.07035247 -0.19000271 0.11299238
000040 8a 54 50 3f 37 de 3d 3f ad dc bb 3e fd f8 9a be
       0.81378996 0.741672 0.366918 -0.30268088
000050 8b 7d a7 bc f4 f5 13 3b ed ee 9e 3e bb ac 92 be
       -0.020445606 0.002257702 0.3104166 -0.28647408
000060 11 7f 14 3f a5 d2 92 3f 85 fb c7 3e 4d 2a 07 3f
       0.5800639 1.1470534 0.39059082 0.5279892
000070 c2 bc 9f 3d 10 7b 7d bd 65 57 6c 3e 1f 18 28 3e
       0.077996746 -0.06188494 0.23080213 0.16415451
000080 42 35 17 3f 45 79 4b be aa 64 49 3f d3 cc b2 3e
       0.5906564 -0.1987048 0.78669226 0.34921893
000090 3f 6d 25 3f be 4b 3b be f8 02 51 3f 29 c7 0d 3f
       0.6461982 -0.18290612 0.81645155 0.5538202
0000a0 25 e6 e8 bd 82 2b 41 bd 84 b3 93 3c 81 97 6c be
       -0.113720216 -0.047160633 0.018029936 -0.23104669
0000b0 e8 e2 a6 be 34 0c 19 bf 6f 9c 57 be 4c d8 fd be
       -0.3259499 -0.59784245 -0.21055768 -0.49579084
0000c0 7d b2 ff bc 97 96 12 3e 22 86 50 3f 14 2c cb bd
       -0.03121304 0.14315258 0.8145467 -0.099205166
0000d0 38 92 6d 3e 42 e2 25 3e 24 09 ce be 2c 63 c3 3d
       0.2320031 0.16199592 -0.4024135 0.095404
0000e0 50 58 d1 3e f4 ea 8d bd e8 4c 32 be ad 5f fa be
       0.4088769 -0.069295794 -0.1741215 -0.4890112
0000f0 ea 77 6b bd 07 b0 e1 3e 87 51 04 3f 6f ce 48 bf
       -0.057487406 0.4407961 0.516869 -0.7843999
000100 db 4f 18 bf ff a7 73 3d 82 eb ee 3e f4 fa 4a be
       -0.5949685 0.059486385 0.46664053 -0.19822294
000110 d5 bd 18 be dc a9 2e 3e ce bb 6e 3e b1 b3 c3 be
       -0.14916165 0.17056984 0.2331383 -0.3822303
000120 9d cd 9b 3e bb a0 83 bd 6a 8f e4 bd 0c b4 8b be
       0.30430308 -0.06427141 -0.111601666 -0.27285802
000130 64 30 ba 3e 88 46 dd be 16 96 f1 3d 8c e8 90 3d
       0.36365044 -0.43217874 0.11796205 0.07075605
000140 1c 3a 5c be e1 9f 1f bc a4 3d 16 3d 93 e9 ce be
       -0.21506542 -0.009742708 0.03667988 -0.40412578
000150 e0 e9 12 be 6f 2d 1f be d2 f9 d5 3e 3e 56 c4 bd
       -0.14347029 -0.15544675 0.4179216 -0.09586762
000160 8f c2 8f 3e 70 d1 97 3e 1e 48 d3 bd f8 33 c7 be
       0.28078124 0.29651976 -0.1031649 -0.38906837
000170 79 e3 73 be cf 91 ea be e4 b5 13 bf db 0e 01 3e
       -0.23817243 -0.45814368 -0.5769942 0.12603323
000180 c1 48 56 bf 69 a1 9e 3e 94 c3 33 bf 8a c5 c3 bd
       -0.83704764 0.3098252 -0.70220304 -0.09559162
000190 2e 74 54 be 14 9c 04 3f 52 d7 02 3d 09 18 f7 3e
       -0.20747444 0.51800656 0.031943627 0.48260525
0001a0 a3 26 a3 be 10 cf 92 3e 83 39 95 3e 10 e1 5c be
       -0.31865415 0.286736 0.2914544 -0.2157023
0001b0 fe 7a be 3e a7 90 93 3e bd 9b 02 3f 7e 41 d9 3b
       0.3720321 0.28821298 0.5101889 0.0066301217
0001c0 f1 c1 16 be df 69 00 bf fc fb f1 3e 9e 69 56 3c
       -0.1472242 -0.50161546 0.4726256 0.013086705
0001d0 fb f0 a6 bd af f3 1b be d5 2f 5e 3d 15 d8 01 3e
       -0.08151432 -0.15229677 0.054244835 0.12680085
0001e0 8e ae e4 be c9 5d ea 3e 72 5f 14 3f 1c db 96 bc
       -0.44664425 0.45774677 0.5795814 -0.018415026
0001f0 57 e9 52 bf d3 ec 6f 3f d7 81 18 3d 57 68 fb 3e
       -0.823873 0.9372074 0.0372332 0.49103042
000200 e0 d1 04 bf 7d 6d fb 3e 40 88 94 be 6d 2c d0 bd
       -0.51882744 0.4910697 -0.290102 -0.101647235
000210 57 7d 11 3f ea 76 57 bf 72 69 ce 3e 8b c7 b3 3d
       0.5683188 -0.84165823 0.40314823 0.08778294
000220 7c 1c 06 be 0a c6 0a 3f 0f 2f 6a 3e 50 3e c1 be
       -0.13096803 0.54208434 0.22869514 -0.37742853
000230 fa d3 97 be bc bf f9 3e 1a fc 0e 3e 19 d9 88 be
       -0.29653913 0.48779094 0.13963357 -0.26728132
000240 d2 15 4d be 70 ce c8 be a7 6c bf be 4a 94 7d bd
       -0.20027855 -0.3922 -0.37387583 -0.061908998
000250 3e cd 6c bd 2d 2a dc 3e a9 b7 06 3f fd e1 81 3c
       -0.05781292 0.43000928 0.52623993 0.01585483
000260 c4 2e bb be e0 34 12 3f 15 a2 a5 3f 3c 7b 3b 3f
       -0.36559117 0.5711193 1.2940089 0.73234916
000270 09 b9 07 be a6 f5 bb 3d 15 75 f8 3d 97 ab 86 bd
       -0.13254179 0.09177713 0.121317066 -0.06575697
000280 0d 6f 6d 3f c5 cd fe 3e e6 65 4e 3e c4 43 c9 3e
       0.92747575 0.49766365 0.20156059 0.39309514
000290 4a 66 bf be bf dd eb be ea ec ba 3f 52 11 2f 3f
       -0.37382728 -0.46067616 1.460355 0.68385804
0002a0 2a ca c4 3e 30 6a e5 3d 25 86 04 bf 21 0f 9c be
       0.3843549 0.11201894 -0.5176719 -0.30480292
0002b0 46 56 29 bf e8 8f 8c be 84 18 95 be 7d fc 1a bf
       -0.6614727 -0.27453542 -0.29120266 -0.60541517
0002c0 ca 41 f8 3c c6 ef 18 bf ad 7a 18 3f 91 68 f3 be
       0.030304808 -0.59740865 0.5956219 -0.47540715
0002d0 98 8e d0 3d 2a 75 21 bf 27 58 39 3f d4 9b a2 be
       0.101834476 -0.63069403 0.72400135 -0.31759512
0002e0 9c b1 1d 3e 82 fa bd 3e 82 9d 0f 3f 06 15 19 3b
       0.15399784 0.37105185 0.5609971 0.0023358478
0002f0 0f e3 21 3f bb 0a d2 bf 49 6b 9f 3f 62 14 bb 3e
       0.6323709 -1.6409525 1.2454616 0.36538988
000300 d6 bc 09 be 30 75 47 bf 72 5e c9 3e 83 f8 e3 bd
       -0.13450941 -0.7791319 0.3932987 -0.11131384
000310 82 44 b4 3d eb 90 f7 3e 20 1f cf bd cf 6c 94 3e
       0.08802129 0.4835275 -0.101133585 0.28989264
000320 8e 58 c5 3e 2d c7 86 3e dc a5 8d be 22 df 0d bb
       0.38544124 0.26323834 -0.27665603 -0.002164789
000330 18 00 ea 3e f9 a4 3d 3e f9 d8 bf be 43 c3 28 be
       0.45703197 0.18519963 -0.37470224 -0.16480736
000340 9d 46 42 bf a1 7b f1 3d 13 13 02 be bb 5f ad 3d
       -0.75889 0.117911585 -0.12702589 0.08465525
000350 b4 42 65 3e d0 f0 94 3c c8 70 13 3f f7 d4 05 bf
       0.22388726 0.018181235 0.57593966 -0.52278084
000360 9b 80 53 be 73 aa 13 be 89 39 b1 be 46 6a a3 3d
       -0.20654528 -0.1442049 -0.34614208 0.079792544
000370 dc 43 33 3e e4 69 e3 3e 19 b7 60 bf e8 c6 4a 3f
       0.17506355 0.44416726 -0.87779385 0.79209757
000380 84 fe d6 be 35 8c 4d be ae 35 a9 3f c9 ef b2 be
       -0.41991055 -0.20073016 1.3219507 -0.34948567
000390 a9 40 d8 3d 96 91 a0 be 0b ce 00 bf 6f 93 76 bf
       0.10559208 -0.31361073 -0.50314397 -0.96318716
0003a0 d5 cc 55 bf 5b 3f 0b 3e ee c2 3e 3e 2e af 57 bf
       -0.83515674 0.13598387 0.18629047 -0.8425168
0003b0 ce 0f 27 3e 56 17 a5 3e 0c 12 a7 3d 25 c4 0a be
       0.16314623 0.32244366 0.08157739 -0.13551386
0003c0 07 cb 39 3d 7e 30 4d 3d 37 59 48 be fb c4 e1 be
       0.045359638 0.050095074 -0.19565283 -0.44095597
0003d0 f4 16 ba 3e 46 d8 0d 3f 62 d7 5d be 72 23 da bd
       0.36345637 0.5540813 -0.21664193 -0.10651292
0003e0 9d 94 fb 3e 7a 56 e6 bd b4 92 36 be 69 ab 99 3e
       0.4913682 -0.11246963 -0.178294 0.30013588
0003f0 02 58 5a bf e8 8f 34 3f f5 40 48 be ab 9f eb bd
       -0.8529054 0.70532084 -0.19556029 -0.115050636

decoder.0.bias f4 [128]
000000 4b e6 96 3e 47 80 af 3e 26 5b 47 bf 26 86 2e be
       0.29472575 0.34277555 -0.77873456 -0.17043361
000010 90 84 17 3f ed 47 bf be 82 05 0d bf 4f ab 05 3f
       0.5918665 -0.37359563 -0.5508653 0.5221452
000020 c1 f4 f0 be 17 1f 33 bf fb f9 5d bc 57 0d 15 3e
       -0.47061732 -0.69969314 -0.0135483695 0.1455587
000030 de 9d f0 be a0 5d 0d 3f 63 c4 48 3b e6 a5 a8 3e
       -0.46995443 0.55220985 0.0030634634 0.3293907
000040 f0 d5 18 bf 81 30 a1 3e be 7f c3 3e b6 45 58 be
       -0.5970144 0.31482318 0.38183397 -0.21120343
000050 5c c9 0f 3f d2 16 05 bf b4 0b 83 bd 30 a4 2a bf
       0.56166625 -0.51987946 -0.063987166 -0.6665678
000060 15 b8 ff 3d f6 f9 06 3d e7 f6 24 3f c8 ca 0c bf
       0.12486283 0.032953225 0.64439243 -0.5499692
000070 73 71 a6 be 36 ff 29 bf 64 c1 13 3f 77 a6 11 bf
       -0.3250843 -0.66405046 0.57716966 -0.5689463
000080 02 29 05 3f e6 e6 8e bd 7c 8e a1 bd a0 c4 14 bf
       0.520157 -0.06977634 -0.07888505 -0.58112526
000090 3e ea 8e be 96 86 00 be fe 63 5b be c6 ae d6 bd
       -0.27913088 -0.1255134 -0.21424863 -0.10482554
0000a0 84 8b f6 be 69 b3 ce 3e 1f 32 27 3f 52 92 2d be
       -0.48153317 0.40371254 0.65310854 -0.16950348
0000b0 8d 23 75 be 1f 9b 40 be ec f8 21 3c 5a d5 af be
       -0.23939343 -0.18809174 0.009886008 -0.34342462
0000c0 e0 08 5e 3f 87 b7 05 bf 50 cf 1c 3a 98 de 7f be
       0.8673229 -0.52233166 0.00059818197 -0.24987257
0000d0 81 fe 15 bf 05 e7 69 bf 49 06 3c bf 73 30 b7 be
       -0.5859147 -0.9136813 -0.7344709 -0.3577915
0000e0 99 9d a0 3e b3 d6 04 3e 77 da c6 be fd 46 6a be
       0.31370237 0.12972526 -0.3883855 -0.22878642
0000f0 e7 60 dd bc 44 e1 8a 3d ba 85 43 bd 51 5c e1 be
       -0.027023746 0.06781247 -0.047734953 -0.44015744
000100 ce 95 af bd d8 15 0b bf ae 7c 70 3e 4e d5 2e 3e
       -0.08573495 -0.54330206 0.23485062 0.17073557
000110 8a 2c a8 3e 21 55 bb 3e c0 68 2c 3e a2 26 98 3e
       0.3284648 0.36588386 0.16836834 0.29716974
000120 05 46 47 3e bb 3d 52 3d 50 76 16 3e 5c 0e ca be
       0.19460304 0.051328402 0.1469357 -0.3946408
000130 7a 11 f1 bd ed 3a ad bd 1e b6 2f bf 04 cf ba be
       -0.117709115 -0.08458505 -0.68637264 -0.36486065
000140 5d e3 93 3e 30 7d e7 be ce 6f 06 3f 6d 86 40 be
       0.28884402 -0.45212698 0.5251435 -0.1880128
000150 30 fe 0a be 0f d5 50 3f ad cb df 3e 9e dc 48 3e
       -0.13573527 0.815751 0.4371008 0.19615409
000160 4e 82 b2 bf f0 9d 9d 3e cc 76 49 3f 8f a4 dd 3e
       -1.3946016 0.3078456 0.78696895 0.4328961
000170 3e 7e f7 be f2 e7 1a 3f 4f 87 56 3e 79 c7 4a 3e
       -0.48338503 0.6051017 0.20950054 0.19802655
000180 c2 d9 e9 be 4b 30 cb be 2a 45 f6 be e6 21 77 3e
       -0.4567395 -0.39685282 -0.48099643 0.24134025
000190 73 88 95 be ba be c3 be 89 fe e1 be e8 09 c6 be
       -0.29205665 -0.3823145 -0.44139507 -0.38679433
0001a0 e3 85 39 3d 11 f8 17 be 35 c5 77 bf 1f a3 cb 3e
       0.0452937 -0.14840724 -0.9678529 0.3977289
0001b0 7e 88 07 be 43 ac e1 3d 54 1d 10 bf 7f e3 33 3f
       -0.13235661 0.110191844 -0.5629475 0.70269006
0001c0 78 e9 91 be 93 e7 91 3e 02 5c 64 be 4b 69 8e 3e
       -0.28498435 0.2849699 -0.22300723 0.27814707
0001d0 7d 8a 06 bf 46 44 01 3f d1 d7 5a 3f 38 bc 9c be
       -0.52555066 0.504948 0.8548556 -0.3061235
0001e0 05 5b c2 3e ea de 36 be 47 90 79 3d 56 53 07 be
       0.37960067 -0.17858472 0.06092861 -0.13215384
0001f0 b2 77 fc 3d 85 62 20 3f 7d f0 32 bf b4 a8 89 3d
       0.123275176 0.6265033 -0.69898206 0.06721631

decoder.2.weight f4 [256, 128]
000000 e9 0a 39 3c a6 09 3d 3d 32 f1 71 3e ce ee 33 be
       0.011294105 0.04615178 0.23627165 -0.17571566
000010 1e 58 25 3d 46 b4 9b bd d1 d3 18 be d4 c2 08 3e
       0.04036724 -0.07602744 -0.14924552 0.13355571
000020 28 eb 23 3e 85 d0 1e 3c b3 06 52 be 99 f8 9d 3e
       0.16007674 0.00969327 -0.20510368 0.30853727
000030 ca 59 b5 be e8 38 bf bd d4 ee 28 bc 70 88 cd 3d
       -0.35420066 -0.09337026 -0.010310847 0.10035789
000040 a6 bf fe 3b 43 ce 97 bd 0c ce 11 3a a9 e2 2e bb
       0.007774311 -0.07412388 0.00055620144 -0.0026685393
000050 df 73 08 bc b4 8d c2 bc 83 aa d6 bd f4 05 2f bd
       -0.008328407 -0.02374921 -0.10481741 -0.042730287
000060 fb a0 b1 3c ce 07 2e 3d 94 49 68 3b f8 9b 21 3c
       0.021683207 0.042487912 0.0035444247 0.009863846
000070 df c2 b0 bd c3 da 5f be 3b 45 51 bb ab ab 91 3d
       -0.08630919 -0.21860795 -0.0031932134 0.07112821
000080 a2 64 26 3e a4 f3 9f bd b1 4e e0 3d e8 cf 61 bd
       0.16249326 -0.07810143 0.10952509 -0.055129915
000090 35 0f 12 be 04 09 c3 3d 03 59 fb bc 25 85 ff bc
       -0.14263614 0.09523204 -0.030682093 -0.031191418
0000a0 89 20 21 be 28 d8 74 40 f3 52 b2 3d 5c 5f 2c 3d
       -0.15735067 3.8256931 0.087072276 0.04208313
0000b0 27 ba cb 3e 4b 40 98 bd ef f2 69 ba 86 5d 32 bd
       0.3979046 -0.07434138 -0.00089244446 -0.043546222
0000c0 e0 73 ff ba 50 77 47 be 7e 89 ab bc 66 70 1a 3e
       -0.001948949 -0.19479108 -0.020939585 0.15081939
0000d0 de 2b 3c 3e 8e 9b d0 be eb 59 96 3d 04 c4 ee bf
       0.18376109 -0.4074368 0.07341369 -1.8653569
0000e0 aa b8 16 bd 9f d3 22 3e 40 2a 08 3e fc 35 a1 bd
       -0.036797203 0.1590104 0.13297367 -0.07871625
0000f0 57 c2 ae bd a1 56 16 3c 6b a2 93 be fc fa f7 3f
       -0.08533161 0.009175927 -0.28834853 1.9373469
000100 49 be d8 be e1 b1 53 bd 50 0e 4f bb 26 8d 6b bd
       -0.42332676 -0.05168331 -0.0031594224 -0.057507657
000110 55 5b 69 bc 91 1a 7f bd e7 b8 89 bd 2d 06 0e 3d
       -0.014242967 -0.062281195 -0.067247204 0.03467386
000120 3c 87 ae 3e 1b c6 5a be 59 2f b5 3c a0 bd 34 3e
       0.3408755 -0.21364634 0.022117304 0.17650461
000130 57 4b ed 3c 07 39 55 bd b0 53 a7 be 9f 58 6a bc
       0.028966589 -0.05205634 -0.32681036 -0.0143033555
000140 bf 9d 84 bd d1 16 ae bc 56 65 b3 3d 0d cf 13 bc
       -0.064754 -0.021251114 0.08759563 -0.009021533
000150 51 e7 7a 3e d7 ce 02 3d 32 1e b8 ba e2 02 5d 3c
       0.24502303 0.03193554 -0.0014047085 0.013489457
000160 35 08 62 bf 9b 81 0a 3c d1 bb 87 b9 b5 29 9a bc
       -0.8829377 0.008453752 -0.0002588914 -0.018818716
000170 30 f8 70 3f 84 12 98 3d 75 17 02 bd 51 47 42 3d
       0.94128704 0.074254066 -0.03176065 0.047431294
000180 7d 3f 9e bd 64 66 29 3b 63 3b 12 3e ec 97 62 bd
       -0.07726953 0.0025848383 0.14280467 -0.055320665
000190 de 83 c6 be 6a 06 15 3d 2a c0 82 be 77 b5 a8 bd
       -0.38772482 0.03638307 -0.25537235 -0.08237737
0001a0 1f 0f bd be 65 c1 c6 bd 47 36 9f 3d 33 22 c8 3d
       -0.369256 -0.09704856 0.077740245 0.09772148
0001b0 b1 fd 5b 3e cc 92 9e 3e 44 d4 63 bd f7 6b 48 3d
       0.21483494 0.30971372 -0.055622354 0.04893109
0001c0 be 77 af bd 66 7c 8a bd c6 f9 72 3e 9a b5 8d 3d
       -0.08567761 -0.06762008 0.23728094 0.069194034
0001d0 4b 2d 0b 3f 40 85 57 bc c1 d0 f6 bd 16 7c 00 3d
       0.54365987 -0.013154328 -0.120515354 0.031368338
0001e0 13 6f dd 3c b2 07 81 3c 7a bc 0f be f3 de 79 be
       0.027030503 0.01575074 -0.14036742 -0.24401455
0001f0 0b 07 b9 3d c8 8e ae bf c4 6b c0 3d 6f 63 82 3d
       0.090345465 -1.3637323 0.09395555 0.06366622
000200 e8 bf 69 bc 77 28 38 3d 08 2f c5 bb cf 0c 3f be
       -0.014266945 0.044960465 -0.0060175695 -0.1865723
000210 57 9d 09 3e d4 08 49 bf b6 60 46 3e 94 35 76 bc
       0.13438927 -0.78529096 0.1937283 -0.015027422
000220 de dd b5 3e c4 8d 47 3e d9 ac e8 be 97 f1 99 3e
       0.35520834 0.19487673 -0.45444372 0.3006713
000230 b7 56 ae be c4 df 26 3e 54 6f 25 bc d1 f6 01 bd
       -0.34050533 0.16296297 -0.0100973435 -0.031729523
000240 b1 84 3f be 78 da e4 bc 0d 7e 09 3d 1a cf f9 3c
       -0.18702962 -0.027936205 0.033567477 0.030494262
000250 c7 54 67 bd a2 a2 5e 3d 9a 52 a9 3c b3 58 84 3d
       -0.056477334 0.054354317 0.02066927 0.064622305
000260 8c 48 02 3e 12 47 8a 3c fa 92 c4 bc dd f1 6b bc
       0.12722987 0.016879592 -0.023995865 -0.014400926
000270 9d cb 5b bd 2e ab c7 bd 16 fe fd bd 33 5e 45 bc
       -0.053660978 -0.09749447 -0.12401979 -0.012046385
000280 20 29 5d 3d 8c 75 a2 3a c5 22 4d bc 42 cd d8 3c
       0.053994298 0.0012394651 -0.012520497 0.026465062
000290 af ba b7 be 20 40 54 3d ca ac 11 3e dc 47 56 3d
       -0.35884616 0.051818967 0.1422607 0.052314624
0002a0 54 30 f0 bd be f4 80 3f 26 47 3f bc ac 7f cf 3d
       -0.11727968 1.0074689 -0.011674678 0.10131773
0002b0 c3 cb d3 3e 00 79 99 3c 1a c1 6e 3d 82 19 a5 3d
       0.41366395 0.018734455 0.058289625 0.08061506
0002c0 98 25 30 bd 4e 76 82 be b0 31 cc 3d 52 3d c0 bd
       -0.043004602 -0.25480884 0.09970415 -0.09386696
0002d0 92 07 ae 3c 2d 46 bd be 2e b2 16 bc b5 de 1f c0
       0.021243844 -0.36967602 -0.009197755 -2.497968
0002e0 bc 0a 8b 3c 07 de ff bd 85 40 60 3c 11 0c b2 bd
       0.016972892 -0.1249352 0.013687258 -0.08693708
0002f0 51 11 e7 bf 55 6a b9 bc 47 21 ce be 44 46 04 40
       -1.805216 -0.02263371 -0.40259764 2.0667887
000300 f5 40 3d bf 8d 41 5b 3d e5 e2 3d 3d 1d 78 0e 3e
       -0.7392724 0.05352931 0.04635896 0.13913007
000310 83 c1 fb 3d b3 cf 27 be 97 e5 19 3d 2c 39 2a bd
       0.12292769 -0.16387825 0.03757247 -0.04155843
000320 3c bc ea 3c 87 5d 5f bd e6 86 45 be d6 95 06 be
       0.02865421 -0.054532554 -0.19289741 -0.13143095
000330 b7 4c 9c 3a 52 d1 43 bc 75 cd ed 3d 7a 4b 28 3e
       0.0011924718 -0.011951761 0.116114534 0.16435042
000340 b1 bc 96 3d 41 51 a0 be 98 25 2b bd 3c d7 07 bd
       0.07360209 -0.31311992 -0.0417839 -0.033164248
000350 ff 46 9b be 81 98 40 bd 47 8c 43 3c d3 b1 f2 bc
       -0.30327603 -0.04702044 0.0119353 -0.029625809
000360 7f 4a 25 bf 24 c0 10 bd 6d 73 2a 3d 3f a7 3b bd
       -0.64566797 -0.03533949 0.041613985 -0.045813795
000370 9f 91 a2 3e 94 39 45 bf d7 7c 8c 3b ae c3 cc 3d
       0.31751725 -0.7704098 0.004287343 0.099982604
000380 66 20 ad 3d c1 ae a6 bd 32 49 b7 bc dd 74 00 3d
       0.08453445 -0.081388004 -0.02237377 0.03136145
000390 9c 73 91 be 7c cd ed bd 2c 18 0d bc 0c 12 00 3f
       -0.28408515 -0.11611459 -0.00861172 0.5002754
0003a0 ff f5 d7 3d cf 70 cf bd db 52 92 bc 89 03 eb 3d
       0.10544967 -0.101289384 -0.017861774 0.11475284
0003b0 f8 e6 84 3e 5e 4c 12 3d f3 43 93 bd 67 a7 6d 3c
       0.25957465 0.03571736 -0.07190695 0.014505244
0003c0 97 c4 85 bd 28 c7 1d bd 61 2c 46 3e 15 94 84 bd
       -0.06531637 -0.03852001 0.19352867 -0.06473557
0003d0 aa 0b ad 3e a9 5d c6 bc 90 5a 92 bd 56 3f 76 bd
       0.3379796 -0.024214583 -0.0714618 -0.060118996
0003e0 7b 20 15 3d d3 2e 37 3d 80 60 c4 bd 60 44 38 be
       0.03640793 0.04472239 -0.095887184 -0.17994833
0003f0 1c 03 4e 3d 98 44 f9 bd e7 fc 45 3d b0 9b ae bd
       0.050295934 -0.12171286 0.04833689 -0.08525789
