LSR_strength_relation/outputs/aij_rff_params.npz (npz, 103854 bytes, 5 tensors)

log_lengthscale f8 [3]
000000 db b7 e2 a8 80 c7 50 bf 28 65 96 2f 72 6f 01 40
       -0.0010241276209330605 2.1794170110485034
000010 e4 19 99 b5 2a aa 69 3f
       0.003132899681790523

W_base f8 [512, 3]
000000 a9 5c ef 07 f7 04 fc 3f 12 c6 dc 77 a8 8f c3 3f
       1.7512121496163593 0.15282159664779776
000010 b4 a3 61 4a e8 c6 f3 bf 72 e7 4b d6 95 db e7 bf
       -1.2360613732837296 -0.7455548463324091
000020 a4 1a 28 66 fd 7b f2 3f 17 b4 19 6c c8 fa eb 3f
       1.1552709570402522 0.8743631469093341
000030 82 c7 e7 10 12 c2 c5 bf 8e e7 a8 60 d4 65 ee 3f
       -0.16998506379564665 0.9499303710829154
000040 21 aa 2d f3 b4 d8 c9 3f 07 0c 6d 73 1c 23 db 3f
       0.20192586778587532 0.42401801368777153
000050 d4 ca 97 11 4a a7 c2 3f 01 e0 41 69 54 62 d1 3f
       0.14573026522665222 0.2716265705016668
000060 0d a7 c8 7f 08 1f f2 bf 37 50 a9 27 4c da 05 c0
       -1.132576464801278 -2.7315905664964037
000070 fb 16 e5 72 42 10 d2 bf de 3b 62 6d 54 20 f3 bf
       -0.28224240513041793 -1.1953930161287114
000080 92 f4 5f 15 6b 00 de 3f 24 89 22 15 e3 fe f3 3f
       0.4687755306948215 1.2497282815534811
000090 63 97 a7 62 10 22 cb 3f a8 e2 e2 7f 4b 82 d5 bf
       0.21197705094453587 -0.3360775708093038
0000a0 7b 8e 5a 05 b4 62 ae bf 7f 04 07 4e 3b 60 04 c0
       -0.05934679570534925 -2.5469881149188605
0000b0 7f 90 00 c7 89 7c e3 3f 4b a3 c5 b4 b9 f8 dc bf
       0.6089524161111654 -0.4526809945441996
0000c0 04 77 89 62 00 93 e7 3f 1c 1d da 7a 40 e4 cc 3f
       0.7366945194769134 0.22571569441445483
0000d0 8d 2d 72 e4 e4 a1 cf 3f 24 d0 14 9d d4 05 03 c0
       0.24712811617460453 -2.3778469345070494
0000e0 71 8d 03 99 f2 37 d5 bf e6 ed 5a af ce 8f cf bf
       -0.33153977339517043 -0.24657615244164716
0000f0 b8 e0 b6 9c 25 1c e5 3f 28 2e 51 b6 42 e0 df 3f
       0.659685903628108 0.4980627804222615
000100 d2 79 ae bf ba d1 e3 3f 12 c1 27 43 97 7e e3 bf
       0.6193517440586283 -0.6092029868723634
000110 7f 23 df bf ab d2 c3 3f 43 df 01 c9 49 c2 e6 bf
       0.1548666655419559 -0.7112168241428453
000120 38 7a 86 d2 16 c5 d2 3f 99 67 2b d9 52 84 fc bf
       0.2932793670569569 -1.7823055728135613
000130 8c c6 2d 46 51 0a de bf 8e 06 2a a4 9a d8 fe 3f
       -0.469379728826518 1.9278818524038885
000140 a1 c3 0f f6 f3 88 fe 3f af 57 45 92 2a 5f da 3f
       1.908435784509699 0.41205848964943476
000150 26 44 88 c2 52 2b e0 3f 70 63 ab d6 fa ca d0 bf
       0.5052884864290987 -0.2623889061338138
000160 df 62 1f 11 74 43 ec bf 16 46 37 2e 45 1b f1 bf
       -0.8832340559411839 -1.069157772570525
000170 2a f5 94 1a c7 24 d7 3f 0f c5 b8 67 aa 81 b1 3f
       0.361619735678533 0.06838479072827773
000180 8d 6b a0 d8 f5 d4 f9 bf 38 aa f2 1c 4e f7 ba bf
       -1.614492269704644 -0.10533607680069046
000190 d0 41 79 b0 dc 52 e6 3f 39 ac dd 98 a0 cc d2 3f
       0.6976149985076123 0.29373946121512834
0001a0 b3 8a 0a d6 fb b8 e4 3f a9 9c f4 7c 0d 0a e0 3f
       0.6475810223094726 0.5012271347558414
0001b0 cc 60 f5 38 11 ed c1 bf 35 24 ba ce e7 6a fd 3f
       -0.14004721909691964 1.8385999751356057
0001c0 a2 af 14 3a 9b d6 cd bf 23 cc c2 5d 36 e3 01 40
       -0.23311176620461277 2.235943539149518
0001d0 14 07 ea f5 24 74 d7 3f 3e ad ea 9d f5 e1 f4 3f
       0.36646389021926606 1.3051658791180922
0001e0 a8 db 4a 1e 87 32 f0 bf f1 8d 27 a0 d0 09 f2 3f
       -1.0123358901307515 1.1273962265048534
0001f0 cc 1e 7a b4 95 05 cc 3f 70 9b 48 6b f9 47 e6 bf
       0.21892043411593531 -0.6962859244712103
000200 d0 fb ce e7 e5 67 cd bf 61 3f 3a 8f 1e 58 51 bf
       -0.22973321741844055 -0.0010586069519468932
000210 f6 fe c0 92 1c 69 ef bf 00 38 ef 8e 4d 76 e9 bf
       -0.9815810076033518 -0.7956912795723383
000220 84 85 a0 0d 94 87 c2 3f 12 56 a2 c1 93 b5 cf 3f
       0.14476252236731224 0.24772879557410526
000230 fc bf e5 e0 57 1a ab bf 0a 6b 0b ac a3 7f d4 3f
       -0.052935358241370495 0.32029048730116527
000240 11 c6 4f 63 a4 f4 c6 bf a2 bd 10 20 db 18 f7 bf
       -0.17934088563156128 -1.4435683491281925
000250 56 95 45 78 6b fe f2 3f b3 93 fc 67 a9 48 e4 3f
       1.1871142099492622 0.6338698416699259
000260 55 72 6b 53 3b fe f6 bf 59 61 f1 9c 44 74 b1 bf
       -1.4370682962973167 -0.06818035918820921
000270 c2 30 27 8f 28 84 c3 bf 61 d0 30 a5 a2 56 d4 bf
       -0.15247065534493315 -0.3177878010931235
000280 70 04 64 7c 42 5a fe bf ab 98 2f 80 3e 0a 03 40
       -1.8970360621463236 2.380002023174787
000290 b9 ce 1f 0b e6 dd 00 c0 d1 79 e1 8a 87 45 d1 3f
       -2.108348929317654 0.26986874163222035
0002a0 3c 5f 06 d4 3e 7c e4 bf 26 6b ab 6d 62 b4 e0 3f
       -0.6401666775809427 0.5220195905670593
0002b0 a0 22 f6 34 af 6e e7 bf 6e 47 55 72 82 b5 d6 bf
       -0.732261279526103 -0.35482846417755
0002c0 09 9d 56 ba d2 94 c6 3f 51 6b 47 a3 6b f7 c7 bf
       0.176416722283854 -0.18723817322355754
0002d0 ca 81 14 98 2c 0c fa bf b5 1b c0 a5 56 4c 01 40
       -1.6279722157124632 2.1622746419193057
0002e0 43 4c fb 5f 27 e9 f5 3f ce ac 0c f8 55 d7 fb 3f
       1.369422316482784 1.7400722207483343
0002f0 8c bd 85 55 a0 7d f0 bf 08 3a 88 fa ad 82 f2 3f
       -1.0306704846114796 1.156904200211672
000300 85 72 11 94 f4 7e b0 bf 8e 8a 0c 04 9c 53 fa 3f
       -0.06443718543000372 1.6454124601520195
000310 0d 08 b8 83 8e 72 d3 3f 3e ed ee ad 11 75 f6 3f
       0.3038669859234922 1.403581313540442
000320 a3 e0 eb 10 1a 5e e3 3f 74 56 b6 4e b4 bb f7 bf
       0.6052370386596703 -1.4833262514779593
000330 1d 1e 24 38 84 99 f6 bf 00 85 be 96 c9 82 f8 bf
       -1.412479609776603 -1.5319305313535665
000340 bd 74 78 32 7b df d6 bf 57 54 8c e6 33 02 f5 bf
       -0.35739021233332463 -1.3130377774989677
000350 c5 9d 17 12 d4 f5 f4 bf a2 8d b7 02 89 8f d4 3f
       -1.3100166994789657 0.3212606932194949
000360 f6 01 c8 53 0c 19 cd bf 16 e7 0d 79 fa 83 f8 bf
       -0.22732690897829827 -1.5322212914165383
000370 33 fd 5f b9 dc 8d e8 bf 17 ae 0c d5 c1 f1 d0 bf
       -0.7673171635250696 -0.2647556858598547
000380 2c 74 92 9d 4e 8a c1 3f e5 a3 90 22 1b 5b fb 3f
       0.13703329748105497 1.7097426748462052
000390 60 03 3e 87 7a 19 f2 3f 55 a7 8f a8 db f0 e4 3f
       1.1312203677082024 0.6544016163072494
0003a0 c3 92 b8 7b e7 1e eb 3f 00 9c a5 b4 7a a7 e2 bf
       0.8475224892068457 -0.5829442528018944
0003b0 27 a7 15 5d 26 08 e7 3f 52 50 ec 5d 86 bc ad bf
       0.7197448556955565 -0.05807895561716293
0003c0 b7 fd 1d d8 9f 6f d0 3f 29 62 64 7a f7 c6 e4 3f
       0.25681301217261016 0.64928792862617
0003d0 c9 c1 b0 4e 3b 53 e2 bf 18 4a a3 bd b5 ee e0 3f
       -0.5726601159022319 0.5291393951286549
0003e0 66 a2 ef d9 73 97 91 bf 6d 7f df a0 43 0a b5 3f
       -0.017179308106195633 0.08218786885799796
0003f0 6f 27 c4 75 6f d9 d5 bf 8f 54 85 18 66 54 ad 3f
       -0.34139620304687573 0.05728453683210787
000400 37 88 f1 f2 b9 83 e9 bf 44 8a 33 91 47 0d d9 bf
       -0.7973298783292709 -0.3914355199796413
000410 29 07 8b 91 97 63 e9 bf ae a5 7c d6 64 2f c0 3f
       -0.7934072344434969 0.12644634697907747
000420 9e e6 e0 fb 9b 7e db 3f 94 ac 3c 2c 81 5b b4 bf
       0.4296026191474115 -0.07952124910359465
000430 ef 5b 76 b0 30 6b b7 bf 17 04 42 37 8b 29 ea bf
       -0.09147934253847699 -0.8175712661033029
000440 db 06 9f 6b d0 fa f3 bf 28 98 85 d9 90 4a f4 3f
       -1.2487339214280186 1.268204545683611
000450 39 58 47 c7 e3 8f b7 3f 8a 47 22 5b fc 3e f3 3f
       0.09203933348848715 1.2028773841779832
000460 26 c8 60 77 1a 18 e6 3f 82 8c 11 97 e8 2e f7 3f
       0.6904423076250665 1.4489522839656108
000470 93 e0 21 45 bb bd fe 3f c3 68 4c b4 93 13 c5 3f
       1.9213211727601773 0.16465994170795825
000480 14 ce 0b 83 6b 85 c5 bf 0d 7f a0 a2 43 ae f9 3f
       -0.16813415430770873 1.605044970761756
000490 b0 2f 57 3c db 7e d1 3f 71 85 a6 10 15 bf e4 bf
       0.27336769955285956 -0.6483254742817463
0004a0 99 b6 cf 14 aa 08 01 c0 04 e6 9e c4 5f 08 fb bf
       -2.129230654324442 -1.6895444565292346
0004b0 e0 82 65 97 1a 03 f3 bf e0 e5 1f 24 59 65 ff bf
       -1.1882577814032445 -1.9622432147137872
0004c0 6f 9c 43 ec f7 63 c2 3f 3e c1 27 85 6b f3 f5 bf
       0.14367579494794167 -1.3719287110689744
0004d0 a8 f2 62 7e b6 d6 c2 3f ef 24 7f a6 ec 9b f1 bf
       0.14717751666275558 -1.100567484262054
0004e0 03 62 a8 69 64 dc e0 bf 78 ea 25 51 ea ac e5 bf
       -0.5269033492687075 -0.677357824795151
0004f0 43 b0 40 49 ed 7c ef bf 6e 9b 41 cf e3 60 04 40
       -0.983999865600261 2.5473095123192513
000500 83 3d fa 34 b9 e8 fd bf 0e f6 1f 2b e5 45 d6 3f
       -1.869317252105106 0.34801606379900896
000510 8b 3e ba c1 d2 be d0 3f 54 85 6d 9a 76 b4 f1 3f
       0.2616469280119211 1.1065584213577795
000520 fa ea 9e 77 b7 f6 dd 3f 21 58 1d c9 48 09 bf 3f
       0.46818339044300183 0.12123541746163415
000530 96 f5 ed 6a 63 e5 a8 3f ed b5 d1 81 3b 3e b1 3f
       0.048625094225808116 0.0673558418218005
000540 1e 71 9d 29 e0 37 d2 3f a0 eb aa 02 2f 06 fd bf
       0.2846603781124645 -1.814009676380671
000550 a9 92 c4 da 1e ad cf bf 03 c0 80 23 63 8e e6 bf
       -0.24747071916603616 -0.7048812573830222
000560 32 2c 77 bf 1c e1 d1 3f f2 bd 05 77 d7 dd e6 3f
       0.2793647641926241 0.7145802807480648
000570 bd bd 99 4e 39 3a f9 3f 44 69 bb 81 ad 6b d8 bf
       1.5767148084959068 -0.38157212895534465
000580 ea d2 fa 71 49 96 f8 bf 1e 7b 37 05 90 43 bd bf
       -1.5366911365828693 -0.11431217315064798
000590 9c 6b c1 a5 4c 08 fa 3f 2e 30 fc 29 ba 51 d9 3f
       1.6270262217355826 0.3956132326136438
0005a0 78 8e 12 2f 82 30 06 c0 ca f0 ed d4 a7 a4 f3 bf
       -2.7736858060396195 -1.2276991193348743
0005b0 33 14 89 0b c8 79 f3 bf 11 e5 32 bb fe 9e fd 3f
       -1.2172317934612351 1.8513171493962697
0005c0 37 6b 5a c7 4f c9 ea 3f 5f cd 66 39 27 90 e2 3f
       0.8370741742722662 0.5800968285679281
0005d0 4b d0 93 87 76 0e cf 3f 8c 36 22 13 4d 43 d4 3f
       0.24262887592306223 0.3166077315189362
0005e0 5c 40 24 9c 94 b0 f0 bf e8 ed 04 af 4e 49 d8 3f
       -1.043110475471642 0.37947432605480325
0005f0 16 40 5d d5 1d 09 e0 bf e6 12 c1 84 b0 b7 ca 3f
       -0.5011128585119902 0.2087307594503251
000600 51 4d ae 76 5c 18 fe bf 38 22 c6 4a 1a db ff 3f
       -1.8809475551577928 1.990991870961933
000610 d3 7c 2f 8a 22 12 e2 3f b9 c5 8c 70 6b 78 e5 3f
       0.5647137354789272 0.6709496687164381
000620 4c 03 3b 99 62 ee dd 3f 26 62 77 d2 aa d5 cb 3f
       0.46767487491529347 0.2174581077258761
000630 fa 55 60 89 d4 21 01 c0 cf b4 93 00 7b fe c5 bf
       -2.14151866269344 -0.1718286278550409
000640 d4 e3 78 d9 4c 43 d0 3f fb b2 8a 13 f7 c1 bb 3f
       0.2541076778175555 0.10842842318625039
000650 43 cb bc a5 d0 b5 df 3f 3a af 10 4c cb 9e d6 3f
       0.4954721087007565 0.35344202450027107
000660 10 d1 bd 27 a4 6d 95 3f ec a4 41 c6 24 2f c0 bf
       0.020926060605647 -0.12643871002663987
000670 4d aa 72 e7 03 e6 db bf a6 44 e9 7d d1 d4 e6 3f
       -0.43591401674590174 0.7134787997439573
000680 77 bf 65 46 cb b9 f3 bf 43 29 a5 12 0d dc c3 3f
       -1.2328598737621783 0.15515292559059377
000690 66 71 85 a7 2a 41 9c bf bf 26 9e e5 80 f7 e4 3f
       -0.027592340922056556 0.6552128300401917
0006a0 22 88 c7 f9 4e a3 e2 3f bc 4b db bc 95 f7 f4 bf
       0.5824351194862667 -1.310445535393895
0006b0 58 8b 8d 45 eb c1 e2 3f ee 10 56 85 c4 d2 d1 bf
       0.5861717565970634 -0.2784892370330131
0006c0 63 dc fa 83 34 e0 f1 3f 8a b7 dc 39 16 43 f1 bf
       1.1172375827279886 -1.0788786182633623
0006d0 04 15 e2 b9 70 38 e8 3f ef ae 39 e4 b0 8a fc bf
       0.7568896894960351 -1.7838601031352785
0006e0 24 fa 37 ca a2 ab d6 3f fe bf 3c 67 d3 8a b7 bf
       0.35422582385936807 -0.09196206350748068
0006f0 87 c7 a9 67 00 bc ea 3f a9 7d e3 b2 a6 c2 52 bf
       0.8354494118377581 -0.0011450412671861565
000700 40 a9 4c ca 7d 23 b2 bf 0d 20 b9 1a a7 58 e9 bf
       -0.07085405529929734 -0.7920718690811569
000710 3e 81 87 85 c0 92 8e bf 8c fe 02 03 04 7c d4 3f
       -0.014928344798079803 0.3200693158541774
000720 df de ad a4 53 a2 c2 bf 37 c6 e6 0e 50 f4 e8 3f
       -0.1455788187120026 0.7798233309787922
000730 b5 5b 0a e6 a6 71 eb bf c9 4f e9 f8 5a 98 b7 3f
       -0.8576235287645121 0.09216850830972513
000740 99 9c a2 29 27 ee dd bf 81 24 cc a1 24 4c e5 3f
       -0.4676607042878885 0.6655448112588972
000750 51 d6 f3 8c 62 a9 e0 3f e5 e0 25 c0 f8 07 f0 3f
       0.5206768753984737 1.0019462114124107
000760 06 26 21 30 e9 f8 fa 3f 54 83 c3 46 3b f9 e2 3f
       1.6857692604120316 0.5929237730125387
000770 d2 91 02 ce cc d7 b8 3f f1 b2 68 6b 70 ae e6 3f
       0.09704284696142132 0.7087938402015351
000780 84 9d 4b 50 6a 5e fb bf de f3 b6 99 2d 9e e0 3f
       -1.7105506073511103 0.5193088533629824
000790 02 2c 1f 7c 88 56 f3 bf a3 ed 60 09 c9 75 f4 bf
       -1.2086262558466392 -1.2787561766007023
0007a0 22 50 86 4d 1b 7f e5 bf d5 12 5c fb 1b e0 d7 3f
       -0.6717659486917038 0.37305354639856364
0007b0 dc 36 1c 1f 2d 60 ac 3f c1 68 b2 76 b9 18 ea bf
       0.0554212666012128 -0.8155181234644929
0007c0 96 5f 54 29 26 85 e7 bf fa 91 9b 06 49 76 e2 3f
       -0.73500354835686 0.5769391182953421
0007d0 31 7b 19 46 a6 b0 fd 3f 65 0d da 73 87 9f e4 3f
       1.8556273210776448 0.644473768494589
0007e0 fe 52 74 07 d9 f2 f3 3f 54 21 6c e1 5d f2 d6 3f
       1.246789006346432 0.35854289068131107
0007f0 98 53 0f ee cc 02 da 3f 71 d2 9b a4 50 c8 ed 3f
       0.4064209294131671 0.9307025160802153

b f8 [512]
000000 cb dd f6 f2 5f 39 0a 40 27 7f 20 37 22 b3 17 40
       3.278015039595379 5.924935208662453
000010 f7 9c 9c 1a ad 68 0e 40 3d eb 3c 42 9e 22 16 40
       3.8011114195866145 5.533806834190554
000020 7a b6 5b 48 bd 62 d7 3f 5a c1 8e 4e 54 03 f3 3f
       0.3654015738128248 1.1883128231675841
000030 a1 4c a5 ac 09 28 01 40 88 46 a9 81 4d 31 ec 3f
       2.1445497024484017 0.8810184032865473
000040 44 94 f4 e9 2a 90 10 40 1d 4e ef eb 43 d4 bf 3f
       4.140788703492095 0.12433266172529796
000050 74 cd a1 b0 fa a9 f3 3f 74 d2 8e 19 e9 16 12 40
       1.228998842209731 4.52237358030526
000060 b9 62 05 e0 73 fe 07 40 db fc 3f 43 53 45 fa 3f
       2.9992444516795698 1.6419251086188555
000070 32 3d c6 3c b8 0a 7a 3f 00 76 41 ad 9f 31 13 40
       0.006357879330962478 4.798460681076449
000080 57 0c ac a5 08 54 0b 40 91 28 5c 43 4d 53 f4 3f
       3.4160321181421227 1.2703373557328954
000090 e7 e8 1a 40 5d ca f1 3f 20 cf 16 85 59 5b df 3f
       1.1119053367715936 0.4899505424211714
0000a0 54 2e f8 e5 c4 6f 08 40 e4 e7 12 45 d7 68 12 40
       3.054574772488005 4.6023836891926955
0000b0 b6 8e f5 42 88 ba b0 3f 6f c6 3b c7 b2 51 f8 3f
       0.06534625658747015 1.5199458868559323
0000c0 9c 5b c5 3d 1c ad c9 3f 75 f2 5c 00 a4 b1 0a 40
       0.20059540764006278 3.336738589130898
0000d0 a7 0b 79 92 ba 5b f3 3f ed 7f 4f cb 5e a8 e3 3f
       1.2098947259516792 0.6143030138882729
0000e0 ef fb dd 4c 1a 56 09 40 9c cf 14 36 99 94 f1 3f
       3.1670423512691666 1.0987789261389258
0000f0 ac 22 70 1c d3 de a6 3f 11 75 08 f8 6c a5 08 40
       0.04466876718658361 3.0807742478924713
000100 88 88 9f 23 36 1b f8 3f 39 76 ac a6 2c 11 18 40
       1.5066434279947618 6.016771892811044
000110 b7 5e dc 55 c8 4c 12 40 85 44 15 6d f0 b6 14 40
       4.5749829688790475 5.1786515278082605
000120 5d 1f 01 3a 17 79 17 40 eb 36 6a 86 4b 5f d2 3f
       5.8682526648697975 0.2870663464208138
000130 eb 0e 4f 31 81 06 e6 3f fe 69 b3 5e 14 36 04 40
       0.6882940257132452 2.526406040048868
000140 c2 a6 d1 c3 0a 87 12 40 b1 a9 06 a2 48 2e 17 40
       4.6318770024024065 5.795198947579068
000150 7b b1 33 33 e7 29 0c 40 09 5a ad 5d 00 c5 17 40
       3.5204605102682627 5.942384208398388
000160 a5 16 e6 6c 34 e7 0e 40 e3 1c 61 98 15 86 12 40
       3.862892962238066 4.630941754271791
000170 34 4c 8d 5c 8c 21 0c 40 f3 4e 10 a3 83 9d 05 40
       3.516380999624312 2.7019112338401725
000180 1a af 36 b1 bd aa 16 40 0e e3 0b 8a 89 d6 11 40
       5.666739243471762 4.459509045577546
000190 54 e8 00 7d 23 a8 13 40 dd 51 a7 2c 4f 1f d6 3f
       4.914197877102271 0.3456609664983981
0001a0 41 0e e1 53 de b1 ed 3f c3 56 9e 7a fd 5a 04 40
       0.9279624593986641 2.5444287852832033
0001b0 d7 39 84 bf 29 ea 11 40 9b d9 af 8f 54 17 10 40
       4.478674881406241 4.022783513172182
0001c0 29 8c 72 4b 41 b8 13 40 16 63 73 a6 77 34 f2 3f
       4.929936579576897 1.1378094198209445
0001d0 cc d2 f8 31 b6 e2 e7 3f 10 1b c5 83 d6 e3 04 40
       0.746424768067834 2.6112489981200113
0001e0 aa 48 25 87 31 53 07 40 db 8c 89 a2 ed 65 d4 3f
       2.915621810746491 0.31872120735915893
0001f0 19 58 7b f4 40 86 f2 3f 8a 40 00 57 25 bd f1 3f
       1.1577767896719762 1.1086781881786316
000200 c8 77 7a 75 fd 4a 04 40 12 28 1b 77 46 a0 13 40
       2.5366162469863163 4.906518803627494
000210 e1 f3 8d 29 8b e9 01 40 64 a9 7f 2d 92 ce 15 40
       2.2390349623151313 5.451729498783923
000220 e7 2d 44 f9 64 d7 12 40 76 ef b5 70 1a b8 04 40
       4.710346121584258 2.589894180824497
000230 5b b4 cd 3f f0 fd 14 40 e9 7d d7 8d bf d1 0e 40
       5.247986790590484 3.8524161416423692
000240 49 03 1e 67 6e e4 0c 40 5c e2 12 ef c9 20 e6 3f
       3.6115387016328993 0.6915025395783903
000250 e1 39 29 22 ad 63 06 40 45 10 5c 51 25 77 0c 40
       2.798670069583054 3.5581766468258444
000260 48 ad e7 62 56 98 13 40 f3 df 57 1a 90 1b f5 3f
       4.89876703776401 1.319229224112857
000270 06 95 65 58 5f 92 fb 3f fe c2 e0 01 ef bd f3 3f
       1.7232354596138193 1.2338705132826244
000280 f4 46 6c 3e 26 9e 0a 40 ab 1a 8d dd ad 99 17 40
       3.327221381835324 5.900077306496921
000290 8c 50 1d de 73 9a 17 40 7f dc 7c 52 79 10 fc 3f
       5.900832624949668 1.7540219518830609
0002a0 80 35 74 28 f0 19 f6 3f 94 a5 5b a0 2e d9 ec 3f
       1.3813325481636127 0.9015114910118194
0002b0 47 1a a4 66 f7 c3 07 40 2c 66 77 61 c7 4c 15 40
       2.970686723597541 5.324979327118438
0002c0 22 a2 54 ef 12 20 18 40 4e 04 27 d0 32 c3 15 40
       6.031322230854615 5.440623524075887
0002d0 23 34 26 fa 81 cf 11 40 fa 99 89 dc 35 ab e4 3f
       4.45264426096131 0.6458997065900001
0002e0 ab 29 8b fc eb 3d e9 3f d2 a0 92 ad 0c 9e fb 3f
       0.7888088161937977 1.7260863094507397
0002f0 02 b4 30 22 4f 92 16 40 16 9f 21 36 4b d1 00 40
       5.642879995558362 2.1021942357073256
000300 a0 f3 65 ff b3 83 18 40 8a 05 03 e2 50 8f 18 40
       6.128616324041019 6.139956981119562
000310 37 c8 c7 48 c3 c4 0a 40 53 9a 98 5b 5a 58 f4 3f
       3.3460756002396255 1.2715705469105572
000320 88 96 b0 0f 91 d6 e7 3f ea e1 ae ec 22 11 f5 3f
       0.7449422174874636 1.3166836972651432
000330 3a f4 82 a8 89 d9 15 40 a7 03 64 3c a3 d6 01 40
       5.462439187042998 2.2298035352727825
000340 53 89 25 a6 98 b3 e8 3f fe 59 7d 1a c3 b8 0f 40
       0.7719233746577551 3.9652158803467037
000350 2d c5 ef 6c f1 8f e3 3f 69 d7 bb 2c c9 45 f1 3f
       0.611321175352861 1.0795375583088236
000360 f1 3e be 72 26 0d fd 3f 99 ec 23 d0 5e 2b 12 40
       1.8157104952005592 4.542353870575561
000370 f1 51 5b d3 b7 1a 0b 40 72 c0 ec d5 6b 15 85 3f
       3.388045932030075 0.010294764009444377
000380 02 5a e9 9c 8a 0f df 3f 2c 55 5b 53 3c cd 11 40
       0.4853235752429158 4.45042543644858
000390 c3 5f 2d 56 43 05 fd 3f d5 0e f1 ec 59 27 be 3f
       1.8137849203394445 0.11778795275409533
0003a0 59 0f 22 82 b3 3d 17 40 ef 70 13 da 66 ab f2 3f
       5.810255082444052 1.1668461340514644
0003b0 e3 71 9f 30 1b e4 06 40 3b fc d3 3d 3c ee 01 40
       2.861379985681411 2.2413258390729687
0003c0 b8 9d 44 ae 29 d1 10 40 c1 1b 85 88 c5 1c 16 40
       4.20426056188392 5.52809727966718
0003d0 7d 36 f7 49 f5 4e f5 3f 3e d3 8c cf 6e 1a 0c 40
       1.3317768945011317 3.5129066672183447
0003e0 a8 93 f6 01 f4 e9 f1 3f 52 64 b8 55 7f 3c 02 40
       1.1196174694716579 2.279539746942228
0003f0 41 08 39 9b 9d 32 f2 3f 9a b2 b6 7a 9c b2 14 40
       1.1373573363676004 5.174425046349507
000400 95 19 5b 5a da 19 14 40 0e 98 9d a5 f4 c7 f5 3f
       5.0252470129111275 1.3613172978743964
000410 da 73 b2 a9 ff 3b 09 40 45 16 79 5c 38 bd ff 3f
       3.1542962319931407 1.9836963283754738
000420 43 d3 7c 70 46 c4 11 40 40 8c b3 61 17 b3 03 40
       4.441674955004433 2.462446940700403
000430 79 ef a3 a9 f2 f3 11 40 28 14 6f d0 97 f8 0c 40
       4.4882303720768215 3.6213833125971355
000440 d6 95 20 43 78 7f 01 40 63 70 dd 74 ee d6 e4 3f
       2.1872411007231944 0.6512367517966705
000450 13 aa f0 e8 a7 95 0d 40 bb 51 fd 03 21 a3 a2 3f
       3.6980741690106327 0.03640082524967477
000460 1f 08 fa 55 a6 d0 00 40 9f 0f a4 46 56 2b 13 40
       2.1018797604492785 4.7923213040957355
000470 74 19 16 9e f9 c1 14 40 88 40 d6 e2 e2 0b 07 40
       5.189428777788965 2.8808038446077866
000480 55 5d fb 68 40 6d 16 40 98 3f 6f d0 3e 85 e5 3f
       5.606691017477108 0.6725153037059384
000490 dd ec 13 6c b2 1c 07 40 06 06 59 fc 17 5d 12 40
       2.889012188299246 4.590911810811582
0004a0 26 ed ab 4d 09 07 0a 40 36 62 5d f0 d0 e9 fa 3f
       3.253435713586117 1.682084025311395
0004b0 8b 05 45 7f 4e b0 c2 3f 1a 6c fc d5 56 df 12 40
       0.1460054513391181 4.718104690105088
0004c0 33 b0 fa ea 44 c1 11 40 a4 80 d2 7a 44 bb 13 40
       4.43873946337776 4.932878417108586
0004d0 47 eb bd bd 6e 85 17 40 a0 2c d6 05 db bf 04 40
       5.880305256573428 2.593679471586782
0004e0 34 e1 0d 04 8b 2c f8 3f a2 f2 af 92 fe 9c 11 40
       1.5108747633331179 4.403314868916512
0004f0 f5 bb 32 ba dc fe 15 40 8d 13 e0 0c 72 8b 18 40
       5.498888882967539 6.136177254845177
000500 47 f0 cf fd 6d 9c ed 3f f6 f0 6e 27 1f 18 0c 40
       0.9253454167624192 3.511778171609076
000510 28 b3 90 24 69 4b 04 40 e8 3a a2 7a 95 b4 14 40
       2.536821637788666 5.176351467277279
000520 59 a6 59 b0 53 fd ea 3f 23 ca c8 73 fb 90 17 40
       0.8434236950244652 5.891584214334702
000530 3c 6d 82 e1 97 84 12 40 c9 95 b4 af bb a1 f7 3f
       4.629485629640211 1.4769856322758292
000540 84 cb 7c 8a bc 15 06 40 1e 7b 28 3c e3 7e f0 3f
       2.760613519605103 1.0309784269263171
000550 8e 36 71 99 13 7e f3 3f e2 de 9d 4a ce 26 11 40
       1.2182804101788949 4.2878963145119275
000560 a5 e2 5d 58 d3 2f 0f 40 d5 4f 5f 57 43 78 04 40
       3.8983523276950387 2.55872219333285
000570 52 cc 7a 81 f6 2c cd 3f 2d 7d 0e ec f0 74 fb 3f
       0.22793465921640405 1.7160500737152902
000580 88 e2 bc 0f 08 8f cf 3f 8e aa 28 1d 7b 15 11 40
       0.24655247467469033 4.270977454764433
000590 61 96 c3 d5 72 51 02 40 09 f8 f3 56 ac 0a fe 3f
       2.289769811660151 1.877605762157602
0005a0 cb d9 7d ff 3f 40 09 40 72 a3 03 61 36 68 10 40
       3.1563720665246584 4.101769939276766
0005b0 b4 99 de 6b c9 12 ef 3f f7 c8 09 8e 46 a6 f2 3f
       0.9710433108164609 1.1655946300857616
0005c0 9d a9 8e f3 b2 cb f8 3f 91 bc fc 13 52 91 10 40
       1.5497312082248762 4.1419146655090495
0005d0 92 20 aa 4c 3f ff fe 3f ca 2b 9c d9 9c ad f0 3f
       1.9373162264546733 1.042385911978942
0005e0 e3 a8 d2 85 35 98 fe 3f 87 05 55 6c b6 ce f0 3f
       1.9121604182678815 1.0504669410441652
0005f0 63 9f a9 df 4a 21 d6 3f 3b 4a 2d f4 3d 1d ad 3f
       0.3457820114331211 0.056863723809005916
000600 e3 48 7c af 28 de f8 3f 0e 98 4f 06 66 d1 e3 3f
       1.554238019457039 0.6193113444576299
000610 f3 c4 0f c7 c3 16 01 40 7f fd 95 23 af 5b 0a 40
       2.136115603607885 3.294767644896353
000620 db 40 ed c8 a0 fe 18 40 b4 a8 2f b8 d0 7d 11 40
       6.248660220604701 4.372866514119028
000630 08 18 76 8b 6d 8c 13 40 87 16 1a ad 4c bc 14 40
       4.887136630137327 5.183886246411595
000640 3b 11 8e 8b 96 43 ee 3f db ee 22 8d aa 86 05 40
       0.9457504964525819 2.6907549883161272
000650 9b 25 f1 54 82 b1 d4 3f 67 d4 62 1e b4 e1 02 40
       0.32333429617991677 2.360206830397647
000660 00 dc 36 b5 ef 0b 08 40 78 20 bf 06 53 c6 15 40
       3.005828300224948 5.44367609540506
000670 93 86 81 2b 9e 40 12 40 df 9e 0c 06 5b d7 00 40
       4.563103370457287 2.105154082546377
000680 fe ac 9d 71 4c 9f 17 40 6b 74 ad 0a 8e cb 07 40
       5.905565047501339 2.974392016809863
000690 e9 24 d4 18 8d fb 0a 40 31 2b 48 ab 75 e0 f7 3f
       3.372827714895369 1.4922997179698536
0006a0 07 71 c3 44 34 33 14 40 cb 1d cd d8 58 7f 14 40
       5.050004076412967 5.1243623614495375
0006b0 33 bf 31 33 f3 e7 15 40 00 55 0c b2 e2 df 12 40
       5.476513671790417 4.7186382122065424
0006c0 a2 12 62 fe 4d 78 c6 3f b3 7e d4 49 2a da 00 40
       0.17554640694665574 2.106525971219378
0006d0 22 e2 a8 34 54 c4 14 40 5c 61 d6 cd 51 3b 01 40
       5.191727469260998 2.1539646225975684
0006e0 41 0e 68 7a c2 eb 18 40 73 0d 95 a0 5a db f8 3f
       6.230234062768035 1.5535532257789242
0006f0 a9 a1 7b db ba 86 0a 40 e8 3c 65 a4 a1 f7 f1 3f
       3.3157860896210036 1.122956888360756
000700 40 57 8e 01 17 1e 13 40 69 90 df 4b 1b ba 01 40
       4.779384636223597 2.2158723762132024
000710 65 e7 21 3e d8 91 17 40 85 7e 42 b3 ef af cf 3f
       5.892426462954835 0.24755665066640034
000720 cf 64 c1 a9 8b f2 d6 3f cb 1b 3c ee f8 73 bf 3f
       0.3585538060920727 0.12286334816245341
000730 bf b6 9b 26 e7 0e 18 40 55 46 ac f6 b2 a4 0d 40
       6.014553645376224 3.705419470913322
000740 ae 93 25 c8 dd 50 06 40 dd 55 9a a0 8d 05 14 40
       2.789485515257602 5.005423077983747
000750 d3 88 9d 59 82 db f7 3f 6e 58 0c 7c 54 7f 09 40
       1.4910911083793976 3.1871728602664495
000760 34 74 d0 1a 09 e5 fb 3f c8 bd 56 d4 b6 ec 0d 40
       1.7434168860847992 3.7405830944987635
000770 4f 7a cd ea 00 42 14 40 86 ae 9b 80 d4 5a dd 3f
       5.0644566238321 0.4586688285769259
000780 d9 8c e9 78 2a 0d 0d 40 84 27 2c c6 22 ae 16 40
       3.6314286657594548 5.6700545277070695
000790 81 e6 82 d2 c1 1d 11 40 a6 a9 f4 62 ae a1 12 40
       4.279059685935523 4.657891794379259
0007a0 67 51 b8 61 84 1a 18 40 30 bd e1 97 02 e1 18 40
       6.025895621180417 6.2197364551096115
0007b0 c9 74 b1 0b c7 07 0e 40 89 de a9 79 af e7 03 40
       3.753797618248971 2.488127661224841
0007c0 de 5f 63 ba 88 53 00 40 d8 0d 65 a2 2a 23 03 40
       2.0407881318642316 2.3921711623276956
0007d0 aa a4 48 95 f7 4d 07 40 31 53 07 c6 94 f2 fa 3f
       2.9130698836130096 1.6842239127628995
0007e0 9a 71 b5 13 53 70 0b 40 d0 40 07 d4 36 22 0f 40
       3.429845956778263 3.8917061390603536
0007f0 00 5c 90 49 12 d4 11 40 38 97 e0 40 3c fb f3 3f
       4.45710101073837 1.2488367590207883

lin_weight f8 [21, 512]
000000 e3 65 b8 14 2a 52 bd bf 91 63 df f5 e4 81 ec 3f
       -0.11453497892252744 0.8908562471580003
000010 db 5f 5c 53 b5 7e e6 3f be 86 54 63 92 93 e2 3f
       0.7029673221722946 0.5805141391794775
000020 15 61 ac d1 59 c4 e1 bf 64 84 0b f7 a1 ab e3 3f
       -0.5552186103041402 0.6147012543771209
000030 9b ea 98 d7 0a 70 f1 3f e3 3f 03 ac e0 3d f3 bf
       1.0898540899058051 -1.2026068419690936
000040 ff ad 97 1c 90 47 e1 bf 28 cf 9a 27 e6 10 e4 3f
       -0.5399857099959603 0.6270628713159327
000050 ac fc f2 06 75 65 ed 3f 81 56 c9 4e 5c 92 ea 3f
       0.9186349044538438 0.8303662813948024
000060 57 bf 2f 68 78 ca e9 bf 3b 3c 8a ff 2c 44 e1 bf
       -0.8059656176464881 -0.539572238065268
000070 a3 47 b2 8a b9 49 fe 3f 41 29 9c a3 e6 41 c2 3f
       1.8929992120579093 0.14263613690156698
000080 f3 a5 26 a4 dc 8e e6 3f 91 ae e2 ca f0 73 c8 3f
       0.7049391943048121 0.1910382261897792
000090 29 c4 b5 fc b9 19 ef 3f 38 ff ae a0 27 3d de 3f
       0.9718904433958687 0.4724825925040821
0000a0 d1 7e 64 80 30 cc f2 3f ef 52 22 e1 ad db f0 3f
       1.174850942166746 1.0536326212215348
0000b0 47 44 3d a1 6f 2a c5 bf 10 66 0e 4f c9 1a f4 bf
       -0.1653575455953009 -1.2565396392950596
0000c0 80 e0 ad f9 89 e9 e1 3f 3f 44 6b 39 33 d7 f0 bf
       0.5597581745669373 -1.052539085667618
0000d0 87 35 63 53 20 62 e5 3f b9 7b 88 b7 8f a2 e0 bf
       0.668228304735451 -0.519843920195732
0000e0 50 40 42 c1 4b 06 f4 3f 5b 42 7f 75 de 91 ef bf
       1.2515370892688402 -0.9865562720170361
0000f0 20 79 3e db 8a a2 ec bf fe 34 98 2a e3 71 d8 3f
       -0.8948416025266717 0.38195113334298003
000100 d6 69 fe 20 55 0e b6 3f 62 33 77 4e 19 b6 eb bf
       0.08615619712364916 -0.8659788639575761
000110 64 af c6 d7 06 c0 ed bf ba 70 5c 19 b9 43 e0 bf
       -0.9296907629372808 -0.5082669730504883
000120 57 df bf e2 9d 21 ee bf 9b 27 aa 10 fe 3a f0 3f
       -0.9416036061001972 1.0144024516070889
000130 4b 40 35 db cd cf f5 bf 6d 78 c1 b0 bb 11 f2 3f
       -1.3632334292233448 1.1293293861886256
000140 bc 20 c8 00 63 c7 fa 3f 73 3e 54 d9 fd a3 00 40
       1.673678401044568 2.0800740221819125
000150 44 56 1e 20 00 12 8e bf cf ca e7 17 98 38 f0 3f
       -0.014682770710162114 1.0138169225507914
000160 3d 3a d8 d5 26 1f f3 bf bc d2 5f 2e f2 24 e7 bf
       -1.1951053956323812 -0.7232600122211674
000170 43 ed 1a 4e 5c 23 e5 bf 10 40 d6 76 c9 62 de bf
       -0.6605664754382946 -0.47477947812240107
000180 19 06 24 5f 1c ef d4 3f 03 5a c7 2c 07 47 d5 3f
       0.3270941666706633 0.3324602067272339
000190 73 13 20 da 4f 43 c8 bf 59 a9 14 e0 1c 97 e0 bf
       -0.189554196840756 -0.5184463860107754
0001a0 5a 79 f7 8d 73 fd f4 bf 89 fb 61 dd 19 6e e4 bf
       -1.31187777953854 -0.63844006766145
0001b0 29 93 31 1f d6 92 e5 3f f2 d7 c0 26 8a b7 db bf
       0.6741743668795596 -0.43307737144948455
0001c0 4a 8a 9c b3 a1 7b fb bf 6a ef 77 29 b1 7e b5 3f
       -1.7176835075448644 0.08396441709913707
0001d0 b9 0e 7b 9a e4 83 d5 3f 65 f9 e0 01 76 54 de bf
       0.33617510877614226 -0.4739050882671079
0001e0 d2 78 ef cc 07 dd d4 3f 96 0b 97 a6 29 14 e7 bf
       0.3259906293223028 -0.72121126687158
0001f0 6b 94 68 3a ae 4a f6 3f ed c3 94 f4 32 11 e1 3f
       1.3932325631697278 0.5333494927382368
000200 cb bf 49 e5 0e 46 e4 bf 49 05 c2 2c 80 d4 d2 3f
       -0.63355202467755 0.2942200123871613
000210 67 f4 96 5d b3 e0 92 3f 72 32 8e b3 5b be c1 bf
       0.018435289942989288 -0.13862177150112448
000220 d1 fa 0a 85 1d 33 f0 3f d3 70 b4 e9 0c 04 ca 3f
       1.012479324053562 0.2032486096512743
000230 3b 7b 67 b8 f6 39 df bf 14 72 fa 05 6b 58 9c bf
       -0.48791282661652574 -0.027681038131605787
000240 f7 11 7f 7c 76 07 de bf 92 4b fc d1 33 88 e3 3f
       -0.46920549543236184 0.6103762723235937
000250 98 aa 96 10 9c d3 e4 3f 4b 86 c8 0a b4 24 e9 bf
       0.6508312534327443 -0.7857303820239364
000260 45 f8 6f 4e 0a 96 e9 3f 7e 4b d0 ca 26 92 fa 3f
       0.7995654613475912 1.6606815264137533
000270 d7 6e 99 e6 d4 65 f3 bf 33 6d ba 61 a9 05 d3 3f
       -1.2123612411295903 0.2972205595376238
000280 90 bc d8 b7 aa e1 9b bf 7e 65 0f 7e 95 69 eb bf
       -0.027228038283450717 -0.856638666354385
000290 61 39 c4 76 44 b7 e1 3f 87 70 c3 e1 91 30 e9 bf
       0.5536215133341039 -0.787178936905108
0002a0 a0 6b 22 9c 47 a5 6f 3f 40 c4 f4 87 3b 48 c8 3f
       0.0038629912024367857 0.18970436228258514
0002b0 a2 90 ea 81 bd eb f3 3f a0 bf 2c bf 32 32 dc bf
       1.2450537752966189 -0.44056385678686105
0002c0 c4 63 a7 9c c7 02 ec bf e6 5f 24 0e 73 85 ec 3f
       -0.8753393230100461 0.8912902141773855
0002d0 d9 a6 c3 3f ee 1e dc bf 8d 80 57 57 16 32 f2 bf
       -0.4393878576944253 -1.1372283374585408
0002e0 66 f9 94 b9 5b 0f c9 bf 8e 97 72 55 c5 43 e2 3f
       -0.1957811981355448 0.5707728070162703
0002f0 8e 1a 88 35 e2 5a f0 bf c6 03 93 c2 06 e6 f2 bf
       -1.0221883860664636 -1.1811587906415624
000300 49 45 47 45 cc f8 d1 bf f9 95 69 80 11 97 e4 3f
       -0.28081042066067546 0.6434409626060066
000310 fb 20 6a b9 0f 64 e7 bf 96 33 eb 3f a5 7b d4 bf
       -0.7309645291689145 -0.32004672281328206
000320 7b 43 81 07 7a e6 e6 bf 03 e1 af 21 f4 42 e8 3f
       -0.7156343599873333 0.7581730516385793
000330 ef c4 62 cf d3 13 f0 3f d8 c2 96 3f e8 47 f1 3f
       1.0048406697281356 1.080055473703558
000340 b3 32 b5 00 ad 98 c8 3f fa f8 a4 e4 32 2e e3 bf
       0.1921592954116896 -0.5993895021163376
000350 79 5e 5b 62 c5 a0 c7 3f 9e 8f c8 dd 51 36 ec 3f
       0.18459384253104696 0.8816308337886658
000360 24 87 5b c1 d6 5b f6 3f 4e cc a6 cd 76 f6 a0 bf
       1.3974216034916447 -0.0331303716697212
000370 78 79 f1 4d ad 79 f1 3f 0f b4 5a f7 4a b7 f3 3f
       1.0922062916430075 1.2322492277410253
000380 ea e7 88 d1 a5 cc f6 3f 71 7e 99 4d 0e 40 e6 3f
       1.4249628243401227 0.6953193202607065
000390 91 42 8c 07 16 85 fe 3f d6 44 95 cc 56 44 f4 3f
       1.907491712078045 1.26668434062258
0003a0 e0 d7 d4 ec f8 a8 dc 3f e3 73 43 c7 91 62 df bf
       0.44781325462406407 -0.4903912015850535
0003b0 fc c6 37 05 19 49 f4 3f f2 6f 3a c8 a4 ff fa bf
       1.267846126921028 -1.6874130078713248
0003c0 5b dd 5d 5d 1f 3b d8 bf 7f 67 cc e2 54 02 b5 3f
       -0.37860855214917927 0.08206682717391621
0003d0 af 29 8c e0 ff d1 ca bf ce ad 06 cb 2e 80 ef bf
       -0.2095336767600435 -0.9843973126748382
0003e0 66 26 00 7d 82 c2 f2 3f a6 51 c0 2f d3 80 de bf
       1.1724877245746028 -0.47661285079200366
0003f0 49 0d 40 c0 1a 6c b0 3f 02 11 cf 0b 8e 6b da bf
       0.0641495437012526 -0.41281462815483405
000400 09 4f c7 2d 00 e0 fa 3f 5e 4d 4e 57 75 d8 e6 bf
       1.6796876705383872 -0.7139231400673614
000410 2b c7 da a3 71 77 ed 3f 6b 84 94 f4 46 11 f3 bf
       0.9208305549893557 -1.1917180589591918
000420 2f 98 f3 f8 55 d2 e9 3f b5 84 42 be 3e 10 d8 bf
       0.8069257604918273 -0.37599152164518596
000430 52 9e 47 ba b0 d4 f0 bf 7b e6 03 b9 fe 00 e1 3f
       -1.0519263531258685 0.5313714612559147
000440 2e 7b 91 4a e1 f0 e2 3f 2b ce b6 7b e7 3f d7 3f
       0.5919043022548516 0.3632754047532411
000450 07 f3 e4 24 01 a4 f5 3f 3f 82 5c a1 a2 37 d2 3f
       1.3525401536164183 0.2846457076830439
000460 88 59 f4 e3 ca 5c f9 bf e2 f9 af 51 bd 1d d5 bf
       -1.5851544289085684 -0.3299401567200261
000470 b0 e2 b5 a3 be 17 e4 3f 3a f7 99 0f 7e f8 da bf
       0.6278985211821091 -0.4214167740209295
000480 6d 39 de d0 58 84 f0 3f 2e 76 ff 08 32 59 db 3f
       1.0323112639340153 0.4273190582151497
000490 51 78 44 c1 c7 d6 df bf bb f2 22 a9 45 20 ef 3f
       -0.49748414872909047 0.9726894668052276
0004a0 98 29 90 61 5d 97 e1 bf bc 3d 26 40 94 b8 e8 bf
       -0.5497271447687124 -0.7725316288869446
0004b0 3f 9a 32 1f 26 04 f0 3f 02 71 18 21 49 e1 f0 3f
       1.0010129183443863 1.0550013821403472
0004c0 8e 54 ea cb 03 07 a9 bf 4a 66 a1 85 ab 70 d1 bf
       -0.04888164390755732 -0.272501831530097
0004d0 f7 69 33 e9 a9 5a ea bf dd ea a9 f0 01 cf f6 bf
       -0.8235673479751416 -1.4255389595916121
0004e0 00 01 0b 36 43 fe e2 3f 74 a7 93 a2 d7 1a e4 3f
       0.5935379081275016 0.6282766509368529
0004f0 36 2d f8 41 a5 a9 e4 bf 40 9b 79 34 56 ed f0 3f
       -0.6457086838212607 1.0579435396009131
000500 d1 42 6f fe af 18 f1 bf 39 a9 48 a1 ca 99 cf 3f
       -1.0685272158481676 0.24688084483325115
000510 47 13 33 96 10 6c ec bf bc 0a a7 ea bf 6d b2 3f
       -0.8881915029129254 0.07198714712925897
000520 8c 21 6b 00 c6 ff c7 3f 72 e9 97 4a e7 37 da 3f
       0.18749308605607629 0.40966207775604524
000530 3a 76 04 11 c2 d4 df 3f 86 72 63 9f 52 02 c0 3f
       0.4973607221780615 0.12507088453903153
000540 be 56 11 5c bc 08 ef 3f 3c 33 4e d6 53 86 ee bf
       0.9698163793752526 -0.9538973985341737
000550 45 14 07 61 6f f4 eb 3f e1 a1 79 64 f5 aa ca bf
       0.8735882659026478 -0.2083422413445666
000560 b8 28 9c 4e 41 34 da bf b8 97 85 15 b5 75 f4 3f
       -0.40943939854390576 1.2787371483513947
000570 02 a8 61 44 cd 6c bd bf 23 b2 8e 78 13 b8 e7 3f
       -0.1149414340922306 0.7412202219616727
000580 3c 37 7e 8f de 3c cf bf df 11 4d 60 ec 36 e4 3f
       -0.2440450859689295 0.6317045098190269
000590 24 e6 99 5a ae d8 e6 bf f9 65 b8 c7 f2 25 d4 bf
       -0.7139503259233533 -0.31481618408142215
0005a0 b4 77 3a 76 ce 24 da bf 40 f2 05 d5 c0 d7 e0 3f
       -0.4084964899610626 0.5263370667085567
0005b0 3d cb 62 23 c7 21 f1 bf 04 f4 ab 78 df 07 e1 bf
       -1.0707465536367657 -0.5322110516423213
0005c0 de 1b 04 a9 d2 15 f8 3f 85 c4 7c 3c 35 7d ed bf
       1.5053278543652975 -0.9215341740983979
0005d0 fa b3 5c 9c 3a 0f f0 bf 44 69 16 db 75 35 01 40
       -1.0037180049796448 2.1511036983694414
0005e0 25 1c 08 cf 33 db fc 3f f1 67 33 57 36 f0 d0 3f
       1.8035162055182437 0.2646613933153495
0005f0 7f 9a 10 a5 c3 9d 79 bf cd 0c 69 91 bc 9f f3 bf
       -0.006253971326293794 -1.2264981918422564
000600 b4 cc 1d 78 45 7f e5 3f 3f 0b da e7 2f 00 f1 3f
       0.6717860551856547 1.0625456864078868
000610 2b 81 eb 49 2b 9b d7 bf 1a 33 c8 1d 32 c4 ee 3f
       -0.3688457700609599 0.9614496785812634
000620 81 41 62 75 41 01 e5 bf c6 7b 8d dd f6 cc f5 bf
       -0.6564032833721712 -1.3625401167298477
000630 8f 80 83 9f 1c e8 f7 3f 2c b1 b3 23 80 e9 c1 3f
       1.4941679221156254 0.13993837111719054
000640 d3 56 65 a9 cf 5f ec 3f 91 35 30 9a f5 55 da bf
       0.8866957005036177 -0.4114965444321906
000650 0a 88 08 fd 54 f3 a9 bf c5 a6 03 4c 9f d8 b1 bf
       -0.05068460072313037 -0.06971164327446917
000660 ab f8 19 a6 a1 a8 ec 3f 5c 83 ce 79 ee 79 f8 bf
       0.895584892670532 -1.5297684438775923
000670 fa 03 7c 75 70 40 dd 3f 67 a8 a2 87 e7 de f0 3f
       0.4570580622967665 1.054420022798263
000680 c8 c0 b8 e8 a7 90 f2 3f 60 4d 01 bf 50 e2 d5 bf
       1.1603163805666998 -0.3419381966861774
000690 60 64 30 d7 57 81 e9 3f 80 2a e4 50 86 56 f5 3f
       0.7970389559660696 1.3336241874518748
0006a0 56 1f fc e1 de 34 d5 3f 22 b5 85 ed 3f 28 e6 3f
       0.3313519675143558 0.6924132956607176
0006b0 dc a1 ba cf d4 1c f3 bf 46 59 ff a0 41 b5 bc 3f
       -1.1945388903060268 0.1121407526073642
0006c0 2e 9d af bb 8c 00 f4 bf 94 8f 25 37 1d 0b f2 3f
       -1.2501342135891025 1.1277134088677245
0006d0 15 86 cd 12 ef 25 d4 3f 68 be 97 de b6 55 e4 3f
       0.3148153003331527 0.6354631755365974
0006e0 2e 71 4f b3 e4 29 f1 3f d0 d0 25 80 d7 32 ee 3f
       1.0727278713521389 0.943706274307738
0006f0 09 37 75 9f cb f2 e0 bf f4 89 af 9b b2 e1 f1 bf
       -0.5296381105815452 -1.1176019746277435
000700 fc c5 70 6d d6 bf e2 3f 1e 79 c9 41 58 e8 e8 bf
       0.585917676688211 -0.7783623967077664
000710 8e 08 ed 7d 6b 47 fe 3f 53 69 bf 7b 9e 74 e9 3f
       1.892436496637433 0.7954857270190508
000720 dd 7c 5e 5f 25 e9 ee 3f e0 ad b8 6f c6 5a f2 3f
       0.9659602034261315 1.1471618999593076
000730 3a 63 54 66 74 dd fa 3f a4 b1 9c fe dc 45 ec 3f
       1.6790660855533148 0.8835282299892708
000740 6e 64 c1 5f 5e b3 f7 bf 26 73 ec fe 8f 9a f4 3f
       -1.481291173977549 1.2877349813417793
000750 45 ae 00 b5 3c 19 ef bf 8a 47 2d ce a6 16 00 40
       -0.9718307051857172 2.0110603435104553
000760 df c9 1b 5a 87 c0 f2 bf 0d e9 bd 78 8a 82 e5 3f
       -1.1720040817132185 0.6721851690520296
000770 5c a9 cb 53 e8 08 04 40 d9 c1 97 2b 71 65 f1 bf
       2.5043493792083336 -1.087266130718595
000780 07 83 56 33 a0 3e d8 3f 24 81 97 e4 00 53 f1 bf
       0.37882237447233574 -1.082764523445868
000790 a3 03 a5 98 db 38 dc bf 90 9d 7c c3 6c ea be bf
       -0.44097032458017277 -0.12076453945757337
0007a0 e4 05 d8 4f 22 8b ec bf 0c 08 17 7f b8 7d d2 3f
       -0.89198413462162 0.28892338191155953
0007b0 c1 00 cd 41 18 e2 f1 3f 57 0a 45 1a 14 06 be bf
       1.1176989145606486 -0.11728025094365911
0007c0 33 97 fe 5f f6 9a d9 3f 23 d0 55 84 7b 07 c4 3f
       0.40008315443479886 0.15647834741287267
0007d0 09 db 7b e7 98 06 bf bf ac e3 b6 37 71 d2 e7 bf
       -0.12119441653690556 -0.7444387520000553
0007e0 56 b4 d7 52 36 e1 ff 3f 4b ad 02 ec 40 51 e3 bf
       1.992483447650803 -0.6036686524943574
0007f0 3a 5b b3 8e 01 01 bc bf 3d f0 a8 f8 39 4e de bf
       -0.10939035161878233 -0.4735245636291017

lin_bias f8 [21]
000000 49 ef 50 83 42 36 f9 bf e0 25 1e df 9c db fa bf
       -1.575747025445667 -1.6786164012468063
000010 63 f7 fa 23 39 bd f9 bf d0 06 5c 2b 53 d1 fa bf
       -1.6086970715982367 -1.676104707119908
000020 b1 a8 16 4e 9b 0f fb bf f7 b6 7a e0 ae dd fa bf
       -1.6913102197964174 -1.6791218537068155
000030 50 27 40 28 a1 38 f8 bf f2 b0 35 23 e4 58 fa bf
       -1.5138255665101106 -1.6467019439106108
000040 ef df 7b fd d9 96 fa bf 78 6e b4 63 42 4f fa bf
       -1.6618289853777204 -1.6443504233092465
000050 3b 8c d6 81 38 90 fa bf be 20 b7 62 e1 32 f1 bf
       -1.6602101394462483 -1.0749219757145023
000060 59 5f 55 5f 5a ee fa bf 5c b9 98 d1 b5 7b fa bf
       -1.6831916545833876 -1.6552026927343695
000070 87 0c b3 1a 91 0b fa bf aa 99 f0 fb 62 6c fa bf
       -1.6278239291139316 -1.6514615861320672
000080 eb 4b 29 bd 6a 85 fa bf bc dd 90 03 fe b9 fa bf
       -1.6575724972833494 -1.670408262185318
000090 ad 6f 57 95 de 15 f6 bf ab f0 6f ff 47 59 fa bf
       -1.3803392251638613 -1.646797178079434
0000a0 e2 24 87 51 64 e9 f9 bf
       -1.61948043677176
