LSR_strength_relation/outputs/Model_old.pth (torch, 1689 bytes, 3 tensors)

_raw_param_deltaH f4 [7, 6]
000000 34 60 d9 bf 18 80 01 c0 d1 82 41 c0 a5 24 3d c0
       -1.6982484 -2.0234432 -3.0236094 -2.9553616
000010 ba 20 25 c0 ee 26 24 c0 15 7d 1b c0 36 fa 17 c0
       -2.5801225 -2.564876 -2.4295094 -2.3746467
000020 1a 5f 17 c0 7c 90 2c c0 71 2c 0e c0 5a e8 1b c0
       -2.3651795 -2.6963186 -2.2214625 -2.4360566
000030 f4 b4 27 c0 95 11 24 c0 d7 f9 15 c0 75 60 e5 bf
       -2.6204195 -2.5635731 -2.343374 -1.7920061
000040 f2 79 11 c0 9d 73 40 c0 2c 80 01 c0 66 fc bf bf
       -2.273068 -3.0070565 -2.023448 -1.4998901
000050 43 eb 3a c0 43 9f 3d c0 df db 33 c0 9f df 07 c0
       -2.9206092 -2.9628456 -2.8102949 -2.1230237
000060 bf 58 97 bf 55 27 a6 bf 8f b3 5c c0 a4 50 01 c0
       -1.1823958 -1.2980753 -3.4484594 -2.020547
000070 0d e7 6d c0 8e b9 03 c0 12 22 fb bf 8d 3b 23 c0
       -3.7172272 -2.0582004 -1.9619772 -2.5505097
000080 7f 1d 0b c0 25 f5 50 c0 d2 df a0 bf 55 6d 45 c0
       -2.1736753 -3.2649624 -1.2568305 -3.084798
000090 12 d0 0b 3d b7 bc 09 c0 0b b2 36 c0 24 93 bf 3f
       0.03413398 -2.1521432 -2.8546169 1.4966779
0000a0 be 83 1e bf 36 2b dd 3f
       -0.6191977 1.7278812

_raw_param_KHP f4 [7]
000000 5a 70 d6 bf 19 5a 7c c1 ad 6c a1 40 92 3a a1 40
       -1.6753037 -15.7719965 5.044516 5.0383997
000010 32 8b a9 40 1d 93 a9 40 ed 59 9f c1
       5.2982416 5.299208 -19.91891

subModel1.fc.weight f8 [21]
000000 25 6f ec 79 68 d5 2f c0 2e 63 d9 b5 38 31 30 c0
       -15.916812715636818 -16.192271581242657
000010 70 80 21 aa 8b 9e 30 c0 4e 20 9f f1 c3 6b 30 c0
       -16.619318612269524 -16.42095861563603
000020 46 80 c7 ab fd 0e 30 c0 3a f4 d4 19 1d b9 30 c0
       -16.05855821247703 -16.72310029458115
000030 3e 5b 1d e8 dc 13 30 c0 68 b3 ed e9 3e 6a 30 c0
       -16.07758951870641 -16.41502248814814
000040 6b 68 df 6a 02 2e 30 c0 3b be b1 ba 14 38 30 c0
       -16.179724387686672 -16.219066303629216
000050 7a 67 3c e1 15 1f 30 c0 4b f6 f0 f1 ac 79 30 c0
       -16.121427609679337 -16.475295182541497
000060 6a 50 b7 50 16 96 30 c0 73 12 7a 37 c2 69 30 c0
       -16.5862780044121 -16.413119761755706
000070 5c 3c 8e fc 91 26 30 c0 f4 ba f0 40 ed 3a 30 c0
       -16.150665077901394 -16.230182703754465
000080 2f 01 a9 53 ad 63 30 c0 98 1e 36 ed 33 37 30 c0
       -16.389363507042784 -16.21563608714368
000090 a5 7d 0a 7d 8c 2c 30 c0 66 c8 86 e1 58 b2 2f c0
       -16.174018683491926 -15.848334357932071
0000a0 68 d5 7c 3f 2a dd 2f c0
       -15.931962951649169
