LSR_strength_relation/outputs/Model_best.pth (torch, 105518 bytes, 7 tensors)

_raw_param_deltaH f8 [7, 6]
00000000: 87fb 4b0a 6972 01c0 13c7 6934 e61c dc3f
00000010: 1aaf e7ab c7db fdbf b58e 3517 722e f2bf
00000020: 2702 0347 de4d 00c0 95c9 bcd5 6b59 f9bf
00000030: 1f37 fff8 a589 f1bf 080e 8bae 7174 04c0
00000040: da69 86d8 aae2 eebf 489e a1a2 1a27 f7bf
00000050: 8e78 7b36 fe08 0dc0 05bb aba5 4855 fdbf
00000060: 7e2d 1042 c04c 0ac0 f33c 6db4 4288 febf
00000070: 9f4e 0041 5ec5 f3bf 91b6 f627 c533 01c0
00000080: bd5e 0e10 558c f1bf d93e 47c0 cdb7 b83f
00000090: 59b8 27cd 14d7 f03f 59e4 9f54 ee5a fcbf
000000a0: 2be6 db54 c300 f2bf 9fe1 5c33 0e5d eabf
000000b0: 41ac 9735 7bf2 d3bf 2c7b 3a2f dfbe c6bf
000000c0: c65d b607 79b7 c13f a240 6cbf d173 e93f
000000d0: 38f6 7979 1a43 f5bf 429b 86ae 0f9d e7bf
000000e0: a84a 702a 56fd 06c0 ed8e b1e7 667c 01c0
000000f0: 7609 8576 8bbe 07c0 8f1d 38f1 b7e8 00c0
00000100: aabe 51ee 4d5a b3bf 2f75 8391 b555 e3bf
00000110: c54b 471f 11d1 00c0 845e 5e94 5df5 eebf
00000120: e18a fbad 47a8 a23f b30a 2c66 6a92 05c0
00000130: caed e7bd d3f0 2240 9412 9520 8aeb f9bf
00000140: 3356 3214 9f6a 02c0 a3e0 6fed d429 dd3f
-2.180864410823634 0.43926386946178403 -1.8661572184600517 -1.1363392740831106 -2.038021616725263 -1.5843313550109077 -1.0961055494730727 -2.5568574558435593
-0.9651693562512336 -1.4470468857561105 -3.6293911224775632 -1.8333212348476888 -3.2874760781466525 -1.9082667396467599 -1.2356855906590807 -2.150278389183605
-1.0967608096306514 0.09655462211889744 1.052510072123843 -1.7721999459884243 -1.1251862826160373 -0.8238593104534181 -0.3116748832096086 -0.1776999455077769
0.13841164471226203 0.7953881014564284 -1.3288826699421303 -0.73792251669952 -2.8736995044249234 -2.1857431508122915 -2.9680394420003564 -2.1136320920229035
-0.07559668606131234 -0.6042125551281624 -2.1020834392197423 -0.9674518487763213 0.036440124500378486 -2.696492002696084 9.470365461885098 -1.620004775309245
-2.3020612314092204 0.45567820727547764

_raw_param_KHP f8 [7]
00000000: 42b9 32e6 c97b 12c0 cb15 a568 beb8 12c0
00000010: c20d 363e 24bf d6bf adb0 5739 8f18 f6bf
00000020: e30b bad6 689b f8bf c527 a508 4f2e 06c0
00000030: 6729 fb6b 7e6c 1f40
-4.620887371869971 -4.680413851810452 -0.35541635585124365 -1.3809959640448526 -1.537941778923362 -2.7726116824532903 7.855951010899253

subModel1.a_layer.log_lengthscale f8 [3]
00000000: a22d 0b11 5ec5 58bf 2951 651f 88af e53f
00000010: adca 14b3 4314 85bf
-0.001511899816409514 0.6776772130201937 -0.010292557623505639

subModel1.a_layer.W_base f8 [512, 3]
00000000: a95c ef07 f704 fc3f 12c6 dc77 a88f c33f
00000010: b4a3 614a e8c6 f3bf 72e7 4bd6 95db e7bf
00000020: a41a 2866 fd7b f23f 17b4 196c c8fa eb3f
00000030: 82c7 e710 12c2 c5bf 8ee7 a860 d465 ee3f
00000040: 21aa 2df3 b4d8 c93f 070c 6d73 1c23 db3f
00000050: d4ca 9711 4aa7 c23f 01e0 4169 5462 d13f
00000060: 0da7 c87f 081f f2bf 3750 a927 4cda 05c0
00000070: fb16 e572 4210 d2bf de3b 626d 5420 f3bf
00000080: 92f4 5f15 6b00 de3f 2489 2215 e3fe f33f
00000090: 6397 a762 1022 cb3f a8e2 e27f 4b82 d5bf
000000a0: 7b8e 5a05 b462 aebf 7f04 074e 3b60 04c0
000000b0: 7f90 00c7 897c e33f 4ba3 c5b4 b9f8 dcbf
000000c0: 0477 8962 0093 e73f 1c1d da7a 40e4 cc3f
000000d0: 8d2d 72e4 e4a1 cf3f 24d0 149d d405 03c0
000000e0: 718d 0399 f237 d5bf e6ed 5aaf ce8f cfbf
000000f0: b8e0 b69c 251c e53f 282e 51b6 42e0 df3f
00000100: d279 aebf bad1 e33f 12c1 2743 977e e3bf
00000110: 7f23 dfbf abd2 c33f 43df 01c9 49c2 e6bf
00000120: 387a 86d2 16c5 d23f 9967 2bd9 5284 fcbf
00000130: 8cc6 2d46 510a debf 8e06 2aa4 9ad8 fe3f
00000140: a1c3 0ff6 f388 fe3f af57 4592 2a5f da3f
00000150: 2644 88c2 522b e03f 7063 abd6 faca d0bf
00000160: df62 1f11 7443 ecbf 1646 372e 451b f1bf
00000170: 2af5 941a c724 d73f 0fc5 b867 aa81 b13f
00000180: 8d6b a0d8 f5d4 f9bf 38aa f21c 4ef7 babf
00000190: d041 79b0 dc52 e63f 39ac dd98 a0cc d23f
000001a0: b38a 0ad6 fbb8 e43f a99c f47c 0d0a e03f
000001b0: cc60 f538 11ed c1bf 3524 bace e76a fd3f
000001c0: a2af 143a 9bd6 cdbf 23cc c25d 36e3 0140
000001d0: 1407 eaf5 2474 d73f 3ead ea9d f5e1 f43f
000001e0: a8db 4a1e 8732 f0bf f18d 27a0 d009 f23f
000001f0: cc1e 7ab4 9505 cc3f 709b 486b f947 e6bf
00000200: d0fb cee7 e567 cdbf 613f 3a8f 1e58 51bf
00000210: f6fe c092 1c69 efbf 0038 ef8e 4d76 e9bf
00000220: 8485 a00d 9487 c23f 1256 a2c1 93b5 cf3f
00000230: fcbf e5e0 571a abbf 0a6b 0bac a37f d43f
00000240: 11c6 4f63 a4f4 c6bf a2bd 1020 db18 f7bf
00000250: 5695 4578 6bfe f23f b393 fc67 a948 e43f
00000260: 5572 6b53 3bfe f6bf 5961 f19c 4474 b1bf
00000270: c230 278f 2884 c3bf 61d0 30a5 a256 d4bf
00000280: 7004 647c 425a febf ab98 2f80 3e0a 0340
00000290: b9ce 1f0b e6dd 00c0 d179 e18a 8745 d13f
000002a0: 3c5f 06d4 3e7c e4bf 266b ab6d 62b4 e03f
000002b0: a022 f634 af6e e7bf 6e47 5572 82b5 d6bf
000002c0: 099d 56ba d294 c63f 516b 47a3 6bf7 c7bf
000002d0: ca81 1498 2c0c fabf b51b c0a5 564c 0140
000002e0: 434c fb5f 27e9 f53f ceac 0cf8 55d7 fb3f
000002f0: 8cbd 8555 a07d f0bf 083a 88fa ad82 f23f
00000300: 8572 1194 f47e b0bf 8e8a 0c04 9c53 fa3f
00000310: 0d08 b883 8e72 d33f 3eed eead 1175 f63f
00000320: a3e0 eb10 1a5e e33f 7456 b64e b4bb f7bf
00000330: 1d1e 2438 8499 f6bf 0085 be96 c982 f8bf
00000340: bd74 7832 7bdf d6bf 5754 8ce6 3302 f5bf
00000350: c59d 1712 d4f5 f4bf a28d b702 898f d43f
00000360: f601 c853 0c19 cdbf 16e7 0d79 fa83 f8bf
00000370: 33fd 5fb9 dc8d e8bf 17ae 0cd5 c1f1 d0bf
00000380: 2c74 929d 4e8a c13f e5a3 9022 1b5b fb3f
00000390: 6003 3e87 7a19 f23f 55a7 8fa8 dbf0 e43f
000003a0: c392 b87b e71e eb3f 009c a5b4 7aa7 e2bf
000003b0: 27a7 155d 2608 e73f 5250 ec5d 86bc adbf
000003c0: b7fd 1dd8 9f6f d03f 2962 647a f7c6 e43f
000003d0: c9c1 b04e 3b53 e2bf 184a a3bd b5ee e03f
000003e0: 66a2 efd9 7397 91bf 6d7f dfa0 430a b53f
000003f0: 6f27 c475 6fd9 d5bf 8f54 8518 6654 ad3f
00000400: 3788 f1f2 b983 e9bf 448a 3391 470d d9bf
00000410: 2907 8b91 9763 e9bf aea5 7cd6 642f c03f
00000420: 9ee6 e0fb 9b7e db3f 94ac 3c2c 815b b4bf
00000430: ef5b 76b0 306b b7bf 1704 4237 8b29 eabf
00000440: db06 9f6b d0fa f3bf 2898 85d9 904a f43f
00000450: 3958 47c7 e38f b73f 8a47 225b fc3e f33f
00000460: 26c8 6077 1a18 e63f 828c 1197 e82e f73f
00000470: 93e0 2145 bbbd fe3f c368 4cb4 9313 c53f
00000480: 14ce 0b83 6b85 c5bf 0d7f a0a2 43ae f93f
00000490: b02f 573c db7e d13f 7185 a610 15bf e4bf
000004a0: 99b6 cf14 aa08 01c0 04e6 9ec4 5f08 fbbf
000004b0: e082 6597 1a03 f3bf e0e5 1f24 5965 ffbf
000004c0: 6f9c 43ec f763 c23f 3ec1 2785 6bf3 f5bf
000004d0: a8f2 627e b6d6 c23f ef24 7fa6 ec9b f1bf
000004e0: 0362 a869 64dc e0bf 78ea 2551 eaac e5bf
000004f0: 43b0 4049 ed7c efbf 6e9b 41cf e360 0440
00000500: 833d fa34 b9e8 fdbf 0ef6 1f2b e545 d63f
00000510: 8b3e bac1 d2be d03f 5485 6d9a 76b4 f13f
00000520: faea 9e77 b7f6 dd3f 2158 1dc9 4809 bf3f
00000530: 96f5 ed6a 63e5 a83f edb5 d181 3b3e b13f
00000540: 1e71 9d29 e037 d23f a0eb aa02 2f06 fdbf
00000550: a992 c4da 1ead cfbf 03c0 8023 638e e6bf
00000560: 322c 77bf 1ce1 d13f f2bd 0577 d7dd e63f
00000570: bdbd 994e 393a f93f 4469 bb81 ad6b d8bf
00000580: ead2 fa71 4996 f8bf 1e7b 3705 9043 bdbf
00000590: 9c6b c1a5 4c08 fa3f 2e30 fc29 ba51 d93f
000005a0: 788e 122f 8230 06c0 caf0 edd4 a7a4 f3bf
000005b0: 3314 890b c879 f3bf 11e5 32bb fe9e fd3f
000005c0: 376b 5ac7 4fc9 ea3f 5fcd 6639 2790 e23f
000005d0: 4bd0 9387 760e cf3f 8c36 2213 4d43 d43f
000005e0: 5c40 249c 94b0 f0bf e8ed 04af 4e49 d83f
000005f0: 1640 5dd5 1d09 e0bf e612 c184 b0b7 ca3f
00000600: 514d ae76 5c18 febf 3822 c64a 1adb ff3f
00000610: d37c 2f8a 2212 e23f b9c5 8c70 6b78 e53f
00000620: 4c03 3b99 62ee dd3f 2662 77d2 aad5 cb3f
00000630: fa55 6089 d421 01c0 cfb4 9300 7bfe c5bf
00000640: d4e3 78d9 4c43 d03f fbb2 8a13 f7c1 bb3f
00000650: 43cb bca5 d0b5 df3f 3aaf 104c cb9e d63f
00000660: 10d1 bd27 a46d 953f eca4 41c6 242f c0bf
00000670: 4daa 72e7 03e6 dbbf a644 e97d d1d4 e63f
00000680: 77bf 6546 cbb9 f3bf 4329 a512 0ddc c33f
00000690: 6671 85a7 2a41 9cbf bf26 9ee5 80f7 e43f
000006a0: 2288 c7f9 4ea3 e23f bc4b dbbc 95f7 f4bf
000006b0: 588b 8d45 ebc1 e23f ee10 5685 c4d2 d1bf
000006c0: 63dc fa83 34e0 f13f 8ab7 dc39 1643 f1bf
000006d0: 0415 e2b9 7038 e83f efae 39e4 b08a fcbf
000006e0: 24fa 37ca a2ab d63f febf 3c67 d38a b7bf
000006f0: 87c7 a967 00bc ea3f a97d e3b2 a6c2 52bf
00000700: 40a9 4cca 7d23 b2bf 0d20 b91a a758 e9bf
00000710: 3e81 8785 c092 8ebf 8cfe 0203 047c d43f
00000720: dfde ada4 53a2 c2bf 37c6 e60e 50f4 e83f
00000730: b55b 0ae6 a671 ebbf c94f e9f8 5a98 b73f
00000740: 999c a229 27ee ddbf 8124 cca1 244c e53f
00000750: 51d6 f38c 62a9 e03f e5e0 25c0 f807 f03f
00000760: 0626 2130 e9f8 fa3f 5483 c346 3bf9 e23f
00000770: d291 02ce ccd7 b83f f1b2 686b 70ae e63f
00000780: 849d 4b50 6a5e fbbf def3 b699 2d9e e03f
00000790: 022c 1f7c 8856 f3bf a3ed 6009 c975 f4bf
000007a0: 2250 864d 1b7f e5bf d512 5cfb 1be0 d73f
000007b0: dc36 1c1f 2d60 ac3f c168 b276 b918 eabf
000007c0: 965f 5429 2685 e7bf fa91 9b06 4976 e23f
000007d0: 317b 1946 a6b0 fd3f 650d da73 879f e43f
000007e0: fe52 7407 d9f2 f33f 5421 6ce1 5df2 d63f
000007f0: 9853 0fee cc02 da3f 71d2 9ba4 50c8 ed3f
1.7512121496163593 0.15282159664779776 -1.2360613732837296 -0.7455548463324091 1.1552709570402522 0.8743631469093341 -0.16998506379564665 0.9499303710829154
0.20192586778587532 0.42401801368777153 0.14573026522665222 0.2716265705016668 -1.132576464801278 -2.7315905664964037 -0.28224240513041793 -1.1953930161287114
0.4687755306948215 1.2497282815534811 0.21197705094453587 -0.3360775708093038 -0.05934679570534925 -2.5469881149188605 0.6089524161111654 -0.4526809945441996
0.7366945194769134 0.22571569441445483 0.24712811617460453 -2.3778469345070494 -0.33153977339517043 -0.24657615244164716 0.659685903628108 0.4980627804222615
0.6193517440586283 -0.6092029868723634 0.1548666655419559 -0.7112168241428453 0.2932793670569569 -1.7823055728135613 -0.469379728826518 1.9278818524038885
1.908435784509699 0.41205848964943476 0.5052884864290987 -0.2623889061338138 -0.8832340559411839 -1.069157772570525 0.361619735678533 0.06838479072827773
-1.614492269704644 -0.10533607680069046 0.6976149985076123 0.29373946121512834 0.6475810223094726 0.5012271347558414 -0.14004721909691964 1.8385999751356057
-0.23311176620461277 2.235943539149518 0.36646389021926606 1.3051658791180922 -1.0123358901307515 1.1273962265048534 0.21892043411593531 -0.6962859244712103
-0.22973321741844055 -0.0010586069519468932 -0.9815810076033518 -0.7956912795723383 0.14476252236731224 0.24772879557410526 -0.052935358241370495 0.32029048730116527
-0.17934088563156128 -1.4435683491281925 1.1871142099492622 0.6338698416699259 -1.4370682962973167 -0.06818035918820921 -0.15247065534493315 -0.3177878010931235
-1.8970360621463236 2.380002023174787 -2.108348929317654 0.26986874163222035 -0.6401666775809427 0.5220195905670593 -0.732261279526103 -0.35482846417755
0.176416722283854 -0.18723817322355754 -1.6279722157124632 2.1622746419193057 1.369422316482784 1.7400722207483343 -1.0306704846114796 1.156904200211672
-0.06443718543000372 1.6454124601520195 0.3038669859234922 1.403581313540442 0.6052370386596703 -1.4833262514779593 -1.412479609776603 -1.5319305313535665
-0.35739021233332463 -1.3130377774989677 -1.3100166994789657 0.3212606932194949 -0.22732690897829827 -1.5322212914165383 -0.7673171635250696 -0.2647556858598547
0.13703329748105497 1.7097426748462052 1.1312203677082024 0.6544016163072494 0.8475224892068457 -0.5829442528018944 0.7197448556955565 -0.05807895561716293
0.25681301217261016 0.64928792862617 -0.5726601159022319 0.5291393951286549 -0.017179308106195633 0.08218786885799796 -0.34139620304687573 0.05728453683210787
-0.7973298783292709 -0.3914355199796413 -0.7934072344434969 0.12644634697907747 0.4296026191474115 -0.07952124910359465 -0.09147934253847699 -0.8175712661033029
-1.2487339214280186 1.268204545683611 0.09203933348848715 1.2028773841779832 0.6904423076250665 1.4489522839656108 1.9213211727601773 0.16465994170795825
-0.16813415430770873 1.605044970761756 0.27336769955285956 -0.6483254742817463 -2.129230654324442 -1.6895444565292346 -1.1882577814032445 -1.9622432147137872
0.14367579494794167 -1.3719287110689744 0.14717751666275558 -1.100567484262054 -0.5269033492687075 -0.677357824795151 -0.983999865600261 2.5473095123192513
-1.869317252105106 0.34801606379900896 0.2616469280119211 1.1065584213577795 0.46818339044300183 0.12123541746163415 0.048625094225808116 0.0673558418218005
0.2846603781124645 -1.814009676380671 -0.24747071916603616 -0.7048812573830222 0.2793647641926241 0.7145802807480648 1.5767148084959068 -0.38157212895534465
-1.5366911365828693 -0.11431217315064798 1.6270262217355826 0.3956132326136438 -2.7736858060396195 -1.2276991193348743 -1.2172317934612351 1.8513171493962697
0.8370741742722662 0.5800968285679281 0.24262887592306223 0.3166077315189362 -1.043110475471642 0.37947432605480325 -0.5011128585119902 0.2087307594503251
-1.8809475551577928 1.990991870961933 0.5647137354789272 0.6709496687164381 0.46767487491529347 0.2174581077258761 -2.14151866269344 -0.1718286278550409
0.2541076778175555 0.10842842318625039 0.4954721087007565 0.35344202450027107 0.020926060605647 -0.12643871002663987 -0.43591401674590174 0.7134787997439573
-1.2328598737621783 0.15515292559059377 -0.027592340922056556 0.6552128300401917 0.5824351194862667 -1.310445535393895 0.5861717565970634 -0.2784892370330131
1.1172375827279886 -1.0788786182633623 0.7568896894960351 -1.7838601031352785 0.35422582385936807 -0.09196206350748068 0.8354494118377581 -0.0011450412671861565
-0.07085405529929734 -0.7920718690811569 -0.014928344798079803 0.3200693158541774 -0.1455788187120026 0.7798233309787922 -0.8576235287645121 0.09216850830972513
-0.4676607042878885 0.6655448112588972 0.5206768753984737 1.0019462114124107 1.6857692604120316 0.5929237730125387 0.09704284696142132 0.7087938402015351
-1.7105506073511103 0.5193088533629824 -1.2086262558466392 -1.2787561766007023 -0.6717659486917038 0.37305354639856364 0.0554212666012128 -0.8155181234644929
-0.73500354835686 0.5769391182953421 1.8556273210776448 0.644473768494589 1.246789006346432 0.35854289068131107 0.4064209294131671 0.9307025160802153

subModel1.a_layer.b f8 [512]
00000000: cbdd f6f2 5f39 0a40 277f 2037 22b3 1740
00000010: f79c 9c1a ad68 0e40 3deb 3c42 9e22 1640
00000020: 7ab6 5b48 bd62 d73f 5ac1 8e4e 5403 f33f
00000030: a14c a5ac 0928 0140 8846 a981 4d31 ec3f
00000040: 4494 f4e9 2a90 1040 1d4e efeb 43d4 bf3f
00000050: 74cd a1b0 faa9 f33f 74d2 8e19 e916 1240
00000060: b962 05e0 73fe 0740 dbfc 3f43 5345 fa3f
00000070: 323d c63c b80a 7a3f 0076 41ad 9f31 1340
00000080: 570c aca5 0854 0b40 9128 5c43 4d53 f43f
00000090: e7e8 1a40 5dca f13f 20cf 1685 595b df3f
000000a0: 542e f8e5 c46f 0840 e4e7 1245 d768 1240
000000b0: b68e f542 88ba b03f 6fc6 3bc7 b251 f83f
000000c0: 9c5b c53d 1cad c93f 75f2 5c00 a4b1 0a40
000000d0: a70b 7992 ba5b f33f ed7f 4fcb 5ea8 e33f
000000e0: effb dd4c 1a56 0940 9ccf 1436 9994 f13f
000000f0: ac22 701c d3de a63f 1175 08f8 6ca5 0840
00000100: 8888 9f23 361b f83f 3976 aca6 2c11 1840
00000110: b75e dc55 c84c 1240 8544 156d f0b6 1440
00000120: 5d1f 013a 1779 1740 eb36 6a86 4b5f d23f
00000130: eb0e 4f31 8106 e63f fe69 b35e 1436 0440
00000140: c2a6 d1c3 0a87 1240 b1a9 06a2 482e 1740
00000150: 7bb1 3333 e729 0c40 095a ad5d 00c5 1740
00000160: a516 e66c 34e7 0e40 e31c 6198 1586 1240
00000170: 344c 8d5c 8c21 0c40 f34e 10a3 839d 0540
00000180: 1aaf 36b1 bdaa 1640 0ee3 0b8a 89d6 1140
00000190: 54e8 007d 23a8 1340 dd51 a72c 4f1f d63f
000001a0: 410e e153 deb1 ed3f c356 9e7a fd5a 0440
000001b0: d739 84bf 29ea 1140 9bd9 af8f 5417 1040
000001c0: 298c 724b 41b8 1340 1663 73a6 7734 f23f
000001d0: ccd2 f831 b6e2 e73f 101b c583 d6e3 0440
000001e0: aa48 2587 3153 0740 db8c 89a2 ed65 d43f
000001f0: 1958 7bf4 4086 f23f 8a40 0057 25bd f13f
00000200: c877 7a75 fd4a 0440 1228 1b77 46a0 1340
00000210: e1f3 8d29 8be9 0140 64a9 7f2d 92ce 1540
00000220: e72d 44f9 64d7 1240 76ef b570 1ab8 0440
00000230: 5bb4 cd3f f0fd 1440 e97d d78d bfd1 0e40
00000240: 4903 1e67 6ee4 0c40 5ce2 12ef c920 e63f
00000250: e139 2922 ad63 0640 4510 5c51 2577 0c40
00000260: 48ad e762 5698 1340 f3df 571a 901b f53f
00000270: 0695 6558 5f92 fb3f fec2 e001 efbd f33f
00000280: f446 6c3e 269e 0a40 ab1a 8ddd ad99 1740
00000290: 8c50 1dde 739a 1740 7fdc 7c52 7910 fc3f
000002a0: 8035 7428 f019 f63f 94a5 5ba0 2ed9 ec3f
000002b0: 471a a466 f7c3 0740 2c66 7761 c74c 1540
000002c0: 22a2 54ef 1220 1840 4e04 27d0 32c3 1540
000002d0: 2334 26fa 81cf 1140 fa99 89dc 35ab e43f
000002e0: ab29 8bfc eb3d e93f d2a0 92ad 0c9e fb3f
000002f0: 02b4 3022 4f92 1640 169f 2136 4bd1 0040
00000300: a0f3 65ff b383 1840 8a05 03e2 508f 1840
00000310: 37c8 c748 c3c4 0a40 539a 985b 5a58 f43f
00000320: 8896 b00f 91d6 e73f eae1 aeec 2211 f53f
00000330: 3af4 82a8 89d9 1540 a703 643c a3d6 0140
00000340: 5389 25a6 98b3 e83f fe59 7d1a c3b8 0f40
00000350: 2dc5 ef6c f18f e33f 69d7 bb2c c945 f13f
00000360: f13e be72 260d fd3f 99ec 23d0 5e2b 1240
00000370: f151 5bd3 b71a 0b40 72c0 ecd5 6b15 853f
00000380: 025a e99c 8a0f df3f 2c55 5b53 3ccd 1140
00000390: c35f 2d56 4305 fd3f d50e f1ec 5927 be3f
000003a0: 590f 2282 b33d 1740 ef70 13da 66ab f23f
000003b0: e371 9f30 1be4 0640 3bfc d33d 3cee 0140
000003c0: b89d 44ae 29d1 1040 c11b 8588 c51c 1640
000003d0: 7d36 f749 f54e f53f 3ed3 8ccf 6e1a 0c40
000003e0: a893 f601 f4e9 f13f 5264 b855 7f3c 0240
000003f0: 4108 399b 9d32 f23f 9ab2 b67a 9cb2 1440
00000400: 9519 5b5a da19 1440 0e98 9da5 f4c7 f53f
00000410: da73 b2a9 ff3b 0940 4516 795c 38bd ff3f
00000420: 43d3 7c70 46c4 1140 408c b361 17b3 0340
00000430: 79ef a3a9 f2f3 1140 2814 6fd0 97f8 0c40
00000440: d695 2043 787f 0140 6370 dd74 eed6 e43f
00000450: 13aa f0e8 a795 0d40 bb51 fd03 21a3 a23f
00000460: 1f08 fa55 a6d0 0040 9f0f a446 562b 1340
00000470: 7419 169e f9c1 1440 8840 d6e2 e20b 0740
00000480: 555d fb68 406d 1640 983f 6fd0 3e85 e53f
00000490: ddec 136c b21c 0740 0606 59fc 175d 1240
000004a0: 26ed ab4d 0907 0a40 3662 5df0 d0e9 fa3f
000004b0: 8b05 457f 4eb0 c23f 1a6c fcd5 56df 1240
000004c0: 33b0 faea 44c1 1140 a480 d27a 44bb 1340
000004d0: 47eb bdbd 6e85 1740 a02c d605 dbbf 0440
000004e0: 34e1 0d04 8b2c f83f a2f2 af92 fe9c 1140
000004f0: f5bb 32ba dcfe 1540 8d13 e00c 728b 1840
00000500: 47f0 cffd 6d9c ed3f f6f0 6e27 1f18 0c40
00000510: 28b3 9024 694b 0440 e83a a27a 95b4 1440
00000520: 59a6 59b0 53fd ea3f 23ca c873 fb90 1740
00000530: 3c6d 82e1 9784 1240 c995 b4af bba1 f73f
00000540: 84cb 7c8a bc15 0640 1e7b 283c e37e f03f
00000550: 8e36 7199 137e f33f e2de 9d4a ce26 1140
00000560: a5e2 5d58 d32f 0f40 d54f 5f57 4378 0440
00000570: 52cc 7a81 f62c cd3f 2d7d 0eec f074 fb3f
00000580: 88e2 bc0f 088f cf3f 8eaa 281d 7b15 1140
00000590: 6196 c3d5 7251 0240 09f8 f356 ac0a fe3f
000005a0: cbd9 7dff 3f40 0940 72a3 0361 3668 1040
000005b0: b499 de6b c912 ef3f f7c8 098e 46a6 f23f
000005c0: 9da9 8ef3 b2cb f83f 91bc fc13 5291 1040
000005d0: 9220 aa4c 3fff fe3f ca2b 9cd9 9cad f03f
000005e0: e3a8 d285 3598 fe3f 8705 556c b6ce f03f
000005f0: 639f a9df 4a21 d63f 3b4a 2df4 3d1d ad3f
00000600: e348 7caf 28de f83f 0e98 4f06 66d1 e33f
00000610: f3c4 0fc7 c316 0140 7ffd 9523 af5b 0a40
00000620: db40 edc8 a0fe 1840 b4a8 2fb8 d07d 1140
00000630: 0818 768b 6d8c 1340 8716 1aad 4cbc 1440
00000640: 3b11 8e8b 9643 ee3f dbee 228d aa86 0540
00000650: 9b25 f154 82b1 d43f 67d4 621e b4e1 0240
00000660: 00dc 36b5 ef0b 0840 7820 bf06 53c6 1540
00000670: 9386 812b 9e40 1240 df9e 0c06 5bd7 0040
00000680: feac 9d71 4c9f 1740 6b74 ad0a 8ecb 0740
00000690: e924 d418 8dfb 0a40 312b 48ab 75e0 f73f
000006a0: 0771 c344 3433 1440 cb1d cdd8 587f 1440
000006b0: 33bf 3133 f3e7 1540 0055 0cb2 e2df 1240
000006c0: a212 62fe 4d78 c63f b37e d449 2ada 0040
000006d0: 22e2 a834 54c4 1440 5c61 d6cd 513b 0140
000006e0: 410e 687a c2eb 1840 730d 95a0 5adb f83f
000006f0: a9a1 7bdb ba86 0a40 e83c 65a4 a1f7 f13f
00000700: 4057 8e01 171e 1340 6990 df4b 1bba 0140
00000710: 65e7 213e d891 1740 857e 42b3 efaf cf3f
00000720: cf64 c1a9 8bf2 d63f cb1b 3cee f873 bf3f
00000730: bfb6 9b26 e70e 1840 5546 acf6 b2a4 0d40
00000740: ae93 25c8 dd50 0640 dd55 9aa0 8d05 1440
00000750: d388 9d59 82db f73f 6e58 0c7c 547f 0940
00000760: 3474 d01a 09e5 fb3f c8bd 56d4 b6ec 0d40
00000770: 4f7a cdea 0042 1440 86ae 9b80 d45a dd3f
00000780: d98c e978 2a0d 0d40 8427 2cc6 22ae 1640
00000790: 81e6 82d2 c11d 1140 a6a9 f462 aea1 1240
000007a0: 6751 b861 841a 1840 30bd e197 02e1 1840
000007b0: c974 b10b c707 0e40 89de a979 afe7 0340
000007c0: de5f 63ba 8853 0040 d80d 65a2 2a23 0340
000007d0: aaa4 4895 f74d 0740 3153 07c6 94f2 fa3f
000007e0: 9a71 b513 5370 0b40 d040 07d4 3622 0f40
000007f0: 005c 9049 12d4 1140 3897 e040 3cfb f33f
3.278015039595379 5.924935208662453 3.8011114195866145 5.533806834190554 0.3654015738128248 1.1883128231675841 2.1445497024484017 0.8810184032865473
4.140788703492095 0.12433266172529796 1.228998842209731 4.52237358030526 2.9992444516795698 1.6419251086188555 0.006357879330962478 4.798460681076449
3.4160321181421227 1.2703373557328954 1.1119053367715936 0.4899505424211714 3.054574772488005 4.6023836891926955 0.06534625658747015 1.5199458868559323
0.20059540764006278 3.336738589130898 1.2098947259516792 0.6143030138882729 3.1670423512691666 1.0987789261389258 0.04466876718658361 3.0807742478924713
1.5066434279947618 6.016771892811044 4.5749829688790475 5.1786515278082605 5.8682526648697975 0.2870663464208138 0.6882940257132452 2.526406040048868
4.6318770024024065 5.795198947579068 3.5204605102682627 5.942384208398388 3.862892962238066 4.630941754271791 3.516380999624312 2.7019112338401725
5.666739243471762 4.459509045577546 4.914197877102271 0.3456609664983981 0.9279624593986641 2.5444287852832033 4.478674881406241 4.022783513172182
4.929936579576897 1.1378094198209445 0.746424768067834 2.6112489981200113 2.915621810746491 0.31872120735915893 1.1577767896719762 1.1086781881786316
2.5366162469863163 4.906518803627494 2.2390349623151313 5.451729498783923 4.710346121584258 2.589894180824497 5.247986790590484 3.8524161416423692
3.6115387016328993 0.6915025395783903 2.798670069583054 3.5581766468258444 4.89876703776401 1.319229224112857 1.7232354596138193 1.2338705132826244
3.327221381835324 5.900077306496921 5.900832624949668 1.7540219518830609 1.3813325481636127 0.9015114910118194 2.970686723597541 5.324979327118438
6.031322230854615 5.440623524075887 4.45264426096131 0.6458997065900001 0.7888088161937977 1.7260863094507397 5.642879995558362 2.1021942357073256
6.128616324041019 6.139956981119562 3.3460756002396255 1.2715705469105572 0.7449422174874636 1.3166836972651432 5.462439187042998 2.2298035352727825
0.7719233746577551 3.9652158803467037 0.611321175352861 1.0795375583088236 1.8157104952005592 4.542353870575561 3.388045932030075 0.010294764009444377
0.4853235752429158 4.45042543644858 1.8137849203394445 0.11778795275409533 5.810255082444052 1.1668461340514644 2.861379985681411 2.2413258390729687
4.20426056188392 5.52809727966718 1.3317768945011317 3.5129066672183447 1.1196174694716579 2.279539746942228 1.1373573363676004 5.174425046349507
5.0252470129111275 1.3613172978743964 3.1542962319931407 1.9836963283754738 4.441674955004433 2.462446940700403 4.4882303720768215 3.6213833125971355
2.1872411007231944 0.6512367517966705 3.6980741690106327 0.03640082524967477 2.1018797604492785 4.7923213040957355 5.189428777788965 2.8808038446077866
5.606691017477108 0.6725153037059384 2.889012188299246 4.590911810811582 3.253435713586117 1.682084025311395 0.1460054513391181 4.718104690105088
4.43873946337776 4.932878417108586 5.880305256573428 2.593679471586782 1.5108747633331179 4.403314868916512 5.498888882967539 6.136177254845177
0.9253454167624192 3.511778171609076 2.536821637788666 5.176351467277279 0.8434236950244652 5.891584214334702 4.629485629640211 1.4769856322758292
2.760613519605103 1.0309784269263171 1.2182804101788949 4.2878963145119275 3.8983523276950387 2.55872219333285 0.22793465921640405 1.7160500737152902
0.24655247467469033 4.270977454764433 2.289769811660151 1.877605762157602 3.1563720665246584 4.101769939276766 0.9710433108164609 1.1655946300857616
1.5497312082248762 4.1419146655090495 1.9373162264546733 1.042385911978942 1.9121604182678815 1.0504669410441652 0.3457820114331211 0.056863723809005916
1.554238019457039 0.6193113444576299 2.136115603607885 3.294767644896353 6.248660220604701 4.372866514119028 4.887136630137327 5.183886246411595
0.9457504964525819 2.6907549883161272 0.32333429617991677 2.360206830397647 3.005828300224948 5.44367609540506 4.563103370457287 2.105154082546377
5.905565047501339 2.974392016809863 3.372827714895369 1.4922997179698536 5.050004076412967 5.1243623614495375 5.476513671790417 4.7186382122065424
0.17554640694665574 2.106525971219378 5.191727469260998 2.1539646225975684 6.230234062768035 1.5535532257789242 3.3157860896210036 1.122956888360756
4.779384636223597 2.2158723762132024 5.892426462954835 0.24755665066640034 0.3585538060920727 0.12286334816245341 6.014553645376224 3.705419470913322
2.789485515257602 5.005423077983747 1.4910911083793976 3.1871728602664495 1.7434168860847992 3.7405830944987635 5.0644566238321 0.4586688285769259
3.6314286657594548 5.6700545277070695 4.279059685935523 4.657891794379259 6.025895621180417 6.2197364551096115 3.753797618248971 2.488127661224841
2.0407881318642316 2.3921711623276956 2.9130698836130096 1.6842239127628995 3.429845956778263 3.8917061390603536 4.45710101073837 1.2488367590207883

subModel1.a_layer.lin.weight f8 [21, 512]
00000000: 154c a2df 3171 d63f 9386 010f 35a1 f13f
00000010: 62f6 3c8f f661 f13f dab5 c051 3aa7 e93f
00000020: 134e 731c 22bb e8bf 798c 7355 3656 f13f
00000030: 71d4 7aca b4b3 f23f 339c a6ed 4443 e6bf
00000040: 8764 c2ef bdcf b2bf c4d6 e4e4 c9c0 e83f
00000050: d347 334a 5da0 fa3f fe64 40d9 d6b9 d23f
00000060: aa57 a771 ce63 f6bf a461 597f 76c1 eabf
00000070: 882a 2cfa 771c fa3f 28ee f5e9 8443 b53f
00000080: 394c d577 acf7 f43f 5bae 0cc7 441e f33f
00000090: 3a10 eee4 7a52 f93f ce24 d5e4 5c06 81bf
000000a0: 4184 9111 5e50 f93f f356 8e3e 8841 f63f
000000b0: 53b5 895c 85dd e5bf 22c8 261d ba09 f6bf
000000c0: 8317 66d8 c556 f03f 4ad2 8252 7167 e1bf
000000d0: cf3f 47ab 3d98 d0bf 20b7 0376 ec71 e1bf
000000e0: 948f e207 4ae7 eb3f 89b3 19da b4bd f2bf
000000f0: caaf 9eec ba84 f2bf 3a0e 29e1 adea c93f
00000100: cb6b 885b a03e d0bf 3a52 b6f6 a30f e0bf
00000110: 9dde f383 9d62 c8bf cd52 dcc7 a04d e7bf
00000120: d1eb 432e 1521 ebbf 925d 77a4 8f2b fd3f
00000130: 33a9 e6e9 d09a efbf 58c9 f8d9 5cca f83f
00000140: 5ea1 a8dd 2d00 ff3f 50e3 c593 1f78 fe3f
00000150: 84e0 ed5a bfa1 a43f e135 f465 fb6a e83f
00000160: d56d 9b0d 438c fbbf ef89 971b 72e9 f1bf
00000170: ab7d 1e23 70f3 e3bf 1b11 5ae5 d45d e0bf
00000180: b479 94bb c3a7 e13f 1a65 e2f2 9e9f e4bf
00000190: 5b99 ba3a 7211 f1bf 106d fa59 e111 dcbf
000001a0: e022 068b b333 f8bf f270 88bb 2e17 e3bf
000001b0: 35b7 b43d dc0d 8e3f 10fd a8ab edd5 e6bf
000001c0: dcf6 cc80 2398 f7bf 1b20 dc2c 9d0f cdbf
000001d0: b183 516c a510 e03f bdac 49be b393 dcbf
000001e0: 25d3 044f a40f c0bf 2ef9 5f56 a5e2 d9bf
000001f0: c5d8 4d54 5275 f93f 952f 8e62 e4a0 ec3f
00000200: f4e8 8918 948e c0bf 9df6 5499 e809 ee3f
00000210: e109 c8d3 c4cd cbbf 7500 c347 a108 c03f
00000220: cd9a 88b1 9265 e53f 2360 0bf1 2688 953f
00000230: b180 c3e2 5259 d6bf 7027 e65b 606e da3f
00000240: 0c8d 8ce8 0687 c4bf 1516 dd65 bdd6 e03f
00000250: 47e7 3b07 8d13 e53f c1fb c4a1 c43d e1bf
00000260: 74b6 a7e1 7a87 d43f 74dd b06b 57a9 f93f
00000270: 5d66 1655 b655 f8bf 7546 0dc5 1211 d5bf
00000280: 5592 da02 c83e d9bf ecfc 4834 4bc5 dabf
00000290: 0a59 3204 a569 e63f 7986 24b5 05e1 f5bf
000002a0: 64c3 1292 a8f1 debf 9084 20df 2b13 d3bf
000002b0: f2a0 bef5 1c6c 0040 c9ef 7207 f198 dbbf
000002c0: cf1d 6ae2 18b7 f6bf 5ea4 eb46 5576 f03f
000002d0: 7a80 02e2 d87e 863f e3f2 2e3f a7ae f1bf
000002e0: a7c7 77c5 c5e0 bb3f 50e0 6dfa c48c d13f
000002f0: b9e5 5c54 87ad e9bf 56a8 b951 6d55 f9bf
00000300: d5f1 5f7e 1e35 f1bf e151 0967 44b2 e33f
00000310: 62c5 42b5 4107 e4bf 53fb b330 3538 c03f
00000320: 453f fcd1 dc2c dcbf 57f3 c8e8 3a58 e33f
00000330: c883 bf2c 67ee e53f 3715 1d64 aa04 f13f
00000340: 191c 820f 93d2 c9bf da5b f709 8005 edbf
00000350: 58fe 3006 33fd e03f c362 2f36 e260 e93f
00000360: b504 c595 e198 f53f 600d 228a f8ba aabf
00000370: 7c3e 15a3 fc1b cd3f b4ff a592 47fe f03f
00000380: 3995 dce5 2409 fd3f fab3 362a 031a e63f
00000390: 9f7e fa37 974d f73f 4580 b1ca d958 f03f
000003a0: 58c8 0b3c c6db c63f 3344 15d6 cc79 f0bf
000003b0: 3b2e dac7 275d f63f 0953 4565 e43f d9bf
000003c0: 8853 b6c4 b93f edbf 7f32 4d77 97fa cf3f
000003d0: 4564 8da9 c4ae c03f b822 228f 65cb f5bf
000003e0: 47be 5e9d 60ba eb3f c11d 235d 7f86 a4bf
000003f0: 879f 1e3b ef09 dcbf bf2e 9f96 9f30 cabf
00000400: 881f 862f 9e13 fa3f 7a1c 373b 3057 f7bf
00000410: 888a 0be0 f8f9 f33f cc31 2f85 4d78 f1bf
00000420: dd06 d129 8b11 e63f c422 2b95 766f dcbf
00000430: 884d ae65 6569 e5bf a67e 3606 904b 91bf
00000440: 7268 ac24 83b0 f23f 0f94 6ba2 c2c6 c33f
00000450: fb7b 1e7f 7662 ef3f cd1a 8843 3050 d43f
00000460: 1c76 4d3b 98f1 f3bf 276d b6ba 1bc7 e8bf
00000470: a683 366b 177f d03f 0f5b 79ea c488 e4bf
00000480: ebb8 2088 119b e43f bf3b c381 45c6 dabf
00000490: 6172 b7e3 5819 d2bf 23e1 8b8d f605 f03f
000004a0: d37e 9fe9 b39d b93f 938e a123 f8b1 e1bf
000004b0: aed4 aaf7 2a50 ee3f bd84 9d91 d3bf ed3f
000004c0: 1ee1 c3a8 5a3f e9bf 6fab 30a7 fd0f b83f
000004d0: 7eef d3bb e148 f5bf f3a0 836d 640a f5bf
000004e0: 49a3 6029 6916 e13f 653a 1ad3 49fe f23f
000004f0: 44bc 74c8 f923 b7bf 16a6 e745 e9c6 e93f
00000500: 31d6 6333 9ff6 eebf 93c9 609f 7735 df3f
00000510: d4a8 f58b 7f63 e2bf fe7a e4c7 0850 eb3f
00000520: 9965 413c 5bb7 abbf 4e23 4ff9 6257 e33f
00000530: 3a1d e8d2 f9c7 ef3f 5d14 2105 013f df3f
00000540: 5511 4b90 cce2 f23f 5a55 21a4 0a2c ecbf
00000550: 61da 020e 56c8 f23f cd65 7244 1521 e0bf
00000560: b2eb 88b0 ce34 d3bf 37c1 3661 f34b 0140
00000570: 6d44 de49 3316 d33f 42e1 c50f daef d83f
00000580: 3b6d f671 9f67 d13f e671 3c89 631e f03f
00000590: ec3d 70c2 82c1 efbf 1970 eded 0d79 d9bf
000005a0: e94c 9cac ae9c 98bf 16d7 6bf2 3ece f03f
000005b0: 8c0e 3bca 3db8 f4bf db32 73f4 5bd9 f6bf
000005c0: 71a8 34c4 8755 e83f 076f 0d19 f713 e2bf
000005d0: 8575 b364 ea67 e9bf b46a 4f71 473f fc3f
000005e0: a390 40c8 3cd8 0240 f567 08c8 aa5f d4bf
000005f0: f2a6 cb75 f5d2 c53f c300 f393 9d85 f9bf
00000600: 9f1e 8983 e3e1 f43f 786d 189f 639b e13f
00000610: 9469 a8fa 9e2b e7bf 80e3 5899 8bb7 e53f
00000620: 8ce5 e851 bed3 d2bf 35d9 4de7 d390 e0bf
00000630: 3bfa 4564 a153 fe3f 5c2d bf31 39c6 b9bf
00000640: 7e70 c90e a3e2 df3f 30f6 c075 85f0 dcbf
00000650: e644 93ea cb04 d83f dcd0 bd29 08bb c3bf
00000660: 6498 aca8 56dd e53f 807c 21fc 51bf f4bf
00000670: a719 3b4a b7c6 b63f 9a8a a67b 47e6 ef3f
00000680: c5b1 d292 bc67 f63f 616a dd2e 925f bcbf
00000690: dfd6 a901 aeb7 eb3f 6f66 5fef 2ede e83f
000006a0: daea 2adf da2b d83f 6455 c8fc 22a7 d0bf
000006b0: b1e8 5bcd e594 eebf fe3c a35d 2c23 d23f
000006c0: 05cb f6d5 953d f8bf c510 cf6a f11d e03f
000006d0: 7b79 927e 529b e23f 181e 4987 3565 c43f
000006e0: 56b8 3b21 463f fc3f 3e25 fa07 4bfa f53f
000006f0: 28f5 be6a 6fc2 e9bf e2f1 28e9 4ff3 efbf
00000700: 6131 2206 9f3f e43f dd01 6342 f99b c5bf
00000710: 30bb b2de 0382 f33f 7e52 4253 e9ff d63f
00000720: 0ab0 3a4d d4fb b53f e6f5 1efd 723c f23f
00000730: 4c9c 6944 3fe7 fa3f fbd7 8643 0d70 d03f
00000740: 8df7 4869 f09c efbf c533 bac8 b093 f53f
00000750: 1b59 da07 6df1 f3bf 4cc8 fe18 32a2 f43f
00000760: 6777 ce6c f5d3 f1bf cbf2 e653 ea6e e13f
00000770: 7fd3 e9c5 02aa fa3f 7e7c b0e3 1085 fabf
00000780: bebc 291a 14f2 d63f 2ce2 28f5 9d94 edbf
00000790: 2b82 43e9 ba0d e3bf e8a9 bded 0967 f33f
000007a0: 8d40 2760 2121 f2bf 66e2 71a7 8c03 e73f
000007b0: 3059 b7d0 8d95 b13f a7e5 3130 999a a93f
000007c0: 131a ab6f f6b0 bfbf 3e34 d1e1 abd9 e5bf
000007d0: 9548 d20a fede d93f bab6 cf10 68bf edbf
000007e0: d142 04fb dfa2 f73f fb83 4011 41cd d2bf
000007f0: 51b7 efdb ca10 e43f 2d98 5320 2ec3 ebbf
0.3506588634419939 1.1018572412653256 1.0864167781104688 0.8016635510190853 -0.7728434138938972 1.0835479104942165 1.168873587548003 -0.6957115785234066
-0.073482390437123 0.7735337706169152 1.6641514681291383 0.29259272781344225 -1.3993668021771364 -0.8361160743034373 1.6319503567089289 0.08306151115351013
1.310467212770858 1.194889810120819 1.5826367323470678 -0.008312917455116777 1.5821209608332227 1.3909990733713442 -0.6832911307698545 -1.3773747576456192
1.0211847737386683 -0.5438772784751305 -0.2592920467986887 -0.5451566987009961 0.8719835428241702 -1.1713150519892415 -1.157404827400557 0.20247434133681158
-0.2538224119068075 -0.5019092386815551 -0.1905094999599343 -0.7282260802772612 -0.8477884200686906 1.8231350349868518 -0.9876484459285052 1.5494049562954242
1.9375437410872887 1.904326989401131 0.040296535348660206 0.763059329155734 -1.7217436343697632 -1.1194935872850882 -0.6234665571136494 -0.5114540557411006
0.5517290748282933 -0.6444849723658621 -1.066759328279281 -0.43859132563530157 -1.512622397482282 -0.5965799010041606 0.014674873955836535 -0.713614306710868
-1.4746432334208555 -0.2270390004198369 0.5020320048898751 -0.44651502211372557 -0.12547735079137926 -0.4044583648209422 1.5911429684761498 0.8946401524458333
-0.1293511504953312 0.9387095446361006 -0.21721706715477665 0.12526336673727526 0.668649050469719 0.021027191602883143 -0.3492018904198729 0.4129868409587436
-0.16037069659169167 0.5262133588336747 0.6586365834511775 -0.5387900504646198 0.32076904331811495 1.6038431364703145 -1.5209258388262221 -0.329167072709516
-0.39445686606112434 -0.4182918558689852 0.7003960687605126 -1.3674370838056389 -0.48349966301889524 -0.29804512777088465 2.05278961170199 -0.43120980956495863
-1.4197014660183986 1.0288899202662587 0.010984129330893422 -1.1051399677373233 0.10889850684159673 0.2742168851468749 -0.8024326942169672 -1.5833562080756756
-1.0754685341372483 0.6155111324720189 -0.6258858242273784 0.12671532514647285 -0.4402381945264902 0.6045202776509581 0.6853519319521348 1.0636390600860304
-0.20173872239340154 -0.9069214052823285 0.5309081192899141 0.793076616125369 1.3498245096564407 -0.05220772443956423 0.22741659129177438 1.0620799759344495
1.8147324542017726 0.6906753372655878 1.4564430414829201 1.0216920774182807 0.1785819810098157 -1.0297363627071376 1.3977430159310547 -0.39452466859556573
-0.9140290109668152 0.24983495068808634 0.13033350256844947 -1.3621574011942084 0.866501147616824 -0.04008863460472468 -0.43810635350609356 -0.20460886816578314
1.6297895294573852 -1.4587862313362892 1.2485283614884413 -1.0918708040727436 0.6896415535668116 -0.44430317466007474 -0.6691157327608588 -0.01688981092377042
1.1680938179547664 0.15450318270373528 0.9807693941874044 0.31739431948555535 -1.2464830700404326 -0.7743052145700958 0.2577570483209065 -0.6416954593249516
0.6439292582270161 -0.41835153267032504 -0.2827970718188109 1.0014558343082818 0.1000626035088275 -0.552974767295796 0.9472861134769539 0.9296663135575255
-0.7889836593813333 0.09399400073804796 -1.3302934014345449 -1.315037181653733 0.5339856918481952 1.1870821233930198 -0.09039269584603554 0.8055311551408433
-0.9676052097044644 0.48763838352456296 -0.5746457799516755 0.8535198120260643 -0.05413327322521439 0.6044173116034501 0.9931611174842268 0.48822045803928465
1.1803708683447287 -0.8803761678379189 1.1739101931867924 -0.5040384613850449 -0.3000981067631826 2.162085303767664 0.2982300015801858 0.3896393922837157
0.2719496357837731 1.0074191437516844 -0.9923719213128925 -0.3980135749350225 -0.02403519562274151 1.0503529996471506 -1.294980802501331 -1.4280662106349868
0.7604407150404439 -0.5649371613794479 -0.793935009652771 1.7654489923649352 2.3555846829131766 -0.31833905729729334 0.17050045253500162 -1.5951209811465084
1.3051486147032063 0.5502184016544751 -0.724074830595145 0.6786554331839483 -0.294173793783181 -0.5176791684778325 1.8954175869872774 -0.10068089928170337
0.49820782131224195 -0.4521802568377522 0.37529275806180207 -0.15414526022107722 0.6832688612382865 -1.2967090462550743 0.08896966516758785 0.996860257630334
1.4003263221048752 -0.11083329815066058 0.8661718399514163 0.7771219897505953 0.37767669481006083 -0.2602012127475375 -0.9556759844702097 0.2833968080930872
-1.5150354726762896 0.5036551557646126 0.581460234843504 0.15933865648024503 1.7654477403807696 1.3736067115408583 -0.8049847683793461 -0.9984511903672308
0.6327662582203112 -0.1688224386362113 1.2192419718882768 0.35936959391373324 0.08587386022071555 1.139758099321051 1.6814568207135094 0.25683909983069925
-0.9879076057766142 1.3485572663223462 -1.246441870379903 1.2895985580803595 -1.1142477274183535 0.5447894705499378 1.66650655088344 -1.657486810123174
0.3585253005503083 -0.924391726329366 -0.5954260402614343 1.2126559530976184 -1.133088470076504 0.7191832800300062 0.0686882624207541 0.05000761712376383
-0.12379398561743242 -0.6828212175838713 0.40423537308482455 -0.9296150520655921 1.4772643857324292 -0.29377772030608157 0.6270498557694087 -0.8675757056596517

subModel1.a_layer.lin.bias f8 [21]
00000000: 4b0f 2983 3779 febf 446e 6748 f2b9 ffbf
00000010: b473 08ba 4735 fdbf 550e 9f57 5fc1 ffbf
00000020: 66f2 2479 417a ffbf a6ee 4133 d6e8 ffbf
00000030: a1ca 7c6d 63ac febf d0f5 e654 9fd8 febf
00000040: fa8c 3252 1bbe ffbf ca72 7b45 a497 ffbf
00000050: 37e5 3c59 376a ffbf d9f3 681b e1f3 f4bf
00000060: 642a e22b a262 ffbf e1cf 6f38 c429 ffbf
00000070: 6ff1 0498 0c39 febf 17cd 87ea 175a ffbf
00000080: 6b5a b559 3275 ffbf 56a4 5103 faa1 ffbf
00000090: 0063 2c13 2f61 fcbf c0fd e35b 1c67 ffbf
000000a0: a877 0919 c281 febf
-1.9045939563229293 -1.982897074535587 -1.8255078570284526 -1.9847100660998838 -1.9673475963783402 -1.9943449022529562 -1.9170870091299224 -1.927886325501607
-1.9839127741659568 -1.9745218958043318 -1.9634316907743832 -1.3095408507062898 -1.9615804399678831 -1.9476968960343515 -1.8889280260328538 -1.9594954644533737
-1.9661124710306932 -1.977045071568019 -1.7737265347442985 -1.9626735295749853 -1.9066792467124092
