LSR_strength_relation/outputs/Model.pth (torch, 105153 bytes, 7 tensors)

_raw_param_deltaH f8 [7, 6]
-0.35853444784552785 2.2927429807871182 -0.0975689756284406 0.5869884104357795 -0.3269252436118877 0.09922927478124728 1.043379351838555 -0.8580318916901891
1.1501199550649188 0.5450331696100167 -2.07861581908588 -0.04997755204259558 -0.34080532455307044 -1.40488877636627 -0.1336536841726233 -1.1698105683497082
-0.6174986360538988 1.3563670656851858 -1.668560957857209 0.3565036367373462 -0.13972684205225192 -0.1285930951373848 0.8200080890672338 0.20994034380801466
0.10684080906735322 2.291706341406149 0.041121977397322776 0.6669862359011133 0.5182745554635813 -0.8911726882624552 -0.6909437038884593 -1.5441156694784843
1.425992366475169 0.8185227788419585 -0.8937123850658651 0.227691582815048 1.1391351367916787 -0.8768933586295277 2.000784379778616 0.02565655737170304
-0.43015094019827244 1.3283124284578218
00000000: f719 ff77 3af2 d6bf f1e9 c4a1 8957 0240
00000010: e1a9 6dc7 47fa b8bf 817c 3eeb 9bc8 e23f
00000020: 6831 63db 57ec d4bf ddc2 fdf9 1667 b93f
00000030: 0a7e 178c aeb1 f03f 0380 374c ff74 ebbf
00000040: 6cb1 972e e466 f23f 4fba d666 e970 e13f
00000050: 7a60 9f54 01a1 00c0 613a 1d5f a896 a9bf
00000060: c484 d022 c1cf d5bf 5e2b 50a7 6c7a f6bf
00000070: 4273 415d 901b c1bf 163c 5949 8bb7 f2bf
00000080: a0a2 e57f 8cc2 e3bf 68d4 c7f3 adb3 f53f
00000090: fc10 96f9 6cb2 fabf 2c49 2ca1 f4d0 d63f
000000a0: 8f6f 7eb4 91e2 c1bf 47a1 0d11 bd75 c0bf
000000b0: a5f9 9f9a 813d ea3f 051a 623f 53df ca3f
000000c0: e48c d254 eb59 bb3f 7400 6322 6a55 0240
000000d0: 1aff 2298 f00d a53f 3f7a c284 f357 e53f
000000e0: a414 4285 b495 e03f e99e e595 7c84 ecbf
000000f0: 4f7f 72f8 351c e6bf 766b daa1 b2b4 f8bf
00000100: 37b4 255f ddd0 f63f 3608 c5ae 5631 ea3f
00000110: e76a 3cb7 4a99 ecbf 05ef e16e ff24 cd3f
00000120: 7bea e3c3 e539 f23f e796 2ca9 820f ecbf
00000130: 72f9 ab3d 9b01 0040 e48e 5b6b b645 9a3f
00000140: e1b1 1fcf 9787 dbbf 058c 7188 c440 f53f

_raw_param_KHP f8 [7]
-0.6468866625866418 -1.7036133814681185 -0.8465418093370582 2.234991704331696 -0.9958351621129153 -0.2838595736903483 0.9587459479016771
00000000: 20e7 80a8 4bb3 e4bf c9ef e61a 0042 fbbf
00000010: 2294 39d9 de16 ebbf cc7c a754 43e1 0140
00000020: 266b afb3 e1dd efbf e204 6a58 c12a d2bf
00000030: 8c20 6dfb 0bae ee3f

subModel1.a_layer.log_lengthscale f8 [3]
0.0013466410937192598 0.003125040500685418 0.0036710601322364777
00000000: 6c0f 3fdd 3810 563f 1dc9 f857 af99 693f
00000010: c515 b566 c512 6e3f

subModel1.a_layer.W_base f8 [512, 3]
1.7512121496163593 0.15282159664779776 -1.2360613732837296 -0.7455548463324091 1.1552709570402522 0.8743631469093341 -0.16998506379564665 0.9499303710829154
0.20192586778587532 0.42401801368777153 0.14573026522665222 0.2716265705016668 -1.132576464801278 -2.7315905664964037 -0.28224240513041793 -1.1953930161287114
0.4687755306948215 1.2497282815534811 0.21197705094453587 -0.3360775708093038 -0.05934679570534925 -2.5469881149188605 0.6089524161111654 -0.4526809945441996
0.7366945194769134 0.22571569441445483 0.24712811617460453 -2.3778469345070494 -0.33153977339517043 -0.24657615244164716 0.659685903628108 0.4980627804222615
0.6193517440586283 -0.6092029868723634 0.1548666655419559 -0.7112168241428453 0.2932793670569569 -1.7823055728135613 -0.469379728826518 1.9278818524038885
1.908435784509699 0.41205848964943476 0.5052884864290987 -0.2623889061338138 -0.8832340559411839 -1.069157772570525 0.361619735678533 0.06838479072827773
-1.614492269704644 -0.10533607680069046 0.6976149985076123 0.29373946121512834 0.6475810223094726 0.5012271347558414 -0.14004721909691964 1.8385999751356057
-0.23311176620461277 2.235943539149518 0.36646389021926606 1.3051658791180922 -1.0123358901307515 1.1273962265048534 0.21892043411593531 -0.6962859244712103
-0.22973321741844055 -0.0010586069519468932 -0.9815810076033518 -0.7956912795723383 0.14476252236731224 0.24772879557410526 -0.052935358241370495 0.32029048730116527
-0.17934088563156128 -1.4435683491281925 1.1871142099492622 0.6338698416699259 -1.4370682962973167 -0.06818035918820921 -0.15247065534493315 -0.3177878010931235
-1.8970360621463236 2.380002023174787 -2.108348929317654 0.26986874163222035 -0.6401666775809427 0.5220195905670593 -0.732261279526103 -0.35482846417755
0.176416722283854 -0.18723817322355754 -1.6279722157124632 2.1622746419193057 1.369422316482784 1.7400722207483343 -1.0306704846114796 1.156904200211672
-0.06443718543000372 1.6454124601520195 0.3038669859234922 1.403581313540442 0.6052370386596703 -1.4833262514779593 -1.412479609776603 -1.5319305313535665
-0.35739021233332463 -1.3130377774989677 -1.3100166994789657 0.3212606932194949 -0.22732690897829827 -1.5322212914165383 -0.7673171635250696 -0.2647556858598547
0.13703329748105497 1.7097426748462052 1.1312203677082024 0.6544016163072494 0.8475224892068457 -0.5829442528018944 0.7197448556955565 -0.05807895561716293
0.25681301217261016 0.64928792862617 -0.5726601159022319 0.5291393951286549 -0.017179308106195633 0.08218786885799796 -0.34139620304687573 0.05728453683210787
-0.7973298783292709 -0.3914355199796413 -0.7934072344434969 0.12644634697907747 0.4296026191474115 -0.07952124910359465 -0.09147934253847699 -0.8175712661033029
-1.2487339214280186 1.268204545683611 0.09203933348848715 1.2028773841779832 0.6904423076250665 1.4489522839656108 1.9213211727601773 0.16465994170795825
-0.16813415430770873 1.605044970761756 0.27336769955285956 -0.6483254742817463 -2.129230654324442 -1.6895444565292346 -1.1882577814032445 -1.9622432147137872
0.14367579494794167 -1.3719287110689744 0.14717751666275558 -1.100567484262054 -0.5269033492687075 -0.677357824795151 -0.983999865600261 2.5473095123192513
-1.869317252105106 0.34801606379900896 0.2616469280119211 1.1065584213577795 0.46818339044300183 0.12123541746163415 0.048625094225808116 0.0673558418218005
0.2846603781124645 -1.814009676380671 -0.24747071916603616 -0.7048812573830222 0.2793647641926241 0.7145802807480648 1.5767148084959068 -0.38157212895534465
-1.5366911365828693 -0.11431217315064798 1.6270262217355826 0.3956132326136438 -2.7736858060396195 -1.2276991193348743 -1.2172317934612351 1.8513171493962697
0.8370741742722662 0.5800968285679281 0.24262887592306223 0.3166077315189362 -1.043110475471642 0.37947432605480325 -0.5011128585119902 0.2087307594503251
-1.8809475551577928 1.990991870961933 0.5647137354789272 0.6709496687164381 0.46767487491529347 0.2174581077258761 -2.14151866269344 -0.1718286278550409
0.2541076778175555 0.10842842318625039 0.4954721087007565 0.35344202450027107 0.020926060605647 -0.12643871002663987 -0.43591401674590174 0.7134787997439573
-1.2328598737621783 0.15515292559059377 -0.027592340922056556 0.6552128300401917 0.5824351194862667 -1.310445535393895 0.5861717565970634 -0.2784892370330131
1.1172375827279886 -1.0788786182633623 0.7568896894960351 -1.7838601031352785 0.35422582385936807 -0.09196206350748068 0.8354494118377581 -0.0011450412671861565
-0.07085405529929734 -0.7920718690811569 -0.014928344798079803 0.3200693158541774 -0.1455788187120026 0.7798233309787922 -0.8576235287645121 0.09216850830972513
-0.4676607042878885 0.6655448112588972 0.5206768753984737 1.0019462114124107 1.6857692604120316 0.5929237730125387 0.09704284696142132 0.7087938402015351
-1.7105506073511103 0.5193088533629824 -1.2086262558466392 -1.2787561766007023 -0.6717659486917038 0.37305354639856364 0.0554212666012128 -0.8155181234644929
-0.73500354835686 0.5769391182953421 1.8556273210776448 0.644473768494589 1.246789006346432 0.35854289068131107 0.4064209294131671 0.9307025160802153
00000000: a95c ef07 f704 fc3f 12c6 dc77 a88f c33f
00000010: b4a3 614a e8c6 f3bf 72e7 4bd6 95db e7bf
00000020: a41a 2866 fd7b f23f 17b4 196c c8fa eb3f
00000030: 82c7 e710 12c2 c5bf 8ee7 a860 d465 ee3f
00000040: 21aa 2df3 b4d8 c93f 070c 6d73 1c23 db3f
00000050: d4ca 9711 4aa7 c23f 01e0 4169 5462 d13f
00000060: 0da7 c87f 081f f2bf 3750 a927 4cda 05c0
00000070: fb16 e572 4210 d2bf de3b 626d 5420 f3bf
00000080: 92f4 5f15 6b00 de3f 2489 2215 e3fe f33f
00000090: 6397 a762 1022 cb3f a8e2 e27f 4b82 d5bf
000000a0: 7b8e 5a05 b462 aebf 7f04 074e 3b60 04c0
000000b0: 7f90 00c7 897c e33f 4ba3 c5b4 b9f8 dcbf
000000c0: 0477 8962 0093 e73f 1c1d da7a 40e4 cc3f
000000d0: 8d2d 72e4 e4a1 cf3f 24d0 149d d405 03c0
000000e0: 718d 0399 f237 d5bf e6ed 5aaf ce8f cfbf
000000f0: b8e0 b69c 251c e53f 282e 51b6 42e0 df3f
00000100: d279 aebf bad1 e33f 12c1 2743 977e e3bf
00000110: 7f23 dfbf abd2 c33f 43df 01c9 49c2 e6bf
00000120: 387a 86d2 16c5 d23f 9967 2bd9 5284 fcbf
00000130: 8cc6 2d46 510a debf 8e06 2aa4 9ad8 fe3f
00000140: a1c3 0ff6 f388 fe3f af57 4592 2a5f da3f
00000150: 2644 88c2 522b e03f 7063 abd6 faca d0bf
00000160: df62 1f11 7443 ecbf 1646 372e 451b f1bf
00000170: 2af5 941a c724 d73f 0fc5 b867 aa81 b13f
00000180: 8d6b a0d8 f5d4 f9bf 38aa f21c 4ef7 babf
00000190: d041 79b0 dc52 e63f 39ac dd98 a0cc d23f
000001a0: b38a 0ad6 fbb8 e43f a99c f47c 0d0a e03f
000001b0: cc60 f538 11ed c1bf 3524 bace e76a fd3f
000001c0: a2af 143a 9bd6 cdbf 23cc c25d 36e3 0140
000001d0: 1407 eaf5 2474 d73f 3ead ea9d f5e1 f43f
000001e0: a8db 4a1e 8732 f0bf f18d 27a0 d009 f23f
000001f0: cc1e 7ab4 9505 cc3f 709b 486b f947 e6bf
00000200: d0fb cee7 e567 cdbf 613f 3a8f 1e58 51bf
00000210: f6fe c092 1c69 efbf 0038 ef8e 4d76 e9bf
00000220: 8485 a00d 9487 c23f 1256 a2c1 93b5 cf3f
00000230: fcbf e5e0 571a abbf 0a6b 0bac a37f d43f
00000240: 11c6 4f63 a4f4 c6bf a2bd 1020 db18 f7bf
00000250: 5695 4578 6bfe f23f b393 fc67 a948 e43f
00000260: 5572 6b53 3bfe f6bf 5961 f19c 4474 b1bf
00000270: c230 278f 2884 c3bf 61d0 30a5 a256 d4bf
00000280: 7004 647c 425a febf ab98 2f80 3e0a 0340
00000290: b9ce 1f0b e6dd 00c0 d179 e18a 8745 d13f
000002a0: 3c5f 06d4 3e7c e4bf 266b ab6d 62b4 e03f
000002b0: a022 f634 af6e e7bf 6e47 5572 82b5 d6bf
000002c0: 099d 56ba d294 c63f 516b 47a3 6bf7 c7bf
000002d0: ca81 1498 2c0c fabf b51b c0a5 564c 0140
000002e0: 434c fb5f 27e9 f53f ceac 0cf8 55d7 fb3f
000002f0: 8cbd 8555 a07d f0bf 083a 88fa ad82 f23f
00000300: 8572 1194 f47e b0bf 8e8a 0c04 9c53 fa3f
00000310: 0d08 b883 8e72 d33f 3eed eead 1175 f63f
00000320: a3e0 eb10 1a5e e33f 7456 b64e b4bb f7bf
00000330: 1d1e 2438 8499 f6bf 0085 be96 c982 f8bf
00000340: bd74 7832 7bdf d6bf 5754 8ce6 3302 f5bf
00000350: c59d 1712 d4f5 f4bf a28d b702 898f d43f
00000360: f601 c853 0c19 cdbf 16e7 0d79 fa83 f8bf
00000370: 33fd 5fb9 dc8d e8bf 17ae 0cd5 c1f1 d0bf
00000380: 2c74 929d 4e8a c13f e5a3 9022 1b5b fb3f
00000390: 6003 3e87 7a19 f23f 55a7 8fa8 dbf0 e43f
000003a0: c392 b87b e71e eb3f 009c a5b4 7aa7 e2bf
000003b0: 27a7 155d 2608 e73f 5250 ec5d 86bc adbf
000003c0: b7fd 1dd8 9f6f d03f 2962 647a f7c6 e43f
000003d0: c9c1 b04e 3b53 e2bf 184a a3bd b5ee e03f
000003e0: 66a2 efd9 7397 91bf 6d7f dfa0 430a b53f
000003f0: 6f27 c475 6fd9 d5bf 8f54 8518 6654 ad3f
00000400: 3788 f1f2 b983 e9bf 448a 3391 470d d9bf
00000410: 2907 8b91 9763 e9bf aea5 7cd6 642f c03f
00000420: 9ee6 e0fb 9b7e db3f 94ac 3c2c 815b b4bf
00000430: ef5b 76b0 306b b7bf 1704 4237 8b29 eabf
00000440: db06 9f6b d0fa f3bf 2898 85d9 904a f43f
00000450: 3958 47c7 e38f b73f 8a47 225b fc3e f33f
00000460: 26c8 6077 1a18 e63f 828c 1197 e82e f73f
00000470: 93e0 2145 bbbd fe3f c368 4cb4 9313 c53f
00000480: 14ce 0b83 6b85 c5bf 0d7f a0a2 43ae f93f
00000490: b02f 573c db7e d13f 7185 a610 15bf e4bf
000004a0: 99b6 cf14 aa08 01c0 04e6 9ec4 5f08 fbbf
000004b0: e082 6597 1a03 f3bf e0e5 1f24 5965 ffbf
000004c0: 6f9c 43ec f763 c23f 3ec1 2785 6bf3 f5bf
000004d0: a8f2 627e b6d6 c23f ef24 7fa6 ec9b f1bf
000004e0: 0362 a869 64dc e0bf 78ea 2551 eaac e5bf
000004f0: 43b0 4049 ed7c efbf 6e9b 41cf e360 0440
00000500: 833d fa34 b9e8 fdbf 0ef6 1f2b e545 d63f
00000510: 8b3e bac1 d2be d03f 5485 6d9a 76b4 f13f
00000520: faea 9e77 b7f6 dd3f 2158 1dc9 4809 bf3f
00000530: 96f5 ed6a 63e5 a83f edb5 d181 3b3e b13f
00000540: 1e71 9d29 e037 d23f a0eb aa02 2f06 fdbf
00000550: a992 c4da 1ead cfbf 03c0 8023 638e e6bf
00000560: 322c 77bf 1ce1 d13f f2bd 0577 d7dd e63f
00000570: bdbd 994e 393a f93f 4469 bb81 ad6b d8bf
00000580: ead2 fa71 4996 f8bf 1e7b 3705 9043 bdbf
00000590: 9c6b c1a5 4c08 fa3f 2e30 fc29 ba51 d93f
000005a0: 788e 122f 8230 06c0 caf0 edd4 a7a4 f3bf
000005b0: 3314 890b c879 f3bf 11e5 32bb fe9e fd3f
000005c0: 376b 5ac7 4fc9 ea3f 5fcd 6639 2790 e23f
000005d0: 4bd0 9387 760e cf3f 8c36 2213 4d43 d43f
000005e0: 5c40 249c 94b0 f0bf e8ed 04af 4e49 d83f
000005f0: 1640 5dd5 1d09 e0bf e612 c184 b0b7 ca3f
00000600: 514d ae76 5c18 febf 3822 c64a 1adb ff3f
00000610: d37c 2f8a 2212 e23f b9c5 8c70 6b78 e53f
00000620: 4c03 3b99 62ee dd3f 2662 77d2 aad5 cb3f
00000630: fa55 6089 d421 01c0 cfb4 9300 7bfe c5bf
00000640: d4e3 78d9 4c43 d03f fbb2 8a13 f7c1 bb3f
00000650: 43cb bca5 d0b5 df3f 3aaf 104c cb9e d63f
00000660: 10d1 bd27 a46d 953f eca4 41c6 242f c0bf
00000670: 4daa 72e7 03e6 dbbf a644 e97d d1d4 e63f
00000680: 77bf 6546 cbb9 f3bf 4329 a512 0ddc c33f
00000690: 6671 85a7 2a41 9cbf bf26 9ee5 80f7 e43f
000006a0: 2288 c7f9 4ea3 e23f bc4b dbbc 95f7 f4bf
000006b0: 588b 8d45 ebc1 e23f ee10 5685 c4d2 d1bf
000006c0: 63dc fa83 34e0 f13f 8ab7 dc39 1643 f1bf
000006d0: 0415 e2b9 7038 e83f efae 39e4 b08a fcbf
000006e0: 24fa 37ca a2ab d63f febf 3c67 d38a b7bf
000006f0: 87c7 a967 00bc ea3f a97d e3b2 a6c2 52bf
00000700: 40a9 4cca 7d23 b2bf 0d20 b91a a758 e9bf
00000710: 3e81 8785 c092 8ebf 8cfe 0203 047c d43f
00000720: dfde ada4 53a2 c2bf 37c6 e60e 50f4 e83f
00000730: b55b 0ae6 a671 ebbf c94f e9f8 5a98 b73f
00000740: 999c a229 27ee ddbf 8124 cca1 244c e53f
00000750: 51d6 f38c 62a9 e03f e5e0 25c0 f807 f03f
00000760: 0626 2130 e9f8 fa3f 5483 c346 3bf9 e23f
00000770: d291 02ce ccd7 b83f f1b2 686b 70ae e63f
00000780: 849d 4b50 6a5e fbbf def3 b699 2d9e e03f
00000790: 022c 1f7c 8856 f3bf a3ed 6009 c975 f4bf
000007a0: 2250 864d 1b7f e5bf d512 5cfb 1be0 d73f
000007b0: dc36 1c1f 2d60 ac3f c168 b276 b918 eabf
000007c0: 965f 5429 2685 e7bf fa91 9b06 4976 e23f
000007d0: 317b 1946 a6b0 fd3f 650d da73 879f e43f
000007e0: fe52 7407 d9f2 f33f 5421 6ce1 5df2 d63f
000007f0: 9853 0fee cc02 da3f 71d2 9ba4 50c8 ed3f

subModel1.a_layer.b f8 [512]
3.278015039595379 5.924935208662453 3.8011114195866145 5.533806834190554 0.3654015738128248 1.1883128231675841 2.1445497024484017 0.8810184032865473
4.140788703492095 0.12433266172529796 1.228998842209731 4.52237358030526 2.9992444516795698 1.6419251086188555 0.006357879330962478 4.798460681076449
3.4160321181421227 1.2703373557328954 1.1119053367715936 0.4899505424211714 3.054574772488005 4.6023836891926955 0.06534625658747015 1.5199458868559323
0.20059540764006278 3.336738589130898 1.2098947259516792 0.6143030138882729 3.1670423512691666 1.0987789261389258 0.04466876718658361 3.0807742478924713
1.5066434279947618 6.016771892811044 4.5749829688790475 5.1786515278082605 5.8682526648697975 0.2870663464208138 0.6882940257132452 2.526406040048868
4.6318770024024065 5.795198947579068 3.5204605102682627 5.942384208398388 3.862892962238066 4.630941754271791 3.516380999624312 2.7019112338401725
5.666739243471762 4.459509045577546 4.914197877102271 0.3456609664983981 0.9279624593986641 2.5444287852832033 4.478674881406241 4.022783513172182
4.929936579576897 1.1378094198209445 0.746424768067834 2.6112489981200113 2.915621810746491 0.31872120735915893 1.1577767896719762 1.1086781881786316
2.5366162469863163 4.906518803627494 2.2390349623151313 5.451729498783923 4.710346121584258 2.589894180824497 5.247986790590484 3.8524161416423692
3.6115387016328993 0.6915025395783903 2.798670069583054 3.5581766468258444 4.89876703776401 1.319229224112857 1.7232354596138193 1.2338705132826244
3.327221381835324 5.900077306496921 5.900832624949668 1.7540219518830609 1.3813325481636127 0.9015114910118194 2.970686723597541 5.324979327118438
6.031322230854615 5.440623524075887 4.45264426096131 0.6458997065900001 0.7888088161937977 1.7260863094507397 5.642879995558362 2.1021942357073256
6.128616324041019 6.139956981119562 3.3460756002396255 1.2715705469105572 0.7449422174874636 1.3166836972651432 5.462439187042998 2.2298035352727825
0.7719233746577551 3.9652158803467037 0.611321175352861 1.0795375583088236 1.8157104952005592 4.542353870575561 3.388045932030075 0.010294764009444377
0.4853235752429158 4.45042543644858 1.8137849203394445 0.11778795275409533 5.810255082444052 1.1668461340514644 2.861379985681411 2.2413258390729687
4.20426056188392 5.52809727966718 1.3317768945011317 3.5129066672183447 1.1196174694716579 2.279539746942228 1.1373573363676004 5.174425046349507
5.0252470129111275 1.3613172978743964 3.1542962319931407 1.9836963283754738 4.441674955004433 2.462446940700403 4.4882303720768215 3.6213833125971355
2.1872411007231944 0.6512367517966705 3.6980741690106327 0.03640082524967477 2.1018797604492785 4.7923213040957355 5.189428777788965 2.8808038446077866
5.606691017477108 0.6725153037059384 2.889012188299246 4.590911810811582 3.253435713586117 1.682084025311395 0.1460054513391181 4.718104690105088
4.43873946337776 4.932878417108586 5.880305256573428 2.593679471586782 1.5108747633331179 4.403314868916512 5.498888882967539 6.136177254845177
0.9253454167624192 3.511778171609076 2.536821637788666 5.176351467277279 0.8434236950244652 5.891584214334702 4.629485629640211 1.4769856322758292
2.760613519605103 1.0309784269263171 1.2182804101788949 4.2878963145119275 3.8983523276950387 2.55872219333285 0.22793465921640405 1.7160500737152902
0.24655247467469033 4.270977454764433 2.289769811660151 1.877605762157602 3.1563720665246584 4.101769939276766 0.9710433108164609 1.1655946300857616
1.5497312082248762 4.1419146655090495 1.9373162264546733 1.042385911978942 1.9121604182678815 1.0504669410441652 0.3457820114331211 0.056863723809005916
1.554238019457039 0.6193113444576299 2.136115603607885 3.294767644896353 6.248660220604701 4.372866514119028 4.887136630137327 5.183886246411595
0.9457504964525819 2.6907549883161272 0.32333429617991677 2.360206830397647 3.005828300224948 5.44367609540506 4.563103370457287 2.105154082546377
5.905565047501339 2.974392016809863 3.372827714895369 1.4922997179698536 5.050004076412967 5.1243623614495375 5.476513671790417 4.7186382122065424
0.17554640694665574 2.106525971219378 5.191727469260998 2.1539646225975684 6.230234062768035 1.5535532257789242 3.3157860896210036 1.122956888360756
4.779384636223597 2.2158723762132024 5.892426462954835 0.24755665066640034 0.3585538060920727 0.12286334816245341 6.014553645376224 3.705419470913322
2.789485515257602 5.005423077983747 1.4910911083793976 3.1871728602664495 1.7434168860847992 3.7405830944987635 5.0644566238321 0.4586688285769259
3.6314286657594548 5.6700545277070695 4.279059685935523 4.657891794379259 6.025895621180417 6.2197364551096115 3.753797618248971 2.488127661224841
2.0407881318642316 2.3921711623276956 2.9130698836130096 1.6842239127628995 3.429845956778263 3.8917061390603536 4.45710101073837 1.2488367590207883
00000000: cbdd f6f2 5f39 0a40 277f 2037 22b3 1740
00000010: f79c 9c1a ad68 0e40 3deb 3c42 9e22 1640
00000020: 7ab6 5b48 bd62 d73f 5ac1 8e4e 5403 f33f
00000030: a14c a5ac 0928 0140 8846 a981 4d31 ec3f
00000040: 4494 f4e9 2a90 1040 1d4e efeb 43d4 bf3f
00000050: 74cd a1b0 faa9 f33f 74d2 8e19 e916 1240
00000060: b962 05e0 73fe 0740 dbfc 3f43 5345 fa3f
00000070: 323d c63c b80a 7a3f 0076 41ad 9f31 1340
00000080: 570c aca5 0854 0b40 9128 5c43 4d53 f43f
00000090: e7e8 1a40 5dca f13f 20cf 1685 595b df3f
000000a0: 542e f8e5 c46f 0840 e4e7 1245 d768 1240
000000b0: b68e f542 88ba b03f 6fc6 3bc7 b251 f83f
000000c0: 9c5b c53d 1cad c93f 75f2 5c00 a4b1 0a40
000000d0: a70b 7992 ba5b f33f ed7f 4fcb 5ea8 e33f
000000e0: effb dd4c 1a56 0940 9ccf 1436 9994 f13f
000000f0: ac22 701c d3de a63f 1175 08f8 6ca5 0840
00000100: 8888 9f23 361b f83f 3976 aca6 2c11 1840
00000110: b75e dc55 c84c 1240 8544 156d f0b6 1440
00000120: 5d1f 013a 1779 1740 eb36 6a86 4b5f d23f
00000130: eb0e 4f31 8106 e63f fe69 b35e 1436 0440
00000140: c2a6 d1c3 0a87 1240 b1a9 06a2 482e 1740
00000150: 7bb1 3333 e729 0c40 095a ad5d 00c5 1740
00000160: a516 e66c 34e7 0e40 e31c 6198 1586 1240
00000170: 344c 8d5c 8c21 0c40 f34e 10a3 839d 0540
00000180: 1aaf 36b1 bdaa 1640 0ee3 0b8a 89d6 1140
00000190: 54e8 007d 23a8 1340 dd51 a72c 4f1f d63f
000001a0: 410e e153 deb1 ed3f c356 9e7a fd5a 0440
000001b0: d739 84bf 29ea 1140 9bd9 af8f 5417 1040
000001c0: 298c 724b 41b8 1340 1663 73a6 7734 f23f
000001d0: ccd2 f831 b6e2 e73f 101b c583 d6e3 0440
000001e0: aa48 2587 3153 0740 db8c 89a2 ed65 d43f
000001f0: 1958 7bf4 4086 f23f 8a40 0057 25bd f13f
00000200: c877 7a75 fd4a 0440 1228 1b77 46a0 1340
00000210: e1f3 8d29 8be9 0140 64a9 7f2d 92ce 1540
00000220: e72d 44f9 64d7 1240 76ef b570 1ab8 0440
00000230: 5bb4 cd3f f0fd 1440 e97d d78d bfd1 0e40
00000240: 4903 1e67 6ee4 0c40 5ce2 12ef c920 e63f
00000250: e139 2922 ad63 0640 4510 5c51 2577 0c40
00000260: 48ad e762 5698 1340 f3df 571a 901b f53f
00000270: 0695 6558 5f92 fb3f fec2 e001 efbd f33f
00000280: f446 6c3e 269e 0a40 ab1a 8ddd ad99 1740
00000290: 8c50 1dde 739a 1740 7fdc 7c52 7910 fc3f
000002a0: 8035 7428 f019 f63f 94a5 5ba0 2ed9 ec3f
000002b0: 471a a466 f7c3 0740 2c66 7761 c74c 1540
000002c0: 22a2 54ef 1220 1840 4e04 27d0 32c3 1540
000002d0: 2334 26fa 81cf 1140 fa99 89dc 35ab e43f
000002e0: ab29 8bfc eb3d e93f d2a0 92ad 0c9e fb3f
000002f0: 02b4 3022 4f92 1640 169f 2136 4bd1 0040
00000300: a0f3 65ff b383 1840 8a05 03e2 508f 1840
00000310: 37c8 c748 c3c4 0a40 539a 985b 5a58 f43f
00000320: 8896 b00f 91d6 e73f eae1 aeec 2211 f53f
00000330: 3af4 82a8 89d9 1540 a703 643c a3d6 0140
00000340: 5389 25a6 98b3 e83f fe59 7d1a c3b8 0f40
00000350: 2dc5 ef6c f18f e33f 69d7 bb2c c945 f13f
00000360: f13e be72 260d fd3f 99ec 23d0 5e2b 1240
00000370: f151 5bd3 b71a 0b40 72c0 ecd5 6b15 853f
00000380: 025a e99c 8a0f df3f 2c55 5b53 3ccd 1140
00000390: c35f 2d56 4305 fd3f d50e f1ec 5927 be3f
000003a0: 590f 2282 b33d 1740 ef70 13da 66ab f23f
000003b0: e371 9f30 1be4 0640 3bfc d33d 3cee 0140
000003c0: b89d 44ae 29d1 1040 c11b 8588 c51c 1640
000003d0: 7d36 f749 f54e f53f 3ed3 8ccf 6e1a 0c40
000003e0: a893 f601 f4e9 f13f 5264 b855 7f3c 0240
000003f0: 4108 399b 9d32 f23f 9ab2 b67a 9cb2 1440
00000400: 9519 5b5a da19 1440 0e98 9da5 f4c7 f53f
00000410: da73 b2a9 ff3b 0940 4516 795c 38bd ff3f
00000420: 43d3 7c70 46c4 1140 408c b361 17b3 0340
00000430: 79ef a3a9 f2f3 1140 2814 6fd0 97f8 0c40
00000440: d695 2043 787f 0140 6370 dd74 eed6 e43f
00000450: 13aa f0e8 a795 0d40 bb51 fd03 21a3 a23f
00000460: 1f08 fa55 a6d0 0040 9f0f a446 562b 1340
00000470: 7419 169e f9c1 1440 8840 d6e2 e20b 0740
00000480: 555d fb68 406d 1640 983f 6fd0 3e85 e53f
00000490: ddec 136c b21c 0740 0606 59fc 175d 1240
000004a0: 26ed ab4d 0907 0a40 3662 5df0 d0e9 fa3f
000004b0: 8b05 457f 4eb0 c23f 1a6c fcd5 56df 1240
000004c0: 33b0 faea 44c1 1140 a480 d27a 44bb 1340
000004d0: 47eb bdbd 6e85 1740 a02c d605 dbbf 0440
000004e0: 34e1 0d04 8b2c f83f a2f2 af92 fe9c 1140
000004f0: f5bb 32ba dcfe 1540 8d13 e00c 728b 1840
00000500: 47f0 cffd 6d9c ed3f f6f0 6e27 1f18 0c40
00000510: 28b3 9024 694b 0440 e83a a27a 95b4 1440
00000520: 59a6 59b0 53fd ea3f 23ca c873 fb90 1740
00000530: 3c6d 82e1 9784 1240 c995 b4af bba1 f73f
00000540: 84cb 7c8a bc15 0640 1e7b 283c e37e f03f
00000550: 8e36 7199 137e f33f e2de 9d4a ce26 1140
00000560: a5e2 5d58 d32f 0f40 d54f 5f57 4378 0440
00000570: 52cc 7a81 f62c cd3f 2d7d 0eec f074 fb3f
00000580: 88e2 bc0f 088f cf3f 8eaa 281d 7b15 1140
00000590: 6196 c3d5 7251 0240 09f8 f356 ac0a fe3f
000005a0: cbd9 7dff 3f40 0940 72a3 0361 3668 1040
000005b0: b499 de6b c912 ef3f f7c8 098e 46a6 f23f
000005c0: 9da9 8ef3 b2cb f83f 91bc fc13 5291 1040
000005d0: 9220 aa4c 3fff fe3f ca2b 9cd9 9cad f03f
000005e0: e3a8 d285 3598 fe3f 8705 556c b6ce f03f
000005f0: 639f a9df 4a21 d63f 3b4a 2df4 3d1d ad3f
00000600: e348 7caf 28de f83f 0e98 4f06 66d1 e33f
00000610: f3c4 0fc7 c316 0140 7ffd 9523 af5b 0a40
00000620: db40 edc8 a0fe 1840 b4a8 2fb8 d07d 1140
00000630: 0818 768b 6d8c 1340 8716 1aad 4cbc 1440
00000640: 3b11 8e8b 9643 ee3f dbee 228d aa86 0540
00000650: 9b25 f154 82b1 d43f 67d4 621e b4e1 0240
00000660: 00dc 36b5 ef0b 0840 7820 bf06 53c6 1540
00000670: 9386 812b 9e40 1240 df9e 0c06 5bd7 0040
00000680: feac 9d71 4c9f 1740 6b74 ad0a 8ecb 0740
00000690: e924 d418 8dfb 0a40 312b 48ab 75e0 f73f
000006a0: 0771 c344 3433 1440 cb1d cdd8 587f 1440
000006b0: 33bf 3133 f3e7 1540 0055 0cb2 e2df 1240
000006c0: a212 62fe 4d78 c63f b37e d449 2ada 0040
000006d0: 22e2 a834 54c4 1440 5c61 d6cd 513b 0140
000006e0: 410e 687a c2eb 1840 730d 95a0 5adb f83f
000006f0: a9a1 7bdb ba86 0a40 e83c 65a4 a1f7 f13f
00000700: 4057 8e01 171e 1340 6990 df4b 1bba 0140
00000710: 65e7 213e d891 1740 857e 42b3 efaf cf3f
00000720: cf64 c1a9 8bf2 d63f cb1b 3cee f873 bf3f
00000730: bfb6 9b26 e70e 1840 5546 acf6 b2a4 0d40
00000740: ae93 25c8 dd50 0640 dd55 9aa0 8d05 1440
00000750: d388 9d59 82db f73f 6e58 0c7c 547f 0940
00000760: 3474 d01a 09e5 fb3f c8bd 56d4 b6ec 0d40
00000770: 4f7a cdea 0042 1440 86ae 9b80 d45a dd3f
00000780: d98c e978 2a0d 0d40 8427 2cc6 22ae 1640
00000790: 81e6 82d2 c11d 1140 a6a9 f462 aea1 1240
000007a0: 6751 b861 841a 1840 30bd e197 02e1 1840
000007b0: c974 b10b c707 0e40 89de a979 afe7 0340
000007c0: de5f 63ba 8853 0040 d80d 65a2 2a23 0340
000007d0: aaa4 4895 f74d 0740 3153 07c6 94f2 fa3f
000007e0: 9a71 b513 5370 0b40 d040 07d4 3622 0f40
000007f0: 005c 9049 12d4 1140 3897 e040 3cfb f33f

subModel1.a_layer.lin.weight f8 [21, 512]
0.016065814271752014 -0.016097927018052835 0.007863411572016888 -0.01867594027697239 0.04028202642577801 -0.04055360559866919 0.010752558072587712 0.01061687845411835
-0.02891629201637623 -0.019950269277362997 0.0139734769080436 0.04266853846906251 -0.014799491440356874 -0.01369864962297128 -0.035941314007342726 0.026559742567105294
0.030631433830601244 0.005656035425115469 -0.023272193744546914 0.03263801771688238 0.010637523460889644 0.021328041584513246 -0.0075806195065984405 0.018048034306950553
-0.02214178518356512 0.040129573610270815 0.011554567632401683 0.007033760855795978 0.006549909146824994 -0.003466115853446933 0.031779786236454166 0.009063881917240255
0.030416808857462476 0.03473517904710328 0.018608777256840497 0.008783149898848819 0.050031194035391205 -0.024121608231693258 0.04297795498235265 -0.0017233024170928255
-0.025046572577597837 -0.021639217170548744 0.00039785495227094494 0.012684229612926284 0.004134375426590134 -0.001762619803493261 0.027075519706818284 0.03708784825218133
0.043253172439672874 0.020432103260992172 -0.018200563770066045 0.04063118142647598 0.010483581707557312 -0.02017497454139838 -0.011266801174000723 -0.03690177252237438
0.008407759382539208 -0.03320706548347474 0.020878227831119336 0.04055072535341553 0.02522712645970226 0.028454965570295185 0.024689865667685912 0.028787647787917946
0.014237674219658098 -0.04405642709020214 0.03764359852592947 -0.030139822567406393 -0.013395783018045754 -0.01859970176199017 0.027254248916230295 0.007246829152967663
-0.023481494387648714 0.010283692896493763 0.019577684140461397 0.03418304782860996 0.0016019108865400506 -0.03095573939489732 0.01563130693249829 0.030654271028420475
-0.04127718198943922 0.018695851962212875 0.015774180718349785 0.0245058190325814 0.04067904737339521 -0.03390548336298553 -0.0040508166252697765 -0.009991689786374807
0.014717642775191277 0.011525434405125266 0.014989129506760549 0.0029394869649076068 0.028700254280468976 0.022093725237700184 -0.03640283376056461 0.012698366401408109
0.0334680110825846 0.008064358601985962 0.016138415480075222 -0.009525608352581596 0.015878529240266923 -0.019310753510166718 0.010695140867888487 0.014742637985668224
0.0260602948834733 0.04140342433200145 0.01141379060924549 -0.03719433713577868 0.029018326201796292 -0.006736708054184107 -0.03359770797814514 0.004821031209936375
-0.042523814737297494 -0.043620896629592135 -0.0028555313802863143 0.029427936847638014 0.004352386980102126 0.013008898787349375 -0.026960699946235275 0.0077076285833398515
0.017755673279961817 -0.02620914208792697 0.0014381712068480554 0.017303300232858553 -0.021788233614876782 -0.0006392771677891325 0.024885765625559265 -0.006864647017788689
-0.025078374513245922 0.03479524645567636 0.007295768304335038 -0.02072849813639252 -0.02310879998918398 0.00858276643386991 -0.033323133711848925 0.03791221290078567
0.02993226949010573 0.042320805038985526 0.030895222192405015 0.03637616445164965 -0.024517912654971608 0.026160406684283974 0.012932047297091067 0.010600273754563362
0.03133789791420944 -0.007050088682898409 0.04615073299808949 -0.03458559200157097 -0.004886731861750627 0.002923834801374811 -0.0384943890614048 -0.018286927462440254
-0.02213207818781384 0.0024642902003432815 -0.007179525749968479 -0.015987766551538857 -0.035903044490915845 0.019110640961504617 -0.01672481718268804 -0.023575757863135288
0.009296893012426316 0.018445153726206785 0.04034224685066599 -0.03400404765269006 -0.018161484270649658 0.0410353221673928 0.010860992221176188 0.034054250672879795
-0.031820810019977885 -0.03318436395026841 -0.02386594679338652 -0.03393425854500002 0.013502296236285587 -0.04543902741585227 0.016022406465386704 0.03372784390250125
0.01481511452442259 0.03496781811076239 -0.028291332705732378 0.015854450498573258 -0.000730625540422652 0.012974537156390074 -1.6568704707495488e-05 -0.026852064026883025
0.032949101479582 -0.03111230818714271 0.004161857569948464 0.04313898230218081 -0.02458286105707214 -0.008575196405688715 -0.0030462237110267616 0.02754723828156215
-0.030084713806985477 -0.014755509919864553 -0.02953361032455562 -0.007630796909242143 -0.012285710772014175 -0.0014340839407473392 0.017621086466386326 0.026182656373241575
0.005523953748456949 -0.014733307795319872 -0.03841789065906004 -0.00424841948643463 -0.011153855414186818 0.00281285483781432 0.015030210523465386 0.0023067616373055625
-0.006897825896762895 -0.039711098044825394 0.012560594077073203 -0.00901086905554715 0.008924674990608724 -0.00038343376130400565 -0.026567510270388745 0.005220821903917996
-0.04095833020955631 -0.026691645173724958 -0.018086148703555908 0.003925800077716274 -0.011261761373072832 -0.017735587264188026 0.001933081404883796 0.011207820516773725
-0.006230639906393119 -0.01427718436900059 -0.013107712218295825 0.03926508856873879 -0.01993662599776539 0.007315908108362597 0.0066715343801604775 -0.023641852897097932
0.041713889229173524 0.02270389780779107 -0.021321745782302396 0.018460465929971692 -0.00557652077244911 0.010293578638580278 -0.04320452996705641 -0.0009978708415582156
-0.046103376213337065 0.0018751330199620524 0.026899052868168606 0.03903178739453987 -0.039067540364127615 -0.007371640923065409 -0.0006121539298082846 0.04531790728518841
-0.026137009550862372 0.03257149060374846 0.012469131266206702 -0.027671471068206537 0.0001915426171114281 0.0013485386257396767 0.005570708199254203 -0.0016322767071176069
00000000: 7eec 858b 8e73 903f 0cc1 4d98 f97b 90bf
00000010: 0d5e 4b3c b11a 803f a0b9 d822 c91f 93bf
00000020: ca0b 3b84 d89f a43f 14f5 8f33 71c3 a4bf
00000030: d22c 29ea 6f05 863f a0e6 f74d 4dbe 853f
00000040: 1cb0 2082 3b9c 9dbf 43e4 5ee8 d76d 94bf
00000050: b2d3 a652 209e 8c3f 33e2 9592 a6d8 a53f
00000060: 08c0 de1d 324f 8ebf 394a 0aa1 090e 8cbf
00000070: 563e 7960 e666 a2bf ed13 dd26 7a32 9b3f
00000080: f1c9 20ba d85d 9f3f 5a70 d072 c82a 773f
00000090: def0 277c aad4 97bf e48a 6625 eeb5 a03f
000000a0: c1e7 ff3a 20c9 853f 1373 5fa4 04d7 953f
000000b0: 4002 d40d db0c 7fbf 1cf8 6b14 2f7b 923f
000000c0: 5c31 f40c 56ac 96bf 115f 840c dd8b a43f
000000d0: b5ff cdd0 eba9 873f f317 7fcd 6ecf 7c3f
000000e0: a5f7 3cd9 13d4 7a3f 27ad 82c7 f864 6cbf
000000f0: 206f 1ead 7045 a03f b25a 46a3 1590 823f
00000100: e77a 2a7d 9525 9f3f b957 0e34 cfc8 a13f
00000110: db5b f2e6 2d0e 933f 6045 926c e6fc 813f
00000120: 1adc 524c b09d a93f b69d edb9 55b3 98bf
00000130: ab42 32de 3401 a63f b227 71e1 0d3c 5cbf
00000140: 6d04 6408 cfa5 99bf 24f4 3b48 9728 96bf
00000150: f2ae 3002 e612 3a3f 5058 e67a 30fa 893f
00000160: 1009 f2f3 34ef 703f 6e80 529a f6e0 5cbf
00000170: 56e6 a65e afb9 9b3f 2bee a4ae 2dfd a23f
00000180: d23d 27a2 4725 a63f f685 2d3d 27ec 943f
00000190: 9910 a528 2ba3 92bf 885f d936 9ccd a43f
000001a0: a197 a184 6a78 853f bf68 699f bfa8 94bf
000001b0: 903b 9574 0c13 87bf 82ca 4b04 cae4 a2bf
000001c0: 2f28 a55c 1638 813f 90cc 7e38 8400 a1bf
000001d0: 57b0 ee26 1a61 953f b0a9 718e 10c3 a43f
000001e0: df45 77cc 23d5 993f 6c05 226a 4c23 9d3f
000001f0: 7864 57d6 4c48 993f 168b 1c57 827a 9d3f
00000200: 5d01 2849 a428 8d3f b9e2 0f63 908e a6bf
00000210: 902e 2591 0546 a33f 13e0 ef40 f9dc 9ebf
00000220: 700b bc8f 3f6f 8bbf 52e5 21db cc0b 93bf
00000230: 60c9 16af 89e8 9b3f d01a 63e3 d9ae 7d3f
00000240: 491b d369 880b 98bf f760 61e5 9d0f 853f
00000250: ce73 7524 2c0c 943f 75c2 00c1 7080 a13f
00000260: 0d5a 9ab7 e63e 5a3f 705f 4c81 dcb2 9fbf
00000270: 4a78 4640 a701 903f 29fb 324e d563 9f3f
00000280: d46d 6e65 4822 a5bf f786 fe62 0125 933f
00000290: bddc 3959 1b27 903f 9afd 39ad 0d18 993f
000002a0: 2dcc 3354 e2d3 a43f c6ef 653c 0f5c a1bf
000002b0: 2d8f d7ce 9697 70bf 96ff e9e6 8576 84bf
000002c0: c135 2693 4824 8e3f 9fd6 bc9e a59a 873f
000002d0: 7563 37e8 9eb2 8e3f a894 330c 8d14 683f
000002e0: a403 1676 9963 9d3f 2bf5 5ecd bc9f 963f
000002f0: 9c79 f768 64a3 a2bf cbdd 40e3 9901 8a3f
00000300: f4ac 1f1a b822 a13f 0483 abe3 0b84 803f
00000310: 41e4 c8ba 9686 903f e16d ca82 2982 83bf
00000320: 699e 2e0f 7642 903f 952d 26bb 32c6 93bf
00000330: c790 0782 55e7 853f c4ac 0a60 6331 8e3f
00000340: e699 fec8 8caf 9a3f 088f e562 d432 a53f
00000350: 6ded 1e0b 1d60 873f 2f6b 30db 220b a3bf
00000360: 52e3 15e8 fab6 9d3f 5d1f 684c f397 7bbf
00000370: a62f f901 b833 a1bf fd22 13b6 37bf 733f
00000380: 201a 3273 aec5 a5bf c280 e468 7a55 a6bf
00000390: 6854 83bc 7b64 67bf 43be 6569 5b22 9e3f
000003a0: 2240 d3fb ced3 713f 9203 cad6 68a4 8a3f
000003b0: 3c76 2ff2 959b 9bbf 8a5f 1fcb 0892 7f3f
000003c0: 143d 3910 8b2e 923f 12d6 7ec0 91d6 9abf
000003d0: 845f 2a93 2090 573f 66b5 73d2 f4b7 913f
000003e0: 1907 419b a74f 96bf d38c ad43 a5f2 44bf
000003f0: 8da4 fd75 a77b 993f 202f 0aa7 1a1e 7cbf
00000400: 0524 7c39 25ae 99bf 14b2 2abb aed0 a13f
00000410: c1d0 42e4 2ae2 7d3f d82f 5df6 d939 95bf
00000420: 133b d050 d5a9 97bf 4434 2469 d793 813f
00000430: 8139 fcd2 ba0f a1bf 2844 0ec5 3a69 a33f
00000440: 5c62 389a 90a6 9e3f 5469 2a93 12ab a53f
00000450: fa16 ad43 ffa2 9f3f 28f6 5889 e59f a23f
00000460: 20c0 1344 391b 99bf 7ce0 a22c cbc9 9a3f
00000470: 7bce b001 1e7c 8a3f 6702 d6a8 98b5 853f
00000480: 0976 555d 850b a03f 3a2e 3bc5 8de0 7cbf
00000490: e391 d3a1 11a1 a73f e17c 1ee5 33b5 a1bf
000004a0: a717 7d18 1c04 74bf f9d8 39db b9f3 673f
000004b0: b24b 325c 89b5 a3bf 4eff 94ed ceb9 92bf
000004c0: 4665 09a0 caa9 96bf 89bd 2fba fd2f 643f
000004d0: ec1e c044 4768 7dbf 3857 e6d9 185f 90bf
000004e0: 5ea4 d443 e261 a2bf e2b4 bd67 bd91 933f
000004f0: 622c 537b 4f20 91bf 4898 0054 3e24 98bf
00000500: 43d1 8adb 3f0a 833f 1952 1850 49e3 923f
00000510: 7dd5 bd2d bda7 a43f f129 3381 fa68 a1bf
00000520: 3b00 f593 ec98 92bf 4f2a 61ed 9402 a53f
00000530: 78f1 22b3 493e 863f 5d0f dc09 8f6f a13f
00000540: f86e bc34 d14a a0bf 7757 cf7b 8afd a0bf
00000550: e7d8 dc93 5070 98bf 855e 54c5 d45f a1bf
00000560: e9c6 0b86 17a7 8b3f c11f 6dc1 c843 a7bf
00000570: 8c95 167f 2d68 903f 5c3a 0da5 c644 a13f
00000580: 667c f302 6357 8e3f 997a 6546 4de7 a13f
00000590: c4ed ec32 67f8 9cbf a0b8 8c29 263c 903f
000005a0: 9556 9f66 eef0 47bf 7fb3 23e6 6492 8a3f
000005b0: 3fb0 bab7 a05f f1be c65f 4d83 1b7f 9bbf
000005c0: c524 9362 b4de a03f fcda aaa8 e7db 9fbf
000005d0: fbe4 7422 060c 713f 7d57 570c 5016 a63f
000005e0: b102 21e1 3f2c 99bf 4224 f460 df8f 81bf
000005f0: 9696 e2e6 64f4 68bf 64c6 0ede 5735 9c3f
00000600: f45f a4f7 86ce 9ebf d43d 5504 2338 8ebf
00000610: 8837 e809 0f3e 9ebf d98a ae72 7841 7fbf
00000620: 5d94 ca2f 4029 89bf ebbe 03e8 fb7e 57bf
00000630: 305a 5f18 430b 923f 20c5 6153 a0cf 9a3f
00000640: 929a 1b0b 49a0 763f b374 2419 7f2c 8ebf
00000650: e886 ec7f 82ab a3bf 8e14 106c ca66 71bf
00000660: 1272 d321 d5d7 86bf bd87 2df1 fb0a 673f
00000670: 69c5 33b5 28c8 8e3f c633 5739 a1e5 623f
00000680: eed7 3d0a e540 7cbf 9c13 c856 0355 a4bf
00000690: 7821 3c66 5eb9 893f 3d87 375f 4a74 82bf
000006a0: 1e5e b299 1947 823f cd1f 0977 f320 39bf
000006b0: 2567 fd6e 8334 9bbf cf7c 5eb5 6d62 753f
000006c0: 7164 7f81 7df8 a4bf 4eed 63fc 0d55 9bbf
000006d0: 71fb c4e4 2c85 92bf 135e 1cef 7f14 703f
000006e0: 2075 5706 6810 87bf 87a4 191d 4729 92bf
000006f0: ffdd 865a eeab 5f3f c6c0 a134 20f4 863f
00000700: cb07 19aa 4c85 79bf 77f1 8c3f 5b3d 8dbf
00000710: 6376 6c5a 37d8 8abf 31f7 8dbe 8d1a a43f
00000720: 4aa8 9c52 446a 94bf 952a 0e21 49f7 7d3f
00000730: 2e80 a15f 9c53 7b3f 951d 0ae4 9135 98bf
00000740: 0179 0edc 855b a53f 6c04 4eca b03f 973f
00000750: 6180 5023 5ed5 95bf 90aa c0e5 4ce7 923f
00000760: a479 7de5 67d7 76bf 855d e4bc cc14 853f
00000770: 16c0 7e76 e71e a6bf daf5 53a8 5f59 50bf
00000780: 5397 249a dc9a a7bf d9cc c4bf e0b8 5e3f
00000790: dad9 72e1 6c8b 9b3f c65a ba74 f9fb a33f
000007a0: deee 6520 a900 a4bf 7a32 ebca b931 7ebf
000007b0: cd0f e88d 1e0f 44bf 2714 6da3 e833 a73f
000007c0: b8dc f104 a9c3 9abf e6a2 d9dd 35ad a03f
000007d0: 27ad fb77 6a89 893f 1ba4 14fd e855 9cbf
000007e0: 1c13 758d 1a1b 293f b75f e052 2e18 563f
000007f0: ff6e 8098 4fd1 763f 9451 cec4 43be 5abf

subModel1.a_layer.lin.bias f8 [21]
0.04257676713120209 0.024544696545166687 0.01392790694865687 0.024440484596115503 -0.018060618799353084 -0.027174905722270038 -0.002522998652076405 0.048604441067545086
0.011890844501457934 0.009693082987143994 0.03842954564057648 0.03800765598912003 -0.02473178122117314 0.016953745409943863 -0.022183227209883746 0.03682709917037189
0.003774572182403891 0.007737346156816682 0.024395783319887256 0.007426305839788127 0.0018228646465766904
00000000: 44bc cb3c 9fcc a53f a693 ceb3 3e22 993f
00000010: 030b c506 3c86 8c3f 08a3 2728 ed06 993f
00000020: c8df 5a9c 7b7e 92bf ed68 650d bdd3 9bbf
00000030: 1f47 5a96 1cab 64bf 69a3 a669 aee2 a83f
00000040: 3b6f 0b22 3a5a 883f 7ee6 6a93 f7d9 833f
00000050: b7ec 7393 09ad a33f 5f18 f14e bd75 a33f
00000060: ff2a 11be 4953 99bf 5c59 5298 525c 913f
00000070: df74 8b2d 33b7 96bf e52a 1665 00db a23f
00000080: 68da 8d02 daeb 6e3f 26c4 380b 32b1 7f3f
00000090: e7ad 134e 35fb 983f 2649 64cb 0b6b 7e3f
000000a0: 8976 b102 a6dd 5d3f
