LSR_strength_relation/outputs/Model_best.pth (torch, 105518 bytes, 7 tensors)

_raw_param_deltaH f8 [7, 6]
0	0xbff60bd544a28ff5	-1.377888935189728
1	0x3ff3c9c59a54b9ff	1.2367607143929715
2	0xbff195a22b6a4688	-1.099031610098253
3	0xbfd8119af6a6b27e	-0.376074543829226
4	0xbff487b01cecd5ae	-1.2831269388092141
5	0xbfead34ddf9a36f5	-0.8382939688906094
6	0xbfd96b49a7f3c170	-0.39717332269267214
7	0xc00019e1c01dfcdc	-2.0126376160766153
8	0xbfd2505f456c530b	-0.2861555269203541
9	0xbfe9c8a8d0096557	-0.805744558641133
10	0xc00953c88d153717	-3.16590986462587
11	0xbff4e3b77ced8455	-1.3055949096672255
12	0xc0005297989094f4	-2.040328208839691
13	0xbffd8657d22b2b59	-1.8452985963546864
14	0xbff160dde8a5d671	-1.0861491287045306
15	0xbffd3a270c553a26	-1.8266973954920416
16	0xbfd6c98db5729044	-0.35605185241206905
17	0x3ff4a353edf68c75	1.2898749633248177
18	0xbff25c870eeff0a5	-1.1475897391783658
19	0xbfe2f2204938550a	-0.592056410797029
20	0xbfe834289c34986f	-0.7563670206916536
21	0xbfe82ff1c1b13ceb	-0.7558525832227166
22	0xbfdc615d8655723f	-0.4434427081921832
23	0xbfe480714e748e49	-0.6406790287332537
24	0xbff0d6d9187eb030	-1.0524531323271837
25	0x3fe24ec68d4ed1ae	0.5721161613387744
26	0xbfeb6212a6aa28e3	-0.8557217841310173
27	0xbfd9e0ae0d036e0e	-0.40433837195243505
28	0xbff4f69a3718d92c	-1.3102056648472837
29	0xc0018c18c41d5c1f	-2.1934066125354685
30	0xbffb6bd29c43189f	-1.7138239006031097
31	0xc00382c1698370a3	-2.4388454669225026
32	0x3fc4b6ab963771ea	0.1618246539573101
33	0xbfd8f7ddfeee424f	-0.39012861152244666
34	0xc002ad72498e46c9	-2.3346906420273155
35	0xbfef96309555bd8d	-0.9870837132165647
36	0x3fe68bc215ecc6a0	0.7045603206845108
37	0xc002c4efdbce2b1b	-2.3461606190006825
38	0x402037c2f6e3a21d	8.108909335410369
39	0xbff0e5107675d532	-1.0559239032130106
40	0xbffd0b8785f23466	-1.8153147918958665
41	0x3fefc95701e696e8	0.9933276211856681

_raw_param_KHP f8 [7]
0	0x3ff4652c816b3910	1.274700646917669
1	0xc00e0cf3f63cb972	-3.756324695327913
2	0x3fb80d00ae8c2c1b	0.09394840489783045
3	0xbfe93b8ee7ab2677	-0.7885202908302763
4	0xc010132ab52732e7	-4.018717604177005
5	0xc014e4ee47887dc1	-5.2235652138764985
6	0x4022071056929b8d	9.013796525379599

subModel1.a_layer.log_lengthscale f8 [3]
0	0xbf50e76cd9fa3a12	-0.0010317385676078578
1	0x4006993ed4053959	2.8248268665403597
2	0x3f67bb764cc52ba5	0.0028970060867882946

subModel1.a_layer.W_base f8 [512, 3]
0	0x3ffc04f707ef5ca9	1.7512121496163593
1	0x3fc38fa877dcc612	0.15282159664779776
2	0xbff3c6e84a61a3b4	-1.2360613732837296
3	0xbfe7db95d64be772	-0.7455548463324091
4	0x3ff27bfd66281aa4	1.1552709570402522
5	0x3febfac86c19b417	0.8743631469093341
6	0xbfc5c21210e7c782	-0.16998506379564665
7	0x3fee65d460a8e78e	0.9499303710829154
8	0x3fc9d8b4f32daa21	0.20192586778587532
9	0x3fdb231c736d0c07	0.42401801368777153
10	0x3fc2a74a1197cad4	0.14573026522665222
11	0x3fd162546941e001	0.2716265705016668
12	0xbff21f087fc8a70d	-1.132576464801278
13	0xc005da4c27a95037	-2.7315905664964037
14	0xbfd2104272e516fb	-0.28224240513041793
15	0xbff320546d623bde	-1.1953930161287114
16	0x3fde006b155ff492	0.4687755306948215
17	0x3ff3fee315228924	1.2497282815534811
18	0x3fcb221062a79763	0.21197705094453587
19	0xbfd5824b7fe2e2a8	-0.3360775708093038
20	0xbfae62b4055a8e7b	-0.05934679570534925
21	0xc004603b4e07047f	-2.5469881149188605
22	0x3fe37c89c700907f	0.6089524161111654
23	0xbfdcf8b9b4c5a34b	-0.4526809945441996
24	0x3fe7930062897704	0.7366945194769134
25	0x3fcce4407ada1d1c	0.22571569441445483
26	0x3fcfa1e4e4722d8d	0.24712811617460453
27	0xc00305d49d14d024	-2.3778469345070494
28	0xbfd537f299038d71	-0.33153977339517043
29	0xbfcf8fceaf5aede6	-0.24657615244164716
30	0x3fe51c259cb6e0b8	0.659685903628108
31	0x3fdfe042b6512e28	0.4980627804222615
32	0x3fe3d1babfae79d2	0.6193517440586283
33	0xbfe37e974327c112	-0.6092029868723634
34	0x3fc3d2abbfdf237f	0.1548666655419559
35	0xbfe6c249c901df43	-0.7112168241428453
36	0x3fd2c516d2867a38	0.2932793670569569
37	0xbffc8452d92b6799	-1.7823055728135613
38	0xbfde0a51462dc68c	-0.469379728826518
39	0x3ffed89aa42a068e	1.9278818524038885
40	0x3ffe88f3f60fc3a1	1.908435784509699
41	0x3fda5f2a924557af	0.41205848964943476
42	0x3fe02b52c2884426	0.5052884864290987
43	0xbfd0cafad6ab6370	-0.2623889061338138
44	0xbfec4374111f62df	-0.8832340559411839
45	0xbff11b452e374616	-1.069157772570525
46	0x3fd724c71a94f52a	0.361619735678533
47	0x3fb181aa67b8c50f	0.06838479072827773
48	0xbff9d4f5d8a06b8d	-1.614492269704644
49	0xbfbaf74e1cf2aa38	-0.10533607680069046
50	0x3fe652dcb07941d0	0.6976149985076123
51	0x3fd2cca098ddac39	0.29373946121512834
52	0x3fe4b8fbd60a8ab3	0.6475810223094726
53	0x3fe00a0d7cf49ca9	0.5012271347558414
54	0xbfc1ed1138f560cc	-0.14004721909691964
55	0x3ffd6ae7ceba2435	1.8385999751356057
56	0xbfcdd69b3a14afa2	-0.23311176620461277
57	0x4001e3365dc2cc23	2.235943539149518
58	0x3fd77424f5ea0714	0.36646389021926606
59	0x3ff4e1f59deaad3e	1.3051658791180922
60	0xbff032871e4adba8	-1.0123358901307515
61	0x3ff209d0a0278df1	1.1273962265048534
62	0x3fcc0595b47a1ecc	0.21892043411593531
63	0xbfe647f96b489b70	-0.6962859244712103
64	0xbfcd67e5e7cefbd0	-0.22973321741844055
65	0xbf51581e8f3a3f61	-0.0010586069519468932
66	0xbfef691c92c0fef6	-0.9815810076033518
67	0xbfe9764d8eef3800	-0.7956912795723383
68	0x3fc287940da08584	0.14476252236731224
69	0x3fcfb593c1a25612	0.24772879557410526
70	0xbfab1a57e0e5bffc	-0.052935358241370495
71	0x3fd47fa3ac0b6b0a	0.32029048730116527
72	0xbfc6f4a4634fc611	-0.17934088563156128
73	0xbff718db2010bda2	-1.4435683491281925
74	0x3ff2fe6b78459556	1.1871142099492622
75	0x3fe448a967fc93b3	0.6338698416699259
76	0xbff6fe3b536b7255	-1.4370682962973167
77	0xbfb174449cf16159	-0.06818035918820921
78	0xbfc384288f2730c2	-0.15247065534493315
79	0xbfd456a2a530d061	-0.3177878010931235
80	0xbffe5a427c640470	-1.8970360621463236
81	0x40030a3e802f98ab	2.380002023174787
82	0xc000dde60b1fceb9	-2.108348929317654
83	0x3fd145878ae179d1	0.26986874163222035
84	0xbfe47c3ed4065f3c	-0.6401666775809427
85	0x3fe0b4626dab6b26	0.5220195905670593
86	0xbfe76eaf34f622a0	-0.732261279526103
87	0xbfd6b5827255476e	-0.35482846417755
88	0x3fc694d2ba569d09	0.176416722283854
89	0xbfc7f76ba3476b51	-0.18723817322355754
90	0xbffa0c2c981481ca	-1.6279722157124632
91	0x40014c56a5c01bb5	2.1622746419193057
92	0x3ff5e9275ffb4c43	1.369422316482784
93	0x3ffbd755f80cacce	1.7400722207483343
94	0xbff07da05585bd8c	-1.0306704846114796
95	0x3ff282adfa883a08	1.156904200211672
96	0xbfb07ef494117285	-0.06443718543000372
97	0x3ffa539c040c8a8e	1.6454124601520195
98	0x3fd3728e83b8080d	0.3038669859234922
99	0x3ff67511adeeed3e	1.403581313540442
100	0x3fe35e1a10ebe0a3	0.6052370386596703
101	0xbff7bbb44eb65674	-1.4833262514779593
102	0xbff6998438241e1d	-1.412479609776603
103	0xbff882c996be8500	-1.5319305313535665
104	0xbfd6df7b327874bd	-0.35739021233332463
105	0xbff50233e68c5457	-1.3130377774989677
106	0xbff4f5d412179dc5	-1.3100166994789657
107	0x3fd48f8902b78da2	0.3212606932194949
108	0xbfcd190c53c801f6	-0.22732690897829827
109	0xbff883fa790de716	-1.5322212914165383
110	0xbfe88ddcb95ffd33	-0.7673171635250696
111	0xbfd0f1c1d50cae17	-0.2647556858598547
112	0x3fc18a4e9d92742c	0.13703329748105497
113	0x3ffb5b1b2290a3e5	1.7097426748462052
114	0x3ff2197a873e0360	1.1312203677082024
115	0x3fe4f0dba88fa755	0.6544016163072494
116	0x3feb1ee77bb892c3	0.8475224892068457
117	0xbfe2a77ab4a59c00	-0.5829442528018944
118	0x3fe708265d15a727	0.7197448556955565
119	0xbfadbc865dec5052	-0.05807895561716293
120	0x3fd06f9fd81dfdb7	0.25681301217261016
121	0x3fe4c6f77a646229	0.64928792862617
122	0xbfe2533b4eb0c1c9	-0.5726601159022319
123	0x3fe0eeb5bda34a18	0.5291393951286549
124	0xbf919773d9efa266	-0.017179308106195633
125	0x3fb50a43a0df7f6d	0.08218786885799796
126	0xbfd5d96f75c4276f	-0.34139620304687573
127	0x3fad54661885548f	0.05728453683210787
128	0xbfe983b9f2f18837	-0.7973298783292709
129	0xbfd90d4791338a44	-0.3914355199796413
130	0xbfe96397918b0729	-0.7934072344434969
131	0x3fc02f64d67ca5ae	0.12644634697907747
132	0x3fdb7e9bfbe0e69e	0.4296026191474115
133	0xbfb45b812c3cac94	-0.07952124910359465
134	0xbfb76b30b0765bef	-0.09147934253847699
135	0xbfea298b37420417	-0.8175712661033029
136	0xbff3fad06b9f06db	-1.2487339214280186
137	0x3ff44a90d9859828	1.268204545683611
138	0x3fb78fe3c7475839	0.09203933348848715
139	0x3ff33efc5b22478a	1.2028773841779832
140	0x3fe6181a7760c826	0.6904423076250665
141	0x3ff72ee897118c82	1.4489522839656108
142	0x3ffebdbb4521e093	1.9213211727601773
143	0x3fc51393b44c68c3	0.16465994170795825
144	0xbfc5856b830bce14	-0.16813415430770873
145	0x3ff9ae43a2a07f0d	1.605044970761756
146	0x3fd17edb3c572fb0	0.27336769955285956
147	0xbfe4bf1510a68571	-0.6483254742817463
148	0xc00108aa14cfb699	-2.129230654324442
149	0xbffb085fc49ee604	-1.6895444565292346
150	0xbff3031a976582e0	-1.1882577814032445
151	0xbfff6559241fe5e0	-1.9622432147137872
152	0x3fc263f7ec439c6f	0.14367579494794167
153	0xbff5f36b8527c13e	-1.3719287110689744
154	0x3fc2d6b67e62f2a8	0.14717751666275558
155	0xbff19beca67f24ef	-1.100567484262054
156	0xbfe0dc6469a86203	-0.5269033492687075
157	0xbfe5acea5125ea78	-0.677357824795151
158	0xbfef7ced4940b043	-0.983999865600261
159	0x400460e3cf419b6e	2.5473095123192513
160	0xbffde8b934fa3d83	-1.869317252105106
161	0x3fd645e52b1ff60e	0.34801606379900896
162	0x3fd0bed2c1ba3e8b	0.2616469280119211
163	0x3ff1b4769a6d8554	1.1065584213577795
164	0x3fddf6b7779eeafa	0.46818339044300183
165	0x3fbf0948c91d5821	0.12123541746163415
166	0x3fa8e5636aedf596	0.048625094225808116
167	0x3fb13e3b81d1b5ed	0.0673558418218005
168	0x3fd237e0299d711e	0.2846603781124645
169	0xbffd062f02aaeba0	-1.814009676380671
170	0xbfcfad1edac492a9	-0.24747071916603616
171	0xbfe68e632380c003	-0.7048812573830222
172	0x3fd1e11cbf772c32	0.2793647641926241
173	0x3fe6ddd77705bdf2	0.7145802807480648
174	0x3ff93a394e99bdbd	1.5767148084959068
175	0xbfd86bad81bb6944	-0.38157212895534465
176	0xbff8964971fad2ea	-1.5366911365828693
177	0xbfbd439005377b1e	-0.11431217315064798
178	0x3ffa084ca5c16b9c	1.6270262217355826
179	0x3fd951ba29fc302e	0.3956132326136438
180	0xc00630822f128e78	-2.7736858060396195
181	0xbff3a4a7d4edf0ca	-1.2276991193348743
182	0xbff379c80b891433	-1.2172317934612351
183	0x3ffd9efebb32e511	1.8513171493962697
184	0x3feac94fc75a6b37	0.8370741742722662
185	0x3fe290273966cd5f	0.5800968285679281
186	0x3fcf0e768793d04b	0.24262887592306223
187	0x3fd4434d1322368c	0.3166077315189362
188	0xbff0b0949c24405c	-1.043110475471642
189	0x3fd8494eaf04ede8	0.37947432605480325
190	0xbfe0091dd55d4016	-0.5011128585119902
191	0x3fcab7b084c112e6	0.2087307594503251
192	0xbffe185c76ae4d51	-1.8809475551577928
193	0x3fffdb1a4ac62238	1.990991870961933
194	0x3fe212228a2f7cd3	0.5647137354789272
195	0x3fe5786b708cc5b9	0.6709496687164381
196	0x3fddee62993b034c	0.46767487491529347
197	0x3fcbd5aad2776226	0.2174581077258761
198	0xc00121d4896055fa	-2.14151866269344
199	0xbfc5fe7b0093b4cf	-0.1718286278550409
200	0x3fd0434cd978e3d4	0.2541076778175555
201	0x3fbbc1f7138ab2fb	0.10842842318625039
202	0x3fdfb5d0a5bccb43	0.4954721087007565
203	0x3fd69ecb4c10af3a	0.35344202450027107
204	0x3f956da427bdd110	0.020926060605647
205	0xbfc02f24c641a4ec	-0.12643871002663987
206	0xbfdbe603e772aa4d	-0.43591401674590174
207	0x3fe6d4d17de944a6	0.7134787997439573
208	0xbff3b9cb4665bf77	-1.2328598737621783
209	0x3fc3dc0d12a52943	0.15515292559059377
210	0xbf9c412aa7857166	-0.027592340922056556
211	0x3fe4f780e59e26bf	0.6552128300401917
212	0x3fe2a34ef9c78822	0.5824351194862667
213	0xbff4f795bcdb4bbc	-1.310445535393895
214	0x3fe2c1eb458d8b58	0.5861717565970634
215	0xbfd1d2c4855610ee	-0.2784892370330131
216	0x3ff1e03483fadc63	1.1172375827279886
217	0xbff1431639dcb78a	-1.0788786182633623
218	0x3fe83870b9e21504	0.7568896894960351
219	0xbffc8ab0e439aeef	-1.7838601031352785
220	0x3fd6aba2ca37fa24	0.35422582385936807
221	0xbfb78ad3673cbffe	-0.09196206350748068
222	0x3feabc0067a9c787	0.8354494118377581
223	0xbf52c2a6b2e37da9	-0.0011450412671861565
224	0xbfb2237dca4ca940	-0.07085405529929734
225	0xbfe958a71ab9200d	-0.7920718690811569
226	0xbf8e92c08587813e	-0.014928344798079803
227	0x3fd47c040302fe8c	0.3200693158541774
228	0xbfc2a253a4addedf	-0.1455788187120026
229	0x3fe8f4500ee6c637	0.7798233309787922
230	0xbfeb71a6e60a5bb5	-0.8576235287645121
231	0x3fb7985af8e94fc9	0.09216850830972513
232	0xbfddee2729a29c99	-0.4676607042878885
233	0x3fe54c24a1cc2481	0.6655448112588972
234	0x3fe0a9628cf3d651	0.5206768753984737
235	0x3ff007f8c025e0e5	1.0019462114124107
236	0x3ffaf8e930212606	1.6857692604120316
237	0x3fe2f93b46c38354	0.5929237730125387
238	0x3fb8d7ccce0291d2	0.09704284696142132
239	0x3fe6ae706b68b2f1	0.7087938402015351
240	0xbffb5e6a504b9d84	-1.7105506073511103
241	0x3fe09e2d99b6f3de	0.5193088533629824
242	0xbff356887c1f2c02	-1.2086262558466392
243	0xbff475c90960eda3	-1.2787561766007023
244	0xbfe57f1b4d865022	-0.6717659486917038
245	0x3fd7e01bfb5c12d5	0.37305354639856364
246	0x3fac602d1f1c36dc	0.0554212666012128
247	0xbfea18b976b268c1	-0.8155181234644929
248	0xbfe7852629545f96	-0.73500354835686
249	0x3fe27649069b91fa	0.5769391182953421
250	0x3ffdb0a646197b31	1.8556273210776448
251	0x3fe49f8773da0d65	0.644473768494589
252	0x3ff3f2d9077452fe	1.246789006346432
253	0x3fd6f25de16c2154	0.35854289068131107
254	0x3fda02ccee0f5398	0.4064209294131671
255	0x3fedc850a49bd271	0.9307025160802153

subModel1.a_layer.b f8 [512]
0	0x400a395ff2f6ddcb	3.278015039595379
1	0x4017b32237207f27	5.924935208662453
2	0x400e68ad1a9c9cf7	3.8011114195866145
3	0x4016229e423ceb3d	5.533806834190554
4	0x3fd762bd485bb67a	0.3654015738128248
5	0x3ff303544e8ec15a	1.1883128231675841
6	0x40012809aca54ca1	2.1445497024484017
7	0x3fec314d81a94688	0.8810184032865473
8	0x4010902ae9f49444	4.140788703492095
9	0x3fbfd443ebef4e1d	0.12433266172529796
10	0x3ff3a9fab0a1cd74	1.228998842209731
11	0x401216e9198ed274	4.52237358030526
12	0x4007fe73e00562b9	2.9992444516795698
13	0x3ffa4553433ffcdb	1.6419251086188555
14	0x3f7a0ab83cc63d32	0.006357879330962478
15	0x4013319fad417600	4.798460681076449
16	0x400b5408a5ac0c57	3.4160321181421227
17	0x3ff4534d435c2891	1.2703373557328954
18	0x3ff1ca5d401ae8e7	1.1119053367715936
19	0x3fdf5b598516cf20	0.4899505424211714
20	0x40086fc4e5f82e54	3.054574772488005
21	0x401268d74512e7e4	4.6023836891926955
22	0x3fb0ba8842f58eb6	0.06534625658747015
23	0x3ff851b2c73bc66f	1.5199458868559323
24	0x3fc9ad1c3dc55b9c	0.20059540764006278
25	0x400ab1a4005cf275	3.336738589130898
26	0x3ff35bba92790ba7	1.2098947259516792
27	0x3fe3a85ecb4f7fed	0.6143030138882729
28	0x4009561a4cddfbef	3.1670423512691666
29	0x3ff194993614cf9c	1.0987789261389258
30	0x3fa6ded31c7022ac	0.04466876718658361
31	0x4008a56cf8087511	3.0807742478924713
32	0x3ff81b36239f8888	1.5066434279947618
33	0x4018112ca6ac7639	6.016771892811044
34	0x40124cc855dc5eb7	4.5749829688790475
35	0x4014b6f06d154485	5.1786515278082605
36	0x401779173a011f5d	5.8682526648697975
37	0x3fd25f4b866a36eb	0.2870663464208138
38	0x3fe60681314f0eeb	0.6882940257132452
39	0x400436145eb369fe	2.526406040048868
40	0x4012870ac3d1a6c2	4.6318770024024065
41	0x40172e48a206a9b1	5.795198947579068
42	0x400c29e73333b17b	3.5204605102682627
43	0x4017c5005dad5a09	5.942384208398388
44	0x400ee7346ce616a5	3.862892962238066
45	0x4012861598611ce3	4.630941754271791
46	0x400c218c5c8d4c34	3.516380999624312
47	0x40059d83a3104ef3	2.7019112338401725
48	0x4016aabdb136af1a	5.666739243471762
49	0x4011d6898a0be30e	4.459509045577546
50	0x4013a8237d00e854	4.914197877102271
51	0x3fd61f4f2ca751dd	0.3456609664983981
52	0x3fedb1de53e10e41	0.9279624593986641
53	0x40045afd7a9e56c3	2.5444287852832033
54	0x4011ea29bf8439d7	4.478674881406241
55	0x401017548fafd99b	4.022783513172182
56	0x4013b8414b728c29	4.929936579576897
57	0x3ff23477a6736316	1.1378094198209445
58	0x3fe7e2b631f8d2cc	0.746424768067834
59	0x4004e3d683c51b10	2.6112489981200113
60	0x40075331872548aa	2.915621810746491
61	0x3fd465eda2898cdb	0.31872120735915893
62	0x3ff28640f47b5819	1.1577767896719762
63	0x3ff1bd255700408a	1.1086781881786316
64	0x40044afd757a77c8	2.5366162469863163
65	0x4013a046771b2812	4.906518803627494
66	0x4001e98b298df3e1	2.2390349623151313
67	0x4015ce922d7fa964	5.451729498783923
68	0x4012d764f9442de7	4.710346121584258
69	0x4004b81a70b5ef76	2.589894180824497
70	0x4014fdf03fcdb45b	5.247986790590484
71	0x400ed1bf8dd77de9	3.8524161416423692
72	0x400ce46e671e0349	3.6115387016328993
73	0x3fe620c9ef12e25c	0.6915025395783903
74	0x400663ad222939e1	2.798670069583054
75	0x400c7725515c1045	3.5581766468258444
76	0x4013985662e7ad48	4.89876703776401
77	0x3ff51b901a57dff3	1.319229224112857
78	0x3ffb925f58659506	1.7232354596138193
79	0x3ff3bdef01e0c2fe	1.2338705132826244
80	0x400a9e263e6c46f4	3.327221381835324
81	0x401799addd8d1aab	5.900077306496921
82	0x40179a73de1d508c	5.900832624949668
83	0x3ffc1079527cdc7f	1.7540219518830609
84	0x3ff619f028743580	1.3813325481636127
85	0x3fecd92ea05ba594	0.9015114910118194
86	0x4007c3f766a41a47	2.970686723597541
87	0x40154cc76177662c	5.324979327118438
88	0x40182012ef54a222	6.031322230854615
89	0x4015c332d027044e	5.440623524075887
90	0x4011cf81fa263423	4.45264426096131
91	0x3fe4ab35dc8999fa	0.6458997065900001
92	0x3fe93debfc8b29ab	0.7888088161937977
93	0x3ffb9e0cad92a0d2	1.7260863094507397
94	0x4016924f2230b402	5.642879995558362
95	0x4000d14b36219f16	2.1021942357073256
96	0x401883b3ff65f3a0	6.128616324041019
97	0x40188f50e203058a	6.139956981119562
98	0x400ac4c348c7c837	3.3460756002396255
99	0x3ff4585a5b989a53	1.2715705469105572
100	0x3fe7d6910fb09688	0.7449422174874636
101	0x3ff51122ecaee1ea	1.3166836972651432
102	0x4015d989a882f43a	5.462439187042998
103	0x4001d6a33c6403a7	2.2298035352727825
104	0x3fe8b398a6258953	0.7719233746577551
105	0x400fb8c31a7d59fe	3.9652158803467037
106	0x3fe38ff16cefc52d	0.611321175352861
107	0x3ff145c92cbbd769	1.0795375583088236
108	0x3ffd0d2672be3ef1	1.8157104952005592
109	0x40122b5ed023ec99	4.542353870575561
110	0x400b1ab7d35b51f1	3.388045932030075
111	0x3f85156bd5ecc072	0.010294764009444377
112	0x3fdf0f8a9ce95a02	0.4853235752429158
113	0x4011cd3c535b552c	4.45042543644858
114	0x3ffd0543562d5fc3	1.8137849203394445
115	0x3fbe2759ecf10ed5	0.11778795275409533
116	0x40173db382220f59	5.810255082444052
117	0x3ff2ab66da1370ef	1.1668461340514644
118	0x4006e41b309f71e3	2.861379985681411
119	0x4001ee3c3dd3fc3b	2.2413258390729687
120	0x4010d129ae449db8	4.20426056188392
121	0x40161cc588851bc1	5.52809727966718
122	0x3ff54ef549f7367d	1.3317768945011317
123	0x400c1a6ecf8cd33e	3.5129066672183447
124	0x3ff1e9f401f693a8	1.1196174694716579
125	0x40023c7f55b86452	2.279539746942228
126	0x3ff2329d9b390841	1.1373573363676004
127	0x4014b29c7ab6b29a	5.174425046349507
128	0x401419da5a5b1995	5.0252470129111275
129	0x3ff5c7f4a59d980e	1.3613172978743964
130	0x40093bffa9b273da	3.1542962319931407
131	0x3fffbd385c791645	1.9836963283754738
132	0x4011c446707cd343	4.441674955004433
133	0x4003b31761b38c40	2.462446940700403
134	0x4011f3f2a9a3ef79	4.4882303720768215
135	0x400cf897d06f1428	3.6213833125971355
136	0x40017f78432095d6	2.1872411007231944
137	0x3fe4d6ee74dd7063	0.6512367517966705
138	0x400d95a7e8f0aa13	3.6980741690106327
139	0x3fa2a32103fd51bb	0.03640082524967477
140	0x4000d0a655fa081f	2.1018797604492785
141	0x40132b5646a40f9f	4.7923213040957355
142	0x4014c1f99e161974	5.189428777788965
143	0x40070be2e2d64088	2.8808038446077866
144	0x40166d4068fb5d55	5.606691017477108
145	0x3fe5853ed06f3f98	0.6725153037059384
146	0x40071cb26c13ecdd	2.889012188299246
147	0x40125d17fc590606	4.590911810811582
148	0x400a07094dabed26	3.253435713586117
149	0x3ffae9d0f05d6236	1.682084025311395
150	0x3fc2b04e7f45058b	0.1460054513391181
151	0x4012df56d5fc6c1a	4.718104690105088
152	0x4011c144eafab033	4.43873946337776
153	0x4013bb447ad280a4	4.932878417108586
154	0x4017856ebdbdeb47	5.880305256573428
155	0x4004bfdb05d62ca0	2.593679471586782
156	0x3ff82c8b040de134	1.5108747633331179
157	0x40119cfe92aff2a2	4.403314868916512
158	0x4015fedcba32bbf5	5.498888882967539
159	0x40188b720ce0138d	6.136177254845177
160	0x3fed9c6dfdcff047	0.9253454167624192
161	0x400c181f276ef0f6	3.511778171609076
162	0x40044b692490b328	2.536821637788666
163	0x4014b4957aa23ae8	5.176351467277279
164	0x3feafd53b059a659	0.8434236950244652
165	0x401790fb73c8ca23	5.891584214334702
166	0x40128497e1826d3c	4.629485629640211
167	0x3ff7a1bbafb495c9	1.4769856322758292
168	0x400615bc8a7ccb84	2.760613519605103
169	0x3ff07ee33c287b1e	1.0309784269263171
170	0x3ff37e139971368e	1.2182804101788949
171	0x401126ce4a9ddee2	4.2878963145119275
172	0x400f2fd3585de2a5	3.8983523276950387
173	0x40047843575f4fd5	2.55872219333285
174	0x3fcd2cf6817acc52	0.22793465921640405
175	0x3ffb74f0ec0e7d2d	1.7160500737152902
176	0x3fcf8f080fbce288	0.24655247467469033
177	0x4011157b1d28aa8e	4.270977454764433
178	0x40025172d5c39661	2.289769811660151
179	0x3ffe0aac56f3f809	1.877605762157602
180	0x4009403fff7dd9cb	3.1563720665246584
181	0x401068366103a372	4.101769939276766
182	0x3fef12c96bde99b4	0.9710433108164609
183	0x3ff2a6468e09c8f7	1.1655946300857616
184	0x3ff8cbb2f38ea99d	1.5497312082248762
185	0x4010915213fcbc91	4.1419146655090495
186	0x3ffeff3f4caa2092	1.9373162264546733
187	0x3ff0ad9cd99c2bca	1.042385911978942
188	0x3ffe983585d2a8e3	1.9121604182678815
189	0x3ff0ceb66c550587	1.0504669410441652
190	0x3fd6214adfa99f63	0.3457820114331211
191	0x3fad1d3df42d4a3b	0.056863723809005916
192	0x3ff8de28af7c48e3	1.554238019457039
193	0x3fe3d166064f980e	0.6193113444576299
194	0x400116c3c70fc4f3	2.136115603607885
195	0x400a5baf2395fd7f	3.294767644896353
196	0x4018fea0c8ed40db	6.248660220604701
197	0x40117dd0b82fa8b4	4.372866514119028
198	0x40138c6d8b761808	4.887136630137327
199	0x4014bc4cad1a1687	5.183886246411595
200	0x3fee43968b8e113b	0.9457504964525819
201	0x400586aa8d22eedb	2.6907549883161272
202	0x3fd4b18254f1259b	0.32333429617991677
203	0x4002e1b41e62d467	2.360206830397647
204	0x40080befb536dc00	3.005828300224948
205	0x4015c65306bf2078	5.44367609540506
206	0x4012409e2b818693	4.563103370457287
207	0x4000d75b060c9edf	2.105154082546377
208	0x40179f4c719dacfe	5.905565047501339
209	0x4007cb8e0aad746b	2.974392016809863
210	0x400afb8d18d424e9	3.372827714895369
211	0x3ff7e075ab482b31	1.4922997179698536
212	0x4014333444c37107	5.050004076412967
213	0x40147f58d8cd1dcb	5.1243623614495375
214	0x4015e7f33331bf33	5.476513671790417
215	0x4012dfe2b20c5500	4.7186382122065424
216	0x3fc6784dfe6212a2	0.17554640694665574
217	0x4000da2a49d47eb3	2.106525971219378
218	0x4014c45434a8e222	5.191727469260998
219	0x40013b51cdd6615c	2.1539646225975684
220	0x4018ebc27a680e41	6.230234062768035
221	0x3ff8db5aa0950d73	1.5535532257789242
222	0x400a86badb7ba1a9	3.3157860896210036
223	0x3ff1f7a1a4653ce8	1.122956888360756
224	0x40131e17018e5740	4.779384636223597
225	0x4001ba1b4bdf9069	2.2158723762132024
226	0x401791d83e21e765	5.892426462954835
227	0x3fcfafefb3427e85	0.24755665066640034
228	0x3fd6f28ba9c164cf	0.3585538060920727
229	0x3fbf73f8ee3c1bcb	0.12286334816245341
230	0x40180ee7269bb6bf	6.014553645376224
231	0x400da4b2f6ac4655	3.705419470913322
232	0x400650ddc82593ae	2.789485515257602
233	0x4014058da09a55dd	5.005423077983747
234	0x3ff7db82599d88d3	1.4910911083793976
235	0x40097f547c0c586e	3.1871728602664495
236	0x3ffbe5091ad07434	1.7434168860847992
237	0x400decb6d456bdc8	3.7405830944987635
238	0x40144200eacd7a4f	5.0644566238321
239	0x3fdd5ad4809bae86	0.4586688285769259
240	0x400d0d2a78e98cd9	3.6314286657594548
241	0x4016ae22c62c2784	5.6700545277070695
242	0x40111dc1d282e681	4.279059685935523
243	0x4012a1ae62f4a9a6	4.657891794379259
244	0x40181a8461b85167	6.025895621180417
245	0x4018e10297e1bd30	6.2197364551096115
246	0x400e07c70bb174c9	3.753797618248971
247	0x4003e7af79a9de89	2.488127661224841
248	0x40005388ba635fde	2.0407881318642316
249	0x4003232aa2650dd8	2.3921711623276956
250	0x40074df79548a4aa	2.9130698836130096
251	0x3ffaf294c6075331	1.6842239127628995
252	0x400b705313b5719a	3.429845956778263
253	0x400f2236d40740d0	3.8917061390603536
254	0x4011d41249905c00	4.45710101073837
255	0x3ff3fb3c40e09738	1.2488367590207883

subModel1.a_layer.lin.weight f8 [21, 512]
0	0xbfc94ab319096398	-0.19759215090269033
1	0x3fefb3c10328b39b	0.9906926213931116
2	0x3fe73f12431f0e28	0.7264491377795297
3	0x3fe1fda9ece0e00e	0.5622148157626741
4	0xbfe3412f34afe724	-0.6017070797963453
5	0x3fe02875d32ba633	0.5049389957832261
6	0x3ff12c1e6bf0ebcc	1.0732711998414173
7	0xbff643fb749f49ae	-1.3915972285800353
8	0xbfe23df22011e9db	-0.5700617433897678
9	0x3fde82e9d6cc88bd	0.4767403218885525
10	0x3fecffc7deff5ee4	0.9062232356472717
11	0x3fea72fb02b7c669	0.8265357068141387
12	0xbfe2e679d71a819b	-0.5906342698327082
13	0xbfd541d1f2c8edc8	-0.3321423407503201
14	0x3ffba64e3fecd110	1.7281019684861043
15	0x3fba9ba99fc99f1e	0.10393772269310061
16	0x3fe6bd8f892c4a43	0.7106397322807613
17	0x3fd5050fd5ad1e1e	0.32843395106144324
18	0x3fee4a6ad3ff1d60	0.9465841427381001
19	0x3fdaa825010e4689	0.4165127287206834
20	0x3ff2dc457aa3b993	1.1787771978957593
21	0x3ff0398961a6b663	1.014047032785492
22	0xbfd2928f5bd25501	-0.29019531218484934
23	0xbff3c996af7cb323	-1.2367159705128834
24	0x3fe6a6322a703e98	0.7077875927806927
25	0xbfebb77ec2981a2d	-0.8661493111292821
26	0x3fe24966e104db0d	0.5714601893331249
27	0xbfe02f621d769996	-0.5057840896086414
28	0x3ff5755e8e61de31	1.3411546289261305
29	0xbff0585b8b5b2821	-1.0215716785046498
30	0xbfeb108864ef13ac	-0.8457681628575435
31	0x3fd63a3e36100129	0.3473048713640475
32	0x3fcd3950c394292f	0.22831162976974315
33	0xbff029a91138ce94	-1.0101710007410576
34	0xbfee3e44c4d14c7a	-0.9451011509030558
35	0xbfe01b1546755ef8	-0.5033060432569689
36	0xbfed24ff71c5af76	-0.9107663366425942
37	0x3ff1ad283e7a8a0b	1.1047747078488352
38	0xbff68734c7a2b30f	-1.408009319139811
39	0x3ff2dd076e1cc43b	1.1789621640457557
40	0x3ff994b2623f623e	1.5988029325291246
41	0x40004c546426c312	2.0372703384713384
42	0xbfc76495aba0cbf3	-0.18275709991721065
43	0x3fef25b6cd040187	0.9733537677966958
44	0xbff414b14bbb7b76	-1.2550518949790024
45	0xbfdfe017bcdd449c	-0.4980525345209317
46	0xbfe4aec6b40be571	-0.6463349834950077
47	0xbfe1d1d9569bfb71	-0.5568663302982327
48	0x3fc0fc26a9bf1dd0	0.1326950386848993
49	0x3fc640eede635788	0.17385660036842077
50	0xbfc45b1e6af5bfe7	-0.15903072569517393
51	0xbfe06b360ac74b59	-0.5130872927205515
52	0xbff5372e835b10ab	-1.3259720927317555
53	0xbfd9184049749699	-0.3921051709497561
54	0x3fe51e3bb08c8762	0.6599405716153621
55	0xbfd17b1161252a7b	-0.27313646780809336
56	0xbffb66e918cb1832	-1.712624642228104
57	0x3fb1b4e53a6824e9	0.06916649509379948
58	0x3fdf5af681296062	0.4899269353240979
59	0xbfdd56ad716a39c3	-0.4584153754775821
60	0x3fd7e16dcc88bd11	0.3731340882686292
61	0xbfe78ececc93cbc4	-0.7361825938845574
62	0x3ff4a36e46520273	1.2899000880135219
63	0x3fe3e1c4bc06e977	0.6213096306230871
64	0xbfe01a034cf95155	-0.503175402011531
65	0x3fdac85e0d61fc12	0.4184794550600951
66	0x3fa930beaf10e281	0.04920001875911329
67	0xbfcb48c06979c761	-0.2131577029245433
68	0x3fef01e9f20a3a86	0.9689836242049104
69	0x3fb3f3054c22837f	0.07792695149193028
70	0xbfe01a1df43131a1	-0.5031881112459368
71	0xbfaafa4f098c307e	-0.05269095412776979
72	0xbfdcac65dc1ebac3	-0.4480223321542491
73	0x3fe32d3c54b9a406	0.5992719321048987
74	0x3fea5ced536e73c7	0.8238436345596875
75	0xbfe94aae9d2643b1	-0.7903664655042261
76	0x3fe9b87e57214117	0.8037711812740181
77	0x3ff9aee30aaa7507	1.605196992553205
78	0xbff213b81800b4f7	-1.1298142373664726
79	0x3fd3ffb10c9085e0	0.3124811766338933
80	0x3fc05ff97a29f782	0.1279289099219874
81	0xbfee59486b5889c0	-0.948398790035121
82	0x3fd773e33ae009a6	0.36644821881795975
83	0xbfebea6a46b2ae3c	-0.8723651295490025
84	0xbfb03baaae730859	-0.06341044196145286
85	0x3fd33eabc119ad2f	0.3007001291031938
86	0x3ff4f399b738f151	1.3094727666021593
87	0xbfe264e9465f7421	-0.5748182653875383
88	0xbfe81ddaa5bd2b11	-0.7536442982758179
89	0x3feadf0b5e6e60e3	0.8397271007879933
90	0xbfd742795ddaccb0	-0.3634322563695589
91	0xbff184823b389ad8	-1.0948507607769695
92	0xbfd88aa03e4f0998	-0.38346105656469254
93	0x3fe32c516c602a83	0.5991599194251908
94	0xbfee3b22d0119437	-0.9447187484589737
95	0xbff3e37aa417f40d	-1.2430368814377772
96	0xbfd28b91385ab66e	-0.2897685098967945
97	0x3fe26c869499e763	0.5757477667204792
98	0xbfe3e9c27cb3394b	-0.6222851214932147
99	0xbfd40fa0efe7fa61	-0.3134538977464328
100	0xbfe8aa72df69a07c	-0.7708067286994402
101	0x3fe662a4e7bb8a93	0.6995415235545174
102	0x3fef12aa3b4ae65e	0.9710284383829266
103	0x3ff25a936ef97563	1.147113259786544
104	0x3fbacf41050d9f8f	0.10472494481439142
105	0xbfe19bc9318ffa13	-0.5502668350234806
106	0x3fc8612fd56c3f4b	0.19046590729748866
107	0x3fe946e95801cd75	0.7899061888587499
108	0x3ff6964ad6861f30	1.4116924648132674
109	0x3fc5ed4aa49341e6	0.17130406413936256
110	0x3ff0c97af01a1121	1.0491895083405967
111	0x3ff62cacbee09c11	1.385906930556079
112	0x3ff890419c55b59c	1.535218821223089
113	0x3fe2de0483ebe947	0.5896017624466275
114	0x3ffda6c13021e35c	1.8532115822001378
115	0x3ff4286d8d169c45	1.2598701010954454
116	0x3fdd2249af42b375	0.4552177630928818
117	0xbfe09f1c9d6ca66b	-0.5194228243537514
118	0x3ff38436373073c7	1.2197782665091255
119	0xbff79aaac41b033c	-1.4752605114337731
120	0xbfd1617517d1e653	-0.2715733273140348
121	0x3fc29b92f78db786	0.1453727444417689
122	0xbfc51f47f3eeaa21	-0.16501712237125424
123	0xbff02286b065d783	-1.0084292307414848
124	0x3ff2af5177208478	1.1678023007773657
125	0xbfe112bd29998e75	-0.5335374653336219
126	0xbf9efe062c5d4326	-0.030265900094778385
127	0xbfd3595e8ce657db	-0.3023296714758296
128	0x3ff8b0dd532f5c68	1.5431798219122133
129	0xbfe4f74797b0f764	-0.6551855051727498
130	0x3ff13e52d894cc21	1.0777157268719366
131	0xbff3b4c06be7f08f	-1.2316288199499785
132	0x3ff0d16fb76c2349	1.0511319317758583
133	0xbfe0fbab9b18283b	-0.5307214764773173
134	0xbff14ad58877af98	-1.0807700472605344
135	0x3fe38d2dcc18d446	0.6109837518948857
136	0x3fe4e8eac7b87c08	0.6534322644037056
137	0x3fd3dfe66ee80d46	0.3105407794066263
138	0x3ff60675d5e9992f	1.3765772205311568
139	0x3fc89dda630f550c	0.19231729351910365
140	0xbff874e674d519c9	-1.5285400928274717
141	0xbfe0d27a198e627d	-0.5256929873604147
142	0x3fdef809c42af34c	0.4838890472126891
143	0xbfd80ad61acb7b77	-0.3756613980930789
144	0x3ff189f4b9e7b463	1.0961806547086546
145	0x3fe071d6d05b76a6	0.5138963765600308
146	0xbfe1c46576954daa	-0.5552241626814312
147	0x3ff214f4f446df0b	1.1301164190353485
148	0xbfe2671a8c3e6fa1	-0.5750859011782162
149	0xbfeb085c2281ef0d	-0.8447704957938825
150	0x3ff078e3a944eb64	1.0295139896467953
151	0x3ff08282aa2db095	1.0318628928753573
152	0xbfcfa35cf12976e0	-0.24717294478880714
153	0xbfd4308a6290b823	-0.315462681060014
154	0xbfef5f84cb1dcc64	-0.98041000052616
155	0xbff79be0d7785260	-1.4755562226102015
156	0x3fe4687b8c935a7f	0.6377542253129177
157	0x3fe839ca6feee1f6	0.7570545374101687
158	0xbfdbb982a34ed128	-0.4331976504138475
159	0x3ff0093955539e7f	1.002251942927529
160	0xbff0d9ca9974fcc5	-1.0531717295087202
161	0x3fdeb19e3ee6f604	0.4795909513739789
162	0xbfec14b95ab2837c	-0.8775297900611885
163	0x3fb781fa37b886ef	0.09182704792376815
164	0x3fad3d78bdf5dd7d	0.05710961645939514
165	0x3fd810729aefdf68	0.3760038865143458
166	0x3fe28a05f6a36805	0.5793485467104352
167	0x3fca66c2dc6c959b	0.20626102221391993
168	0x3fecb4950640c19e	0.8970437166336074
169	0xbff0de0e6b3ff2db	-1.054212969727067
170	0x3fed7c3cbbddc737	0.9214156789077838
171	0xbfd23eaf10da22e4	-0.2850759186335792
172	0xbfe13927dafb08cd	-0.538227012344828
173	0x3ff723d838409379	1.4462511250833059
174	0x3f8e9717c82d38d0	0.014936624332815646
175	0x3fe9d38b7d30afeb	0.8070733494873797
176	0xbf96c85cca2c5d73	-0.02224869712798978
177	0x3fe62959d759567a	0.6925477224383052
178	0xbfec41ce52b074e9	-0.8830329527878834
179	0xbfc5ce09200d880c	-0.17035020890313068
180	0xbfe09c930f19b89f	-0.5191130919390793
181	0x3fe358906689ceb1	0.6045610430432672
182	0xbfefd0809566ad5f	-0.9942019384374524
183	0xbfe46b1799ff0e2c	-0.6380727775326185
184	0x3ff77247d33c82bc	1.4654005290432641
185	0xbfeb77d48f3615ab	-0.858377723416813
186	0xbfee38a6ea2104de	-0.9444155285674716
187	0x4000d4c7144d5bbb	2.103895338640965
188	0x40036fe7ce779dfe	2.4296413545851
189	0x3fd023c01605559f	0.2521820273444408
190	0xbfb788c92e4f253e	-0.09193093662829185
191	0xbff5800cbda98548	-1.3437621506385131
192	0x3fed502221537b64	0.9160318995380803
193	0x3feed05102723e18	0.9629292533663287
194	0xbfda7e624bcf150d	-0.4139638653108058
195	0x3fef87ce18476b3e	0.9853277658652144
196	0xbfe8d9b02ba3e996	-0.7765732624387052
197	0xbff3b74942e6091e	-1.232247601816716
198	0x3ff5fc85d14d94ef	1.3741510558987178
199	0x3fb9a61a8745d5da	0.10019079020079094
200	0x3fee961f7730499f	0.9558255508330155
201	0xbfdbd4733afc2811	-0.43484192619564604
202	0xbfc1f58d9e5aa6cc	-0.14030618888982926
203	0xbfa05d0a2340cb26	-0.031959835818631085
204	0x3fea74f24d09e17b	0.8267756943378538
205	0xbff7ccb8943b29d2	-1.4874807157781231
206	0x3fd3bedbe0e7a71d	0.3085241028153279
207	0x3ff0faff85b46a2f	1.0612788412896739
208	0x3ff07edf1ee33e69	1.0309745031881
209	0xbfdea45113eb6ba5	-0.4787790960814909
210	0x3fea52a0249358bf	0.822586127697626
211	0x3ff65e25aebd9c05	1.3979851556593996
212	0x3fd909071455f2dd	0.3911760042754347
213	0x3fee6d6bd1ef351b	0.9508570766717271
214	0xbff1f79eb1c5a2a7	-1.122954077169348
215	0x3fc11ce8f6383b8f	0.13369476339763905
216	0xbff4a1506d4832e4	-1.2893833416775857
217	0x3ff2f3c08b73e1ee	1.1845097968454144
218	0x3fd600a7223b1469	0.3437898477826083
219	0x3fe57726a69ee4ce	0.6707947973547108
220	0x3ff1ad2af10d3f21	1.1047772804340144
221	0x3fead5084fe20ef5	0.8385049400535239
222	0xbfe34805651a2ad1	-0.6025416350033429
223	0xbff16f299d23a9e7	-1.0896392954115244
224	0x3fe73f2a9bbb75a3	0.7264607469220902
225	0xbfeba4d1b99a1ea6	-0.8638695359267856
226	0x3ffcb93d4f40dda9	1.7952244850001569
227	0x3fe8c2265043dfc5	0.7736999099424727
228	0x3feb13a8e6723beb	0.8461498738196246
229	0x3ff16005acf34538	1.0859429126615634
230	0x3ff844173aa6727a	1.5166237154982398
231	0x3fed156898e2575f	0.9088633523958655
232	0xbff77175f5afaa93	-1.4652003857724238
233	0x3ff63171338261da	1.3870708477098703
234	0xbfef078d9ff29cb4	-0.9696720241526209
235	0x3ffeda683c40ddab	1.928322062840247
236	0xbff26b8e9d799ad1	-1.1512590552680886
237	0x3fe80e57692cd50f	0.751750665111702
238	0x40032a553163be9a	2.3956703051151864
239	0xbff28d204fd235a3	-1.1594546430600097
240	0x3fd93358f1e013b9	0.39375899906763895
241	0xbff11d0ac13c166c	-1.0695903347235811
242	0xbfd7dc19ff71f46b	-0.37280893274129906
243	0xbfb567b9aec9c36b	-0.08361397282875564
244	0xbff00648eee2ccea	-1.0015343982202531
245	0x3fca6a39fdb646c8	0.20636677635461909
246	0x3ff31fbc8c4ae6ef	1.195248172777095
247	0xbf9cd31388c42765	-0.028148942205951672
248	0x3fdca9a6900849f5	0.4478546530309864
249	0x3fbaa111b95b8cee	0.10402022147495746
250	0xbfd06d87765c5d79	-0.2566851287715149
251	0xbfeb1ed2377c182a	-0.8475123485266114
252	0x400035b00eaa1b36	2.026214708868248
253	0xbfe407c1d5710592	-0.6259469193247915
254	0xbfb687b0284f5dba	-0.08800793632632678
255	0xbfe134fe60a2eeb9	-0.537718952887608

subModel1.a_layer.lin.bias f8 [21]
0	0xbff85bb59739089c	-1.5223899752750532
1	0xbffa435ceb9be0d8	-1.6414460376236573
2	0xbff8843df2282360	-1.5322856387376405
3	0xbff9ec59164a935a	-1.6202021475557644
4	0xbffa407f84e98639	-1.640746611774729
5	0xbff9cc9fed0085c5	-1.6124572046177132
6	0xbff8eda64757dc67	-1.5580199038356797
7	0xbff996c7f9910eb3	-1.5993118046471124
8	0xbffa49e90988f453	-1.643044507261284
9	0xbff9e8857c41b03e	-1.6192679265759717
10	0xbffa1517e8ed76d6	-1.6301497553571855
11	0xbff108d8b26c302f	-1.0646597833283626
12	0xbffa1fcffc1310ab	-1.6327667090090852
13	0xbff98ff40db6c399	-1.597644856996544
14	0xbff92ea367fadf34	-1.5738863050191414
15	0xbff9fa6b73303aae	-1.6236376285120673
16	0xbffa1a372ebdacfc	-1.631400282460901
17	0xbffa434cdf30c787	-1.6414307325726172
18	0xbff47a228ead7fbe	-1.2798181126927228
19	0xbffa40c42e9350a5	-1.640812093673085
20	0xbff9a61a2bd572af	-1.6030523025757863
